adversarially_trained_model_fashion.pt (torch, 532091 bytes, 14 tensors)

embedding.weight f4 [64, 1024]
0	0x3ce0ba1b	0.027432492
1	0xbcd68ae8	-0.026189283
2	0xbc905a13	-0.017621076
3	0xbcd609b0	-0.026127666
4	0x3b24c7bc	0.0025143465
5	0xbc6fa626	-0.014627015
6	0x3ca70fde	0.020393308
7	0xbbeb2814	-0.0071764085
8	0x3a8d9de2	0.0010804499
9	0x3cee2842	0.02907193
10	0xbbe146b6	-0.0068748845
11	0x3bf3d625	0.0074412995
12	0xbcb15b6c	-0.021650039
13	0xbcc511c2	-0.02405632
14	0xbc12e1f2	-0.008965002
15	0x3d18b223	0.03727926
16	0x3cc7f3b7	0.024408204
17	0x3c48aef5	0.012248744
18	0x3c55f0a0	0.013057858
19	0xba97317a	-0.0011535131
20	0x3b8cd2f6	0.0042976094
21	0x3c3cb3f5	0.0115175145
22	0x3d18582d	0.037193466
23	0x3d04b4c7	0.032398965
24	0xbbcef63c	-0.0063159745
25	0x3c88a697	0.016680999
26	0x3ca42d21	0.02004105
27	0x3afdb5b2	0.0019356518
28	0x3bc3ed78	0.005979236
29	0xbb98ca0f	-0.004662759
30	0xba85f99b	-0.0010221483
31	0xbc6c2490	-0.014413014
32	0xbc88bff8	-0.0166931
33	0xbc0d7163	-0.0086329905
34	0xbcdf45f4	-0.027255036
35	0x3cbe432b	0.023225388
36	0x3c21ddea	0.009879569
37	0x3c94381a	0.018093158
38	0x3c435795	0.011922737
39	0x3ca3bf06	0.019988548
40	0x38d69a88	0.00010233099
41	0xbb0dea10	-0.0021654405
42	0xba7f32f3	-0.000973507
43	0x3d0d102f	0.034439262
44	0x3c2c9a36	0.010534814
45	0xbd08fca0	-0.033444047
46	0x3c4ab80f	0.012372985
47	0x3c355191	0.01106681
48	0xbc6bc14f	-0.01438935
49	0x3cb5862b	0.022158703
50	0x3cbe806c	0.023254596
51	0x3cac4f7b	0.021033993
52	0xbcd45faf	-0.025924532
53	0x3bbd0889	0.0057688397
54	0x3ca9477a	0.020663965
55	0x3c58ff21	0.013244421
56	0xbb90ef5f	-0.0044230665
57	0x3d03c87c	0.03217362
58	0x3c9a4dbe	0.018835898
59	0x3ca73d2c	0.020414911
60	0x3cca60ec	0.02470442
61	0xbc1fb1e0	-0.009746999
62	0xbcae5342	-0.021279935
63	0xbca4dd58	-0.020125076
64	0x3cb3f5d3	0.021967804
65	0x3c846b84	0.016164549
66	0xbc43199a	-0.011907959
67	0xbc607ab9	-0.013701134
68	0xbba366ce	-0.0049866205
69	0x3ae2a101	0.0017290415
70	0x3b67be40	0.00353612
71	0x3b87b822	0.0041418234
72	0x3b9856b6	0.0046490086
73	0xbc1c7cba	-0.0095512215
74	0x3a91f93d	0.0011136901
75	0xbc8193de	-0.015817579
76	0xbc877cca	-0.016538996
77	0xba47e87a	-0.0007625889
78	0x3cc4d5f0	0.024027795
79	0x3c8b5a21	0.01701075
80	0x3c04f666	0.008115387
81	0xbd07d0f5	-0.03315826
82	0x3cad5f88	0.021163717
83	0xbc3fb640	-0.011701167
84	0x3c0fdbfc	0.008780476
85	0x3c112ec5	0.008861248
86	0xbc2dff10	-0.010619894
87	0x3ceb9a41	0.028760077
88	0xbc961a46	-0.018323075
89	0xbbadc0b8	-0.005302515
90	0x3ce4f344	0.02794803
91	0xbc53a319	-0.0129173035
92	0xbc08bfad	-0.00834648
93	0xb776298d	-1.4672417e-05
94	0x3c99094b	0.018681189
95	0xbca99b3a	-0.0207039
96	0xbb40a1d1	-0.0029393325
97	0xbccd0aa1	-0.025029482
98	0x3c872628	0.016497687
99	0xbcaec1b3	-0.021332597
100	0x3ccf68d0	0.025318533
101	0x3c971081	0.018440487
102	0x3c8533fb	0.016260138
103	0xbc1ef269	-0.00970135
104	0xbce1c49f	-0.027559577
105	0xbb75329f	-0.0037414206
106	0xbaccd649	-0.0015627827
107	0xbc787ccc	-0.015166473
108	0x3d136cf8	0.035992593
109	0x3ca8f2ee	0.02062365
110	0x3c082d35	0.008311559
111	0x3ca17edd	0.019713813
112	0x3cb48091	0.022033961
113	0xbc717ef6	-0.0147397425
114	0xbc19bb5a	-0.009383047
115	0x3ca03be2	0.019559804
116	0x3cb6be80	0.022307634
117	0x3cfd878c	0.030948423
118	0x3c5158d0	0.012777522
119	0x3cb164b7	0.02165447
120	0x3cd43b8b	0.025907299
121	0x3c309258	0.010777079
122	0x3b58b73a	0.0033068196
123	0x3c45f34e	0.012081934
124	0xbcc3f739	-0.023921596
125	0xbc80bbfa	-0.015714634
126	0x3c216dc0	0.009852827
127	0x3c0d6a36	0.00863128
128	0xbca5374d	-0.020167971
129	0x3ca2ca70	0.01987192
130	0xbc478717	-0.012178204
131	0x3c994e0d	0.018713975
132	0xbc293684	-0.010327939
133	0xbc392b93	-0.011301893
134	0xbcc04776	-0.023471575
135	0xba31e43e	-0.0006786025
136	0xbcff292e	-0.031147566
137	0xbbb14ac4	-0.005410524
138	0x3bce094a	0.0062877284
139	0x3d1a5051	0.037674252
140	0xbb083bc7	-0.0020787583
141	0x3b8ca4f5	0.0042921253
142	0xbc883efd	-0.016631598
143	0xbb80ff14	-0.0039366577
144	0xbc725343	-0.014790359
145	0xbcd6536d	-0.026162827
146	0x3aeeb01a	0.0018210441
147	0x3d1e0236	0.038576327
148	0xbc0d5333	-0.008625793
149	0x3b6265f2	0.0034545627
150	0xbc77d8d0	-0.015127376
151	0x3aa421a5	0.0012522234
152	0xbc8e88d9	-0.017399238
153	0x3c6ef3cc	0.014584493
154	0x3cc9d0fc	0.024635784
155	0xbc76a0ed	-0.015053016
156	0x3c2e44a1	0.01063648
157	0xbcdfd915	-0.027325192
158	0xbc00eea5	-0.007869397
159	0x3bb99584	0.0056635756
160	0x3c225a43	0.009909215
161	0x3c84b899	0.016201304
162	0x3c4e3cf1	0.012587772
163	0xbcc54537	-0.024080856
164	0xbc173b3b	-0.00923043
165	0xbc8095dc	-0.015696459
166	0xbc3d389d	-0.011549142
167	0x3b569c64	0.0032747025
168	0x3cce2269	0.025162892
169	0xbb363427	-0.0027802081
170	0xbc769378	-0.015049808
171	0x3cb8c852	0.022556458
172	0xbb09638e	-0.002096388
173	0xbc20a768	-0.009805538
174	0x3ca52bb7	0.020162446
175	0x3ae6d2b7	0.0017610405
176	0x3c85315e	0.016258892
177	0x3c5c8641	0.013459743
178	0x3d04e1f0	0.032442033
179	0xbbef443d	-0.007301836
180	0x3d23e351	0.040011708
181	0x3c7848e1	0.015154094
182	0x39ec1234	0.0004502699
183	0x3c8e9263	0.017403787
184	0x3c0cd711	0.008596198
185	0xbc94cbcd	-0.018163586
186	0x3c19485e	0.009355633
187	0x3cb821d2	0.022477064
188	0xbcfddf95	-0.030990401
189	0xbc7cc336	-0.015427401
190	0x3bffbd18	0.007804524
191	0xbbf96476	-0.007610853
192	0x3aa7404c	0.0012760251
193	0x3cf25276	0.029580336
194	0xbcc38a7e	-0.02386975
195	0x3c953cb2	0.018217418
196	0xbc25bfb6	-0.010116508
197	0x3cb653c6	0.022256743
198	0xbd236b70	-0.039897382
199	0xbce3b14b	-0.0277945
200	0xbc7efe27	-0.015563524
201	0x3cc27864	0.023739047
202	0xbadc36cb	-0.0016800998
203	0x3cd72fe6	0.026267957
204	0xbc8e64fe	-0.017382141
205	0x3d03df8b	0.03219561
206	0x3bc36d04	0.0059639234
207	0xbce6c028	-0.0281678
208	0x3cdd98de	0.027050432
209	0xbbe3b371	-0.0069488813
210	0xbc92bc47	-0.017912043
211	0x3d16aa1c	0.036783323
212	0x3cea7e69	0.02862473
213	0x3c8a4ba6	0.016881775
214	0x3b25e1e1	0.0025311636
215	0x3ad50988	0.0016253451
216	0xbd38e2c8	-0.04513815
217	0xbc5c9110	-0.01346232
218	0x3c46228c	0.012093198
219	0x3c8a4dd0	0.016882807
220	0x3ca6acab	0.020346006
221	0x3adce915	0.0016854132
222	0xbc191254	-0.009342749
223	0xbbd1835c	-0.006393833
224	0xbc98e8d2	-0.018665705
225	0x3caf8c47	0.021429194
226	0x3cca4c9b	0.024694731
227	0x3c40f0b9	0.011776143
228	0xbbef5abe	-0.0073045185
229	0xbc32bc6d	-0.010909182
230	0xbd247e8c	-0.040159747
231	0x3c584224	0.013199363
232	0xbc6c2fe6	-0.014415717
233	0x3b3cb8a6	0.0028796582
234	0x3ceebb81	0.029142143
235	0x3b86ab42	0.004109771
236	0xbbfd71dd	-0.007734521
237	0xbcc8f340	-0.024530053
238	0x3c3afe9d	0.011413244
239	0x3c62cb09	0.013842353
240	0x3ca7f3b9	0.020501958
241	0x3d09b732	0.033621974
242	0x3d06a182	0.03286887
243	0x3c86905d	0.01642626
244	0x3c0a80fe	0.008453606
245	0x393c421f	0.00017953709
246	0x3bb95fee	0.0056571877
247	0x3c311bee	0.010809882
248	0xbc709506	-0.014683967
249	0xbc4e0d67	-0.012576438
250	0xbccebb21	-0.025235714
251	0x3b9b9e92	0.0047491277
252	0x3c29e64b	0.0103698475
253	0xbac201a6	-0.0014801517
254	0xbbf7c5d6	-0.0075614257
255	0xbb12f0e7	-0.002242142

embedding.bias f4 [64]
0	0xbd3d8bec	-0.046276018
1	0xbcbe7905	-0.023251066
2	0x3cc5d2aa	0.024148304
3	0x3c81a491	0.015825542
4	0x3c85fc24	0.016355582
5	0x3c334044	0.010940615
6	0x3d571879	0.052513573
7	0x3db95b78	0.090506494
8	0x3ca1ecc1	0.019766213
9	0x3c679092	0.014133589
10	0x3d58891c	0.052865133
11	0x3d8e78e5	0.069566526
12	0xbca55042	-0.020179871
13	0xbcc02c22	-0.023458544
14	0xbbce043b	-0.0062871254
15	0x3d3c5ce8	0.04598704
16	0x3c8bdacb	0.017072102
17	0xbca726d8	-0.020404264
18	0x3c76d508	0.015065439
19	0x3cfbdd16	0.03074507
20	0x3aa1cd6e	0.0012344548
21	0x3c97508d	0.018471027
22	0xbb622139	-0.0034504666
23	0xbd04e814	-0.03244789
24	0xba6d608e	-0.000905522
25	0x3cb5d0e8	0.02219434
26	0xbcd1ac7b	-0.02559494
27	0xbcb947c5	-0.02261723
28	0xbc5a3438	-0.013318114
29	0xbc38fe3b	-0.011291082
30	0x3c8122cc	0.015763663
31	0x3cc69866	0.024242591
32	0xbbe8b150	-0.0071012154
33	0x3c6939a0	0.01423493
34	0xbda54a54	-0.080708176
35	0xbd2690cb	-0.04066543
36	0xbb037bfc	-0.0020062914
37	0x3ce5bc7d	0.02804398
38	0xbd4ebcef	-0.05047315
39	0xbd1fefd9	-0.039047096
40	0xbbf15ad3	-0.0073655634
41	0xbd4e18d9	-0.050316665
42	0x3a22541c	0.0006192343
43	0xbd48c151	-0.049012486
44	0x3d09dcce	0.03365784
45	0xbc59b74f	-0.013288333
46	0xbaaeb09b	-0.0013327779
47	0x3c2d7979	0.010588043
48	0x3caaea76	0.020863753
49	0xbcbb853b	-0.022890678
50	0x3c68d4a9	0.014210858
51	0xbc5de2e0	-0.013542861
52	0x3c32f49b	0.010922576
53	0xb973d94f	-0.0002325524
54	0x3d25037f	0.040286537
55	0x3b3b4773	0.0028576523
56	0x3c113e8c	0.00886501
57	0x3cd37ed2	0.025817309
58	0x3ca3767c	0.019953959
59	0x3c07c6d6	0.008287152
60	0xbd4e737a	-0.050403096
61	0x3d28238b	0.04104952
62	0x3c977c0d	0.01849177
63	0xbb2b0fd0	-0.0026101954

block1.0.weight f4 [256, 64]
0	0x3cfb3a2b	0.030667385
1	0x3e01e8f9	0.12686528
2	0x3c842edf	0.016135631
3	0xbc22b1a8	-0.009930052
4	0x3cf582ff	0.02996969
5	0x3d68fdd8	0.05688271
6	0x3d0c19ad	0.034204174
7	0xbd8eb5ca	-0.06968267
8	0xbdfa0129	-0.122072525
9	0x3dbf3d38	0.093378484
10	0xbd956c2a	-0.07296021
11	0xbd3b8cf2	-0.045788713
12	0x3db65da5	0.0890458
13	0xbdbf6a60	-0.09346461
14	0xbd9f015c	-0.07763931
15	0x3df0f28e	0.11765014
16	0x3be8316d	0.00708597
17	0x3d30995e	0.043115012
18	0xbd89ffcb	-0.06738242
19	0xbca04076	-0.019561987
20	0x3c2c3dfa	0.010512823
21	0xbceacbfb	-0.028661719
22	0x3d4e9c64	0.050442114
23	0x3db04e57	0.08608692
24	0x3d870bd4	0.06594053
25	0x3d87c2ae	0.06628929
26	0x3de33aff	0.11095237
27	0x3d8c955a	0.06864424
28	0xbd374cef	-0.044751104
29	0xbca3ae0d	-0.019980455
30	0xbdcc6c81	-0.09981633
31	0x3d89f181	0.06735516
32	0xbd788b24	-0.06067957
33	0x3d0848d3	0.033272576
34	0xbdc9d671	-0.098553546
35	0x3cb307f8	0.021854386
36	0x3dce101a	0.10061665
37	0x3de818bb	0.11332842
38	0x3da480b8	0.08032364
39	0xbdd2cb04	-0.102926284
40	0xbd8826f5	-0.066480555
41	0xbdef3bc5	-0.11681322
42	0xbd2c9732	-0.04213638
43	0x3b630007	0.0034637467
44	0x3dae751b	0.0851843
45	0xbded7a2f	-0.1159557
46	0x3d028ddc	0.03187357
47	0x3d8841b6	0.06653158
48	0xbcde552f	-0.027140228
49	0xbdc50aa8	-0.09621173
50	0xbdb63d18	-0.088983715
51	0x3d81d2eb	0.063390575
52	0x3dcb563d	0.09928558
53	0x3d6ef8f5	0.058342893
54	0xbdd7032e	-0.10498653
55	0xbdcbd8e3	-0.09953477
56	0x3df28f32	0.118437186
57	0xbcdb59a6	-0.026776146
58	0x3cf0511c	0.029335551
59	0xbd788216	-0.060670935
60	0xbd5636b1	-0.05229825
61	0xbd349e7a	-0.044096448
62	0xbdabeb31	-0.083944686
63	0x3dc75d16	0.097345516
64	0x3df6754d	0.12034092
65	0xbd5db24f	-0.054125126
66	0x3dfa46a9	0.122205086
67	0xbd4298c6	-0.047508977
68	0xbdf8ef6c	-0.12155041
69	0xbd9425a2	-0.072337404
70	0x3d14e1b2	0.036348052
71	0xbde84559	-0.11341352
72	0x3dbc2031	0.091858275
73	0xbdcbb172	-0.099459544
74	0x3dbd57f4	0.09245291
75	0xbd12ff66	-0.0358881
76	0x3d6ab39e	0.057300203
77	0x3db94a2a	0.09047349
78	0x3d53cc95	0.051708777
79	0x3dcf2d69	0.10116083
80	0x3b66a1c3	0.0035191632
81	0xba69a244	-0.0008912424
82	0xbd906aa3	-0.07051589
83	0x3dc99ef7	0.09844773
84	0x3df4eca2	0.119591966
85	0xbdf861f5	-0.12128059
86	0xba814604	-0.0009862785
87	0x3dea1c2b	0.11431154
88	0xbe103848	-0.1408397
89	0xbd6edb59	-0.058314655
90	0xbd0fb347	-0.03508308
91	0xbd3a0bba	-0.04542134
92	0xbc30ebf9	-0.010798448
93	0x3c6108a9	0.013734975
94	0x3e082704	0.13296133
95	0xbd8de11d	-0.069277026
96	0x3dc85921	0.09782625
97	0xbca84e74	-0.020545222
98	0x3d35947e	0.044331066
99	0xbdb71f05	-0.089414634
100	0xbd6df677	-0.058096375
101	0x3df31c16	0.11870591
102	0x3c72fbc2	0.014830532
103	0x3dbff24f	0.093723886
104	0xbdc5a8cb	-0.09651335
105	0xbd95d28c	-0.07315549
106	0xbd310071	-0.04321331
107	0xbe1ad1fc	-0.15119165
108	0xbddf648c	-0.1090785
109	0x3de4e1c8	0.11175877
110	0x3c959793	0.018260753
111	0xbd3bfe25	-0.045896668
112	0xbbcc2f33	-0.0062312125
113	0x3d7a81a6	0.0611588
114	0x3d8cc936	0.068743154
115	0xbdc03d1d	-0.093866564
116	0x3dc13bd0	0.094352365
117	0x3dcdfc8e	0.100579366
118	0xbd8c9d6e	-0.06865965
119	0x3dd607cd	0.10450707
120	0x3d9c8e1e	0.07644294
121	0x3dd4a99f	0.10383915
122	0xbdf87022	-0.12130763
123	0xbd38017b	-0.044923287
124	0x3d631f98	0.055450052
125	0x3e0dd3b2	0.13850287
126	0x3dbe0f1e	0.09280227
127	0xbd6e1f77	-0.058135476
128	0xbd7a0730	-0.06104201
129	0x3daee417	0.085395984
130	0x3d27e7e2	0.040992625
131	0xbd96e60e	-0.07368098
132	0x3d657dcd	0.056028176
133	0xbc64cb15	-0.013964434
134	0xbc9946f6	-0.018710595
135	0x3db53abf	0.088490956
136	0xbda55279	-0.08072371
137	0xbd999245	-0.07498602
138	0xbd0846e1	-0.03327072
139	0xbde4fd9f	-0.11181187
140	0x3dc1e5ce	0.0946766
141	0xbcd77aa8	-0.026303604
142	0x3c9d57fd	0.019206995
143	0x3dc0ca85	0.094136275
144	0x3d78e1a3	0.06076206
145	0x3ca76797	0.020435138
146	0x3cc4601f	0.023971615
147	0xbda7cb43	-0.08193066
148	0xbd78ccc7	-0.060742166
149	0x3ddab8df	0.106797926
150	0xbd8fa6c8	-0.07014233
151	0x3dd35abc	0.103200406
152	0xbd738422	-0.059452184
153	0xbdf16db1	-0.117885
154	0xbde58bf6	-0.11208336
155	0x3d9f559d	0.07780001
156	0xbce8b9e7	-0.028408958
157	0x3dc3e971	0.0956601
158	0x3d1d03b4	0.03833361
159	0x3c904cd0	0.017614752
160	0xbda1c5d1	-0.078990586
161	0xbd73f034	-0.059555247
162	0xbbffe66b	-0.0078094504
163	0xbd46f6ba	-0.04857514
164	0x3dbf603b	0.093445264
165	0x3cecb52e	0.028894987
166	0xbde622fc	-0.112371415
167	0xbca54f09	-0.020179288
168	0xbdedc510	-0.11609852
169	0x3d687823	0.056755196
170	0x3ceb7dc0	0.028746486
171	0xbd7a3500	-0.0610857
172	0xbb3587c1	-0.0027699324
173	0xbcbc23e6	-0.022966336
174	0x3dd5b89b	0.10435601
175	0x3c4032f0	0.011730894
176	0x3dc724be	0.09723805
177	0x3ddca4f4	0.1077365
178	0x3d1ad409	0.03779987
179	0x3d3f9acb	0.04677848
180	0x3c7666e9	0.015039184
181	0x3d78bf67	0.06072941
182	0x3df0abdd	0.1175153
183	0x3dbab329	0.09116203
184	0xbdf65acb	-0.12029036
185	0xbcad1313	-0.02112726
186	0x3da100b2	0.07861461
187	0xbcbe2d9d	-0.02321511
188	0xbd212771	-0.039344255
189	0xbcba671b	-0.022754243
190	0x3d7d1812	0.061790533
191	0xbd8973d6	-0.06711547
192	0x3d5929d0	0.05301839
193	0xbda9ea19	-0.08296604
194	0xbd3aa9b4	-0.045571998
195	0x3d2793d9	0.040912483
196	0xbdd5c640	-0.10438204
197	0x3cb5c6cc	0.02218952
198	0xbd94980d	-0.07255564
199	0x3d4e8a3f	0.05042481
200	0x3db5a12d	0.088686325
201	0xbdaf21ef	-0.08551394
202	0xbdd8fac6	-0.10594706
203	0x3db0ea13	0.08638396
204	0x3dc1ce9a	0.09463234
205	0x3de855dd	0.11344502
206	0xbd44ff8f	-0.048095282
207	0x3d87a2c9	0.06622846
208	0xbd21114c	-0.039323136
209	0x3d144fd0	0.036208928
210	0xbc21a1d6	-0.009865245
211	0xbdbf32d8	-0.093358696
212	0x3dc0f559	0.09421796
213	0x3e01989a	0.12655869
214	0xbde77515	-0.113016285
215	0x3df6b860	0.120468855
216	0x3debc58b	0.11512288
217	0xbcf623c0	-0.030046344
218	0x3d82a7ae	0.063796386
219	0x3c04ca04	0.008104805
220	0x3db275b9	0.0871386
221	0x3dddcf92	0.108306065
222	0xbdf0dab2	-0.11760463
223	0x3b90d47b	0.004419861
224	0xbda47ce0	-0.080316305
225	0x3def88fa	0.11696048
226	0xbcdb6d1e	-0.02678543
227	0xbd601205	-0.054704685
228	0x3ceb56b8	0.028727874
229	0xbde4bd2b	-0.111688934
230	0xbcb56990	-0.022145063
231	0xbd97d073	-0.074128054
232	0x3b6dcf28	0.0036286805
233	0x3b5b2a8a	0.0033442103
234	0x3db2d744	0.08732465
235	0x3d538507	0.051640537
236	0xbd95025e	-0.07275842
237	0x3d7d5836	0.061851703
238	0x3d0cc29c	0.03436528
239	0x3d002478	0.03128478
240	0xbc0df6ba	-0.008664781
241	0x3cb98701	0.022647383
242	0xbdc26836	-0.09492533
243	0xbd9d402e	-0.07678257
244	0x3dd16b27	0.10225516
245	0xbd820eb5	-0.063504614
246	0x3d3f51c8	0.046708852
247	0x3da1bc65	0.078972615
248	0x3df2103f	0.11819505
249	0x3df311f0	0.11868656
250	0xbdd43d9a	-0.10363312
251	0x3d692437	0.056919303
252	0xbdfcd442	-0.123451725
253	0xbc0eba19	-0.008711361
254	0x3dd2515b	0.102694236
255	0x3de3922e	0.11111866

block1.0.bias f4 [256]
0	0xbd9f25df	-0.07770895
1	0xbd58363b	-0.052786093
2	0xbbdcede5	-0.0067422264
3	0xbdffbd8a	-0.124873236
4	0x3dbe660f	0.0929681
5	0xbc9aba4d	-0.018887663
6	0xbd9093bb	-0.07059427
7	0xbc4a813e	-0.012359915
8	0xbdd929e7	-0.10603695
9	0xbd48fd53	-0.049069714
10	0xbdceb339	-0.10092778
11	0xbd6810a3	-0.05665649
12	0x3dd0a449	0.10187585
13	0xbdbe09f9	-0.09279246
14	0x3de36a32	0.111042395
15	0xbd6364b2	-0.055515952
16	0xbc8a5883	-0.016887909
17	0x3d81b58e	0.06333457
18	0x3deba726	0.115064904
19	0x3de2cba3	0.11073997
20	0x3dcb80f9	0.09936709
21	0xbdebd75e	-0.115156874
22	0xbc1ad1b1	-0.009449408
23	0x3d47b42e	0.048755817
24	0xbcbc6b23	-0.023000306
25	0xbdcdb81e	-0.10044883
26	0xbd03af5f	-0.03214967
27	0x3d00ab85	0.031413574
28	0xbde7342d	-0.112892486
29	0x3dba021c	0.090824336
30	0xbb63fe1a	-0.0034788908
31	0x3bd02a16	0.0063526733
32	0xbda5c30c	-0.08093843
33	0xbd9679a7	-0.07347422
34	0x3d27bfa1	0.040954236
35	0xbc7a3554	-0.0152715035
36	0xb99711ea	-0.0002881431
37	0xbd9b966b	-0.07597049
38	0xbd6c3f41	-0.05767751
39	0x3db53643	0.0884824
40	0x3df9eb8c	0.1220313
41	0xbcce0cc8	-0.025152579
42	0xbbebe490	-0.0071988776
43	0x3c7c26d9	0.015390121
44	0x3de2131a	0.110387996
45	0xbd930e00	-0.07180405
46	0x3b58d534	0.0033086063
47	0x3dabc455	0.08387057
48	0x3dbd1e38	0.092342794
49	0x3d801de5	0.06255702
50	0xbcca1eae	-0.024672832
51	0xbdb6eaeb	-0.08931526
52	0xbdac3b70	-0.08409774
53	0xbc51dd9d	-0.012809184
54	0xbb469aa5	-0.0030304578
55	0x3c125864	0.008932207
56	0xbc7e0629	-0.015504398
57	0xbb8b0b4f	-0.0042432914
58	0xbdbdea1c	-0.092731684
59	0x3d6a76f6	0.057242356
60	0x3c103d54	0.008803684
61	0x3d7acdd1	0.061231438
62	0x3db4f6fe	0.088361725
63	0xbd80dbf9	-0.062919565
64	0x3dc32a57	0.0952956
65	0xbdef1b74	-0.11675158
66	0x3d87521d	0.06607459
67	0x3ddac331	0.10681761
68	0x3d4eb286	0.050463222
69	0xbc22348e	-0.009900225
70	0x3ca21951	0.019787462
71	0xbd088b5d	-0.033336032
72	0xbd3b9846	-0.045799516
73	0x3d1ae39e	0.03781473
74	0xbcd63225	-0.026146958
75	0xbd8a3c67	-0.06749802
76	0x3d02fb86	0.031978153
77	0xbde908d6	-0.113786384
78	0x3d18077d	0.037116516
79	0xbd7aa5e6	-0.06119337
80	0xbd7cc34f	-0.0617097
81	0xbd83c3e9	-0.06433851
82	0x3cc57ddd	0.024107868
83	0xbca5c0eb	-0.020233592
84	0xbd920d17	-0.07131403
85	0xbd20b087	-0.03923085
86	0xbd225e90	-0.039640963
87	0x3da85740	0.082197666
88	0xbcca60b3	-0.024704313
89	0xbc6a587e	-0.014303325
90	0xbde99c91	-0.11406816
91	0x3ca5b5c2	0.02022827
92	0xbda4a18f	-0.08038627
93	0x3d83de4c	0.06438884
94	0xbcde592d	-0.027142132
95	0x3d2d6ae1	0.042338256
96	0xbd959206	-0.073032424
97	0xbda832b1	-0.082127936
98	0x3c74a2d8	0.014931403
99	0x3d99785e	0.07493661
100	0x3b9e8151	0.004837193
101	0xbdbb8697	-0.0915653
102	0x3d9a1b38	0.07524723
103	0xbd0bcf1d	-0.034133065
104	0xbdc6ad6d	-0.09701047
105	0xbdecc079	-0.11560149
106	0xbdadaa1e	-0.08479713
107	0x3c4a9827	0.0123653775
108	0x3d04ed44	0.032452837
109	0x3d5b03e6	0.053470515
110	0xbbe22a2b	-0.0069019995
111	0xbbc8278f	-0.0061082314
112	0x3db014ab	0.08597692
113	0x3cbefdab	0.023314318
114	0x3d805b10	0.06267369
115	0xbdf5717a	-0.119845346
116	0xbcb9fd81	-0.022703888
117	0xba774ad4	-0.00094334525
118	0x3dde48d9	0.10853738
119	0xbdda1c04	-0.10649875
120	0x3dcc53c4	0.099769145
121	0x3d564feb	0.05232231
122	0xbdecfa35	-0.11571161
123	0x3d682126	0.056672238
124	0x3d46419c	0.048402414
125	0x3d83485e	0.06410287
126	0xbddaa81f	-0.10676598
127	0x3d9da6ac	0.07697806
128	0xbd349467	-0.04408684
129	0xbdcc756c	-0.09983334
130	0x3db7ebf7	0.089805536
131	0x3c2e44af	0.010636493
132	0x3dd29039	0.102814145
133	0x3d93fe23	0.07226207
134	0x3c9e4f63	0.019324964
135	0xbdf85632	-0.121258155
136	0x3c924adf	0.017857967
137	0xbdb7b6c7	-0.08970409
138	0xbdd21ea3	-0.1025975
139	0x3c64c5f1	0.0139632085
140	0x3ce57131	0.028008075
141	0x3da33cbd	0.07970569
142	0x3ced4c70	0.028967112
143	0x3dbfe120	0.09369111
144	0x3dca071d	0.09864638
145	0x3d528e94	0.051405504
146	0x3d8f8942	0.07008602
147	0xbdf52c3d	-0.119713284
148	0xbc64bf84	-0.0139616765
149	0xbc63639e	-0.013878731
150	0xbced9ed9	-0.029006409
151	0x3dcf1e75	0.10113231
152	0x3d3115e8	0.043233782
153	0xbc95ff17	-0.018310113
154	0x3d11e43f	0.035618063
155	0x3dc38826	0.09547453
156	0xbdbfe36b	-0.093695484
157	0x3bbb9a6d	0.005725196
158	0x3d8febe7	0.07027417
159	0x3dc9db16	0.098562405
160	0xbdc90925	-0.09816197
161	0xbd8fb06d	-0.070160724
162	0xbe012aae	-0.12613937
163	0x3da1628d	0.07880125
164	0xbdc190ed	-0.094514705
165	0xbdb2576b	-0.0870808
166	0x3d6eea20	0.058328748
167	0xbd87f47c	-0.066384286
168	0xbddf2bcd	-0.10897026
169	0x3da6602d	0.08123813
170	0x3db7c21e	0.08972572
171	0xbdeefc24	-0.11669186
172	0xbddbfd31	-0.10741652
173	0x3e02040d	0.12696858
174	0x3dc34dea	0.09536345
175	0xbc471bbc	-0.0121526085
176	0xbca35c6f	-0.019941537
177	0xbdabef1a	-0.083952144
178	0xbded09f2	-0.115741625
179	0xbd88f61f	-0.06687569
180	0x3dbb1849	0.091354914
181	0xbcca9c13	-0.024732625
182	0xbd45de43	-0.04830767
183	0xbdf35c86	-0.11882882
184	0x3dbe7580	0.09299755
185	0x3df9f2c4	0.12204507
186	0xbcecbfea	-0.028900106
187	0xbdedde46	-0.11614661
188	0xbccdc45a	-0.025118042
189	0xbaf3ad06	-0.0018590994
190	0xbdb74542	-0.08948757
191	0x3d4fb6f3	0.050711583
192	0x3daf6297	0.085637264
193	0x3d908466	0.07056503
194	0xbbf56769	-0.007489134
195	0xbb398a41	-0.0028311166
196	0x3d586665	0.052832026
197	0xbe08b3b8	-0.13349807
198	0x3dddff7f	0.10839748
199	0xbdf3b2bf	-0.118993275
200	0xbdd06f47	-0.101774745
201	0xbd870654	-0.06593004
202	0xbdb1573b	-0.08659216
203	0x3e08611f	0.13318299
204	0xbd4a096b	-0.049325388
205	0xbdb3b48a	-0.087746695
206	0x3dd26250	0.10272658
207	0x3d021509	0.031758342
208	0xbdc89496	-0.097939655
209	0xbc00c397	-0.007859132
210	0xbde0f154	-0.1098353
211	0xbde36042	-0.11102344
212	0xbcc5a855	-0.024128119
213	0xbdc4adf3	-0.09603491
214	0x3de46213	0.11151519
215	0xbd8c0dfd	-0.068386056
216	0xbd7a5b3e	-0.06112217
217	0xbd7796ab	-0.060446423
218	0xbb622fef	-0.0034513434
219	0x3ce45ef2	0.027877305
220	0xbc07c7ea	-0.008287409
221	0xbdc33232	-0.09531058
222	0xbdd976ca	-0.1061836
223	0x3d2ada9d	0.041712392
224	0x3d6041ed	0.05475037
225	0x3ccc09ab	0.024906954
226	0x3d14e66c	0.03635256
227	0x3dbbe81c	0.09175131
228	0xbc8a91a8	-0.016915157
229	0xbdaba320	-0.08380723
230	0x3b8e46d4	0.0043419395
231	0xbde211c4	-0.11038545
232	0x3de73798	0.112899005
233	0x3d8033a3	0.06259849
234	0xbdd1d727	-0.10246115
235	0x3d18abaa	0.037273087
236	0xbc0154e2	-0.007893773
237	0x3c860313	0.016358888
238	0xbc467097	-0.012111804
239	0xbcbfccdd	-0.023413116
240	0xbd153f28	-0.036437184
241	0x3cfbaab7	0.030721052
242	0x3d98d2b2	0.07462062
243	0x3dbebbe8	0.09313184
244	0x3d8d5deb	0.06902679
245	0xbdf4a3bf	-0.119452946
246	0xbdee2394	-0.1162788
247	0x3c2a4fca	0.010395
248	0xbde1c8a7	-0.110245995
249	0x3dadb5c4	0.08481935
250	0xbd4ececb	-0.050490182
251	0xbd7e6ce2	-0.062115557
252	0x3dc474e5	0.09592608
253	0x3de34835	0.11097757
254	0xbda61c44	-0.0811086
255	0xbcaf2b32	-0.021382902

block1.2.weight f4 [64, 256]
0	0x3d5cabae	0.053874664
1	0x3aa2d602	0.0012423398
2	0x3c9160e8	0.017746404
3	0x3d366a27	0.04453483
4	0xbd30f526	-0.04320254
5	0xbd5ad654	-0.053427055
6	0xbd410fa1	-0.047134046
7	0x3d00007d	0.031250466
8	0xba842ac2	-0.0010083544
9	0xbd1b74db	-0.03795324
10	0x3abd98b7	0.0014465068
11	0x3c9f1323	0.019418305
12	0x3b81a6ff	0.003956675
13	0x3d470bab	0.04859511
14	0xbcfc3e41	-0.030791404
15	0xbd01f808	-0.03173068
16	0x3ca7558a	0.02042653
17	0x3d0a88df	0.033821937
18	0xbd6eb017	-0.0582734
19	0xbd2ea89a	-0.04264126
20	0xbc3362b0	-0.010948822
21	0xbb70a662	-0.0036720266
22	0xbceaf760	-0.02868241
23	0xbd82ff47	-0.063963465
24	0xbc10928e	-0.008824004
25	0x3d1953d6	0.037433468
26	0x3d5141a5	0.051087994
27	0x3cd633e2	0.026147787
28	0xbd5c43dc	-0.053775653
29	0x3c4e116c	0.012577396
30	0xbd679f67	-0.056548502
31	0xbb85c8b4	-0.0040827636
32	0xbcab5e19	-0.020918893
33	0x3cbcdd3c	0.023054712
34	0x3c035a84	0.008017186
35	0xbc92956d	-0.017893517
36	0xbd0360e8	-0.03207484
37	0xbd1742ec	-0.036929056
38	0xbd07326d	-0.033007074
39	0x3d682c4b	0.056682866
40	0xbd8e7cfb	-0.06957432
41	0xbd23c5ba	-0.03998349
42	0xbd0f1662	-0.034933455
43	0x3c44190b	0.011968861
44	0x3d1d88a2	0.03846038
45	0x3d69b36d	0.05705588
46	0xbc941309	-0.018075483
47	0x3d4fa786	0.050696872
48	0x3d3fb8d7	0.046807136
49	0x3c8bf3a6	0.017083954
50	0xbc3b8ca9	-0.01144711
51	0xbca336a4	-0.019923516
52	0xbd4804f6	-0.048832856
53	0xbc0bb98b	-0.008528124
54	0x3d7a8e42	0.061170824
55	0xbd3c7124	-0.046006337
56	0xba5380e3	-0.0008068217
57	0xbbd33d04	-0.0064464826
58	0xbd2ce8b3	-0.042214107
59	0x3d261b10	0.040553153
60	0xbce3017c	-0.027710669
61	0xbc1912ab	-0.00934283
62	0xbca89fe3	-0.020584052
63	0x3bec5056	0.007211725
64	0x3cb542b9	0.022126542
65	0x3c33dedb	0.010978426
66	0x3d564162	0.052308448
67	0x3d530ed7	0.051527824
68	0x3d5d8f36	0.054091655
69	0x3d2e330f	0.042529162
70	0x3d041730	0.032248676
71	0x3d3cad73	0.04606385
72	0x3d02aba3	0.031901967
73	0x3ab080f5	0.0013466167
74	0xbb9dacb5	-0.004811848
75	0x3d546206	0.051851295
76	0xbd5d8c4c	-0.054088876
77	0xbcb6b197	-0.022301478
78	0x3c0925e0	0.0083708465
79	0xbbd93212	-0.0066282833
80	0xbd555679	-0.05208442
81	0x3cb02489	0.021501796
82	0xbaf950ed	-0.001902131
83	0xbd13b81d	-0.036064256
84	0x3d5f315e	0.05449044
85	0xbd317771	-0.0433268
86	0xbd5651df	-0.052324172
87	0xbca43d40	-0.020048738
88	0xbc2bc2dd	-0.010483471
89	0xbc9049d5	-0.01761333
90	0x3cb9e76e	0.022693362
91	0xbd7754f4	-0.060383752
92	0xbd282635	-0.041052062
93	0xbd61e4a1	-0.05514968
94	0x3cf8ce00	0.030371666
95	0xbb080361	-0.0020753967
96	0xbd3bc857	-0.045845356
97	0x3d0a618c	0.033784434
98	0xbc98b20f	-0.018639592
99	0x3d6523de	0.05594241
100	0xbc3c2790	-0.011484042
101	0x3abb73fb	0.0014301533
102	0x3cc36b8d	0.023854995
103	0x3c552865	0.013010119
104	0xbcc25bef	-0.023725478
105	0xbd7e576a	-0.062095083
106	0xbc07e267	-0.008293725
107	0x3d01666d	0.03159182
108	0x3cfe9adc	0.031079702
109	0x3d6746f3	0.056464147
110	0xbd5bb01d	-0.05363475
111	0xbcd07b31	-0.025449367
112	0xbbc4e52a	-0.006008764
113	0xbd5fd810	-0.054649413
114	0xbd00f662	-0.03148497
115	0xbcd7ce37	-0.026343448
116	0x3c29fe19	0.010375523
117	0x3cbfa84c	0.02339568
118	0x3d3abbc8	0.04558924
119	0x3d0b72e3	0.03404511
120	0xbd7021d8	-0.058626026
121	0x3cf5e2f8	0.030015454
122	0xbd42aae5	-0.04752626
123	0xbbed0bd8	-0.007234078
124	0x3d4c0f5e	0.049819343
125	0x3c369587	0.0111440485
126	0xbd300984	-0.042977825
127	0xbd90f630	-0.070782065
128	0x3b47ec5f	0.0030505878
129	0xbd501f09	-0.050810847
130	0xbb4ebcb2	-0.0031545577
131	0x3cbcc6c9	0.023044007
132	0xbd08846c	-0.033329412
133	0xbd578e6f	-0.05262607
134	0x3d12b593	0.035817694
135	0x3d56f148	0.052476197
136	0x3d1b1712	0.0378638
137	0xbb256640	-0.0025237948
138	0xbc0c3999	-0.008558654
139	0x3c9606ef	0.018313853
140	0xbbe67173	-0.007032567
141	0xbc271c5e	-0.010199634
142	0xbd4a7705	-0.049429912
143	0xbcd98d21	-0.026556553
144	0x3a54e5c5	0.00081213965
145	0xbd453ce4	-0.048153773
146	0xbad4a7a6	-0.001622428
147	0x3d2162d7	0.0394009
148	0xbd481ce7	-0.04885569
149	0x3c8a5199	0.016884612
150	0xbbbd8c94	-0.0057845805
151	0xbcb17560	-0.021662414
152	0x3cc3d3cd	0.023904705
153	0x3d6b8026	0.05749526
154	0x3cf6ddff	0.030135153
155	0xbc8c85f7	-0.017153723
156	0xbd4a84fa	-0.049443223
157	0x3d56dd93	0.052457403
158	0x3d67e5bc	0.056615576
159	0x3d570c2e	0.05250185
160	0xbbd8274d	-0.006596482
161	0x3b9254ec	0.00446569
162	0x3b7cb3f2	0.0038559404
163	0x3cdd63c7	0.027025117
164	0xbd19bff9	-0.037536595
165	0x3d66d9f5	0.056360204
166	0xbce9690b	-0.028492471
167	0x3cb630ed	0.022240127
168	0xbcd06161	-0.025437059
169	0xbd71f814	-0.059074476
170	0x3ccbb59f	0.024866877
171	0xbd1cda27	-0.038293984
172	0xbc0227dd	-0.007944074
173	0xbd1b40dd	-0.037903655
174	0x3c499a4d	0.012304855
175	0x3c60ead8	0.013727866
176	0xbbd340f6	-0.006446953
177	0x3d45f0e5	0.048325438
178	0x3d1ae235	0.037813384
179	0x3d0b5dff	0.03402519
180	0xbccfcafd	-0.025365347
181	0xbd07b9e0	-0.03313625
182	0x3d6bf235	0.057604033
183	0x3bad147f	0.0052819843
184	0xb941f886	-0.00018498497
185	0xbc4681d4	-0.012115914
186	0xbc9d2b16	-0.019185584
187	0x3c810c4e	0.015752938
188	0x3cc7d6c9	0.02439441
189	0xbbc6d922	-0.0060683647
190	0xbd3d3a83	-0.04619838
191	0x3cbe2833	0.023212528
192	0xbd93d4be	-0.07218312
193	0x3bd3af00	0.0064600706
194	0xbca1f896	-0.019771855
195	0x3d72866f	0.059210237
196	0x3d4a3124	0.04936327
197	0x3cd24cec	0.025671445
198	0xbc24265e	-0.010018913
199	0xbd447092	-0.047958918
200	0xbd654cd3	-0.05598147
201	0x3c52cd2c	0.0128663
202	0x3d6c4464	0.05768241
203	0x3c6efab3	0.014586139
204	0x3c35c925	0.01109532
205	0xbd48c6df	-0.049017783
206	0x3d3d971d	0.04628669
207	0x3b72e26d	0.003706123
208	0x3d49694a	0.049172677
209	0xbbb114e7	-0.005404103
210	0x3ced5fd6	0.028976362
211	0xbae13f26	-0.0017184957
212	0x3d80423b	0.062626325
213	0x3d0ac8f8	0.033883065
214	0x3cf4bd80	0.029875517
215	0xba425dc2	-0.00074144837
216	0x3d3a3f80	0.045470715
217	0xbcc25ff5	-0.023727397
218	0x3c84ffcb	0.016235253
219	0x3bdd27a8	0.006749112
220	0xbc2874f7	-0.010281793
221	0x3d2b62aa	0.04184214
222	0x3cbc16c9	0.022960084
223	0xbd798af2	-0.060923524
224	0x3cbacba8	0.022802189
225	0xbd8fc4b0	-0.07019937
226	0x3cf6e391	0.030137809
227	0xbce6b745	-0.028163562
228	0x3d48996e	0.048974447
229	0x3a661a28	0.00087777013
230	0xbd3b91d2	-0.045793362
231	0x3bc2eddb	0.0059487647
232	0xbc27b04a	-0.010234902
233	0xbca97569	-0.020685868
234	0xbcfb5a2b	-0.030682644
235	0xbc83dfcf	-0.016097931
236	0xbc7bc628	-0.015367068
237	0x3d05937b	0.03261135
238	0x3ce58461	0.028017225
239	0x3d257dc8	0.040403157
240	0xbd6f5e25	-0.058439393
241	0x3c9a9dda	0.018874098
242	0xbcee4b05	-0.029088506
243	0x3d250a29	0.040292893
244	0x3ccbbed4	0.024871267
245	0x3cf4df02	0.029891495
246	0xbd5a0916	-0.05323132
247	0x3c80f4f1	0.015741797
248	0x3d62a923	0.055337083
249	0xba9d538e	-0.0012003051
250	0xbcae3a06	-0.021267902
251	0x3d70bd2f	0.05877417
252	0xbdb10042	-0.08642627
253	0xbd43cef6	-0.047804795
254	0x3ca4b90c	0.020107768
255	0x3d27947d	0.040913094

block1.2.bias f4 [64]
0	0xbc35ca91	-0.011095659
1	0x3ca98b19	0.02069621
2	0x3d1e7a75	0.038691003
3	0xbd30b652	-0.043142624
4	0x3c8defff	0.017326353
5	0x3d30c226	0.043153904
6	0xbda96eb4	-0.08273068
7	0xbcdc85dc	-0.026919298
8	0xbda95cc7	-0.08269649
9	0xbd75b86f	-0.059990343
10	0x3dc95195	0.09830014
11	0xbcee62f8	-0.029099926
12	0xbd919143	-0.071077846
13	0xbd92e99e	-0.07173465
14	0x3d88a92d	0.06672893
15	0xbd4f31ea	-0.05058471
16	0x3d298468	0.041386038
17	0x3ca1d526	0.019754957
18	0xbdaa62f5	-0.08319656
19	0x3a028352	0.00049786747
20	0x3d61c281	0.055117134
21	0x3cb7c0e6	0.022430848
22	0x3cc9f2c7	0.024651898
23	0xbdc2ccda	-0.095117286
24	0x3dbb4ebd	0.091458775
25	0xbd2e4291	-0.04254395
26	0x3a192641	0.0005842187
27	0x3cd83198	0.026390836
28	0x3d465655	0.048422176
29	0x3da495a5	0.08036355
30	0xbbaef408	-0.0053391494
31	0xbd83fa20	-0.06444192
32	0x3d871f59	0.06597776
33	0xbc8bf4a4	-0.017084427
34	0x3a707ba6	0.00091736985
35	0x3d439017	0.047744837
36	0x3c6d60b0	0.014488384
37	0xbcc31610	-0.023814231
38	0xbb6078e5	-0.0034251746
39	0x3c2c911b	0.010532643
40	0x3dee793a	0.11644216
41	0x3ce629c5	0.02809609
42	0xbd49f8f4	-0.049309686
43	0x3dd5aeff	0.104337685
44	0xbd758a90	-0.059946597
45	0xbd3f8751	-0.046759907
46	0xbd2be797	-0.04196891
47	0xbd48ba6d	-0.049005914
48	0x3d0fddc6	0.03512361
49	0x3d08894e	0.03333407
50	0xbd94e966	-0.0727108
51	0x3d725515	0.05916317
52	0x3d4fb1f2	0.05070681
53	0x3d7d1fba	0.061797835
54	0xbcea9e7a	-0.02864002
55	0xbdb9d481	-0.09073735
56	0xbd695d40	-0.056973696
57	0xbbc49efa	-0.006000397
58	0xbd9ba46c	-0.0759972
59	0xbd312d0f	-0.04325586
60	0xbd7479f8	-0.05968663
61	0x3c54f882	0.012998702
62	0xbd9833b9	-0.0743174
63	0xbdbe4a01	-0.09291459

block2.0.weight f4 [256, 64]
0	0xbdd8b590	-0.10581505
1	0xbdc0d7e4	-0.09416178
2	0x3d142c68	0.03617516
3	0x3cc38418	0.023866698
4	0x3dc229f6	0.0948066
5	0xbcb73ab0	-0.022366852
6	0x3cc47c38	0.023985013
7	0x3de29c96	0.11065023
8	0x3db18eda	0.08669825
9	0x3dd14604	0.102184325
10	0xbca93588	-0.020655409
11	0xbdea9718	-0.114546
12	0x3d984884	0.07435706
13	0xbdf147c4	-0.11781266
14	0xbdd6760e	-0.10471736
15	0x3dfecc3a	0.12441297
16	0x3db872b2	0.090062514
17	0x3dd19c80	0.10234928
18	0x3d2181ec	0.039430544
19	0x3dbf3920	0.093370676
20	0x3dc573c0	0.09641218
21	0x3dad6492	0.08466448
22	0x3dbf38b6	0.09336989
23	0x3d4a92a0	0.04945624
24	0x3d353084	0.04423572
25	0xbd976886	-0.07392983
26	0x3cf4e3f0	0.029893845
27	0x3d0ae8a4	0.03391327
28	0x3de0a7a8	0.10969478
29	0x3dadd012	0.08486952
30	0xbd08ba84	-0.033381
31	0xbd5fa85c	-0.05460392
32	0xbdff5a8e	-0.12468444
33	0xbcd65970	-0.026165694
34	0x3d4364ec	0.04770367
35	0x3cd43180	0.02590251
36	0xbcfe5728	-0.031047419
37	0x3daa2a12	0.083088055
38	0xbdc2ed9c	-0.09517977
39	0xb9592800	-0.00020709634
40	0x3da7d2be	0.08194493
41	0xbd9013f0	-0.07035053
42	0xbc8e64b0	-0.017381996
43	0x3b81fb40	0.003966719
44	0x3d28fc5c	0.041256294
45	0x3dc9abfe	0.09847258
46	0xbce5f370	-0.028070182
47	0x3dc00590	0.09376061
48	0x3dc704cc	0.09717712
49	0xbdd9bd6a	-0.10631831
50	0x3d8daef2	0.06918134
51	0xbdb7a0ce	-0.08966218
52	0x3dde1330	0.108435035
53	0x3df29f66	0.11846809
54	0xbbcfbec0	-0.006339878
55	0x3d35ae90	0.04435593
56	0xbd8617fa	-0.06547542
57	0xbdce2ed6	-0.10067527
58	0x3c9f0120	0.019409716
59	0xbcda1ac8	-0.026624098
60	0xbd30b720	-0.04314339
61	0xbd10ee60	-0.035383582
62	0xbd565d8c	-0.052335307
63	0xbdd1f96e	-0.10252653
64	0x3d74e400	0.05978775
65	0xbda0221e	-0.07819007
66	0x3c2e0040	0.010620177
67	0x3db3d20c	0.08780298
68	0x3c0b6e00	0.008510113
69	0xbdc263c6	-0.094916865
70	0x3d5cd7f8	0.0539169
71	0x3da00136	0.07812731
72	0x3d381350	0.044940293
73	0xbdc3f888	-0.09568888
74	0xbcf047c8	-0.029331103
75	0x3d2bdfbc	0.041961417
76	0xbde05aa6	-0.1095479
77	0x3cfd1160	0.030892074
78	0xbcf21870	-0.029552668
79	0xbde276b8	-0.110578
80	0x3c835870	0.016033381
81	0x3dece208	0.115665495
82	0xbc00dee0	-0.007865638
83	0xbd3bf7ac	-0.045890495
84	0x3b394900	0.002827227
85	0x3c693550	0.014233902
86	0x3ce31520	0.027720034
87	0xbdb14adc	-0.086568564
88	0xbdd4529e	-0.103673205
89	0xbdd99108	-0.10623366
90	0xbd96949e	-0.07352565
91	0xbd64ee88	-0.055891544
92	0xbd79de84	-0.061003223
93	0x3d165c50	0.03670913
94	0xbde1e754	-0.110304505
95	0x3d4d5174	0.050126508
96	0x3da94724	0.08265522
97	0x3d839294	0.06424442
98	0x3d431304	0.047625557
99	0xbd48f398	-0.049060434
100	0xbdbc31f8	-0.09189218
101	0xbd053a88	-0.032526523
102	0x3d90377c	0.07041833
103	0x3df0cb7e	0.11757563
104	0xbdd4fe6a	-0.10400088
105	0x3d87ad1c	0.06624815
106	0xbd86bb4e	-0.06578694
107	0xbd16f0cc	-0.036850736
108	0xbce34d68	-0.027746871
109	0x3d283dac	0.04107444
110	0xbd133628	-0.03594032
111	0xbd069538	-0.03285715
112	0xbcf34cc8	-0.029699698
113	0x3dd08186	0.10180955
114	0x3dac9152	0.08426155
115	0x3da7ae3e	0.08187531
116	0xbddb3094	-0.10702625
117	0x3d58e330	0.052951038
118	0x3dfa0524	0.12208012
119	0x3dc6cea2	0.09707381
120	0x3d86d0dc	0.065828055
121	0x3dbb8590	0.091563344
122	0x3dafcfaa	0.08584531
123	0xbd9bbb02	-0.07604028
124	0x3dd1c45a	0.10242529
125	0x3d235d3c	0.039883837
126	0xbdd28600	-0.10279465
127	0xbd27e72c	-0.040991947
128	0xbd18ccf4	-0.037304834
129	0x3b096a80	0.002096802
130	0xbdbff5ae	-0.093730316
131	0x3c059410	0.008152977
132	0x3d9a1da4	0.07525185
133	0xbdd0e250	-0.10199416
134	0x3dd6eed6	0.10494773
135	0x3dbce8c0	0.09224081
136	0xbde22ddc	-0.11043903
137	0x3dbbe196	0.091738865
138	0x3d98d91c	0.07463285
139	0x3cda3768	0.026637748
140	0x3d20542c	0.039142773
141	0x3d79e558	0.061009735
142	0x3dce82e8	0.10083562
143	0x3cdceee0	0.026969373
144	0xbb6f19c0	-0.0036483854
145	0xbdf69902	-0.12040903
146	0xbdfaee70	-0.122525096
147	0xbd8333fe	-0.06406401
148	0x3d96aee0	0.073575735
149	0xb9b3b000	-0.0003427267
150	0x3df7c622	0.12098338
151	0xbdbbbb6a	-0.09166606
152	0x3d8761ee	0.066104755
153	0x3d8ca14c	0.068667024
154	0x3b244880	0.0025067627
155	0xbd22a040	-0.039703608
156	0x3d928d02	0.07155801
157	0xbd8ec790	-0.06971657
158	0x3d50c3a4	0.050967827
159	0x3c29ce20	0.010364085
160	0x3da4600a	0.080261305
161	0x3d45e7a8	0.048316628
162	0x3db9c7ea	0.09071334
163	0xbd121eb8	-0.035673827
164	0xbc9c2cd0	-0.019064337
165	0x3c2eb910	0.0106642395
166	0xbdba898c	-0.09108266
167	0x3d811898	0.06303519
168	0xbd5f2734	-0.054480746
169	0x3bb249c0	0.0054409206
170	0x3d0344cc	0.03204803
171	0x39dcbc00	0.0004210174
172	0xbdd7fb3e	-0.105459675
173	0xbd175a9c	-0.036951646
174	0x3d8cfc84	0.06884101
175	0xbdf35698	-0.11881751
176	0x3dc520e6	0.096254155
177	0x3db1115a	0.08645888
178	0xbde72a40	-0.112873554
179	0xbc231c80	-0.009955525
180	0x3c640560	0.013917297
181	0x3d8815ae	0.0664476
182	0xbc91a9f8	-0.017781243
183	0x3db9b202	0.090671554
184	0xbdde9d60	-0.10869861
185	0xbdff3522	-0.12461306
186	0xbdce12b4	-0.10062161
187	0x3dc916cc	0.09818801
188	0xbdd96d98	-0.106166065
189	0xbdf51af6	-0.11968033
190	0xbd912d7a	-0.07088752
191	0x3ddd6a38	0.10811275
192	0xbdc069b4	-0.09395161
193	0x3d939b26	0.072073266
194	0x3df29af0	0.11845958
195	0x3da4972a	0.08036645
196	0x3d73a784	0.059485927
197	0xbc450d00	-0.012027025
198	0x3d67b458	0.056568474
199	0x3cdf4ce8	0.027258351
200	0x3d61c5c0	0.05512023
201	0xbd6d6540	-0.057957888
202	0xbde8075e	-0.1132953
203	0xbcc69978	-0.024243101
204	0x3cd73e50	0.02627483
205	0xbdb05484	-0.0860987
206	0x3db5db8a	0.088797644
207	0x3d5db4ac	0.05412738
208	0x3c4b0de0	0.012393445
209	0xbdbcb5e2	-0.09214379
210	0x3d4bc5f8	0.049749345
211	0x3d94101c	0.07229635
212	0xbca36b08	-0.019948497
213	0xba96b580	-0.0011498183
214	0xbdeb17be	-0.11479138
215	0x3d3d5a4c	0.046228692
216	0xbc40a560	-0.0117581785
217	0xbdc989c2	-0.09840728
218	0xbda64368	-0.081183255
219	0xbdbb49d8	-0.09144944
220	0x3d3e0618	0.04639253
221	0xbd0bcebc	-0.034132704
222	0x3da3e8ee	0.08003412
223	0x3c026d10	0.007960573
224	0xbdf225ec	-0.11823639
225	0xbdc08c62	-0.09401776
226	0x3dc2f912	0.09520163
227	0x3a9bea80	0.0011895448
228	0x3d9819b2	0.07426776
229	0xbc429e40	-0.01187855
230	0xbd602070	-0.054718435
231	0xbd1e05a4	-0.038579598
232	0x3d2c24c0	0.042027235
233	0x3d31f878	0.04344985
234	0xbd6be0b8	-0.057587355
235	0xbd7baa28	-0.06144157
236	0x3cb3a548	0.021929398
237	0x3dff1af4	0.12456313
238	0x3b1047c0	0.0022015423
239	0x3dce23e4	0.10065439
240	0x3d931778	0.07182211
241	0x3db64afc	0.08901021
242	0xbd5bf130	-0.05369681
243	0xbd4b4edc	-0.049635753
244	0xbc7b8550	-0.015351608
245	0xbd7ea394	-0.06216772
246	0xbdb14eaa	-0.08657582
247	0x3dc340a0	0.095338106
248	0xbd2c1dc4	-0.042020574
249	0xbdef34f0	-0.11680019
250	0x3c0b77a0	0.008512408
251	0xbde59aa6	-0.112111375
252	0xba666c00	-0.0008789897
253	0x3dbf05c2	0.0932727
254	0x3de52078	0.111878335
255	0xbc292910	-0.0103247315

block2.0.bias f4 [256]
0	0xbd172710	-0.036902487
1	0xbd6c54d0	-0.05769807
2	0xbcf5ed28	-0.030020311
3	0xbddef452	-0.10886444
4	0x3dc8e942	0.098101154
5	0xbbed25e0	-0.007237181
6	0xbdc7edb8	-0.09762138
7	0xbd7444ec	-0.05963604
8	0x3dc52acc	0.096273035
9	0x3dd37606	0.103252456
10	0x3d458fc4	0.04823281
11	0x3cb7fb88	0.022458807
12	0x3dc351ee	0.09537111
13	0xbd942d02	-0.07235147
14	0xbd072e1c	-0.033002958
15	0x3d8c4222	0.06848551
16	0xbcb32128	-0.021866396
17	0x3dd0d6a2	0.10197188
18	0x3df517b8	0.119674146
19	0x3c7dac10	0.015482917
20	0xbcdc9118	-0.026924655
21	0xbc7214c0	-0.014775455
22	0xbdfa3b78	-0.12218374
23	0xbce51108	-0.027962223
24	0x3c2885b0	0.01028578
25	0x3d6b4cb0	0.05744618
26	0xbd338b94	-0.043834284
27	0x3ba8d820	0.005152717
28	0xbd7fe08c	-0.062470004
29	0x3db0a236	0.08624689
30	0x3cf94fa8	0.03043349
31	0x3d3462d0	0.044039547
32	0x3dcc5e36	0.09978907
33	0xbdc43c92	-0.09581865
34	0x3d2fb888	0.042900592
35	0x3da22dd6	0.07918899
36	0x3d0a6ba0	0.033794045
37	0xbcace548	-0.021105424
38	0x3bbc6fc0	0.0057506263
39	0xbdc53a9c	-0.096303195
40	0x3d44d83c	0.04805778
41	0x3cc48f08	0.023993984
42	0xbd891774	-0.066939265
43	0x3d1e5264	0.038652793
44	0xbdc72818	-0.09724444
45	0xbd814906	-0.06312756
46	0xbc47ed60	-0.012202591
47	0x3d53b27c	0.051683888
48	0x3d1899c0	0.037256002
49	0x3c8e43e8	0.017366365
50	0xbb8b2f20	-0.004247561
51	0xbd1e7c10	-0.038692534
52	0xbc2c5090	-0.0105172545
53	0xbd29c130	-0.041444004
54	0xbda2247e	-0.079171166
55	0x3d8d243e	0.06891678
56	0xbd581018	-0.052749723
57	0xbdf674b0	-0.12033975
58	0x3d1a2504	0.037632957
59	0x3d827e4e	0.06371747
60	0x3de7d0f4	0.113191515
61	0x3d5d533c	0.054034457
62	0x3d90e64e	0.07075177
63	0x3d9b085c	0.07569954
64	0x3bded840	0.0068006814
65	0xbbfbb940	-0.0076819956
66	0xbd86b0b0	-0.06576669
67	0xbd382228	-0.04495445
68	0x3d96e488	0.073678076
69	0x3d7c3efc	0.061583504
70	0x3d30f56c	0.043202803
71	0x3df3a478	0.11896604
72	0xbd998646	-0.07496314
73	0xbcc42440	-0.023943067
74	0x3da2f346	0.07956557
75	0x3ddba1b2	0.107242
76	0x3dec9698	0.11552161
77	0x3d8b90dc	0.06814739
78	0xbbdc4980	-0.006722629
79	0x3dc9f098	0.09860343
80	0xbc3099e0	-0.010778874
81	0x3db5413c	0.08850333
82	0x3df23d66	0.11828117
83	0x3db37d22	0.087641016
84	0x3d1b5280	0.037920475
85	0xbdc8a8f0	-0.09797847
86	0x3deef56a	0.11667903
87	0x3d2f2b08	0.042765647
88	0xbd502ebc	-0.05082582
89	0xbccc9100	-0.024971485
90	0xbdd43f30	-0.103636146
91	0xbdc1d85a	-0.09465094
92	0xbd760670	-0.060064733
93	0xbcf709a0	-0.030155957
94	0x3b515880	0.003194362
95	0x3dd10ac6	0.10207133
96	0x3c65e140	0.014030755
97	0x3dfbed0a	0.12301071
98	0x3cf36740	0.02971232
99	0xbd26b7c8	-0.04070261
100	0x3cbcc5e8	0.023043588
101	0x3b99f6a0	0.0046985894
102	0xbc8d52e0	-0.017251432
103	0xbc907058	-0.017631695
104	0x3d9d3c20	0.076774836
105	0xbd0a8c80	-0.033825397
106	0x3d36f99c	0.04467164
107	0xbc805050	-0.015663296
108	0xbdefd22a	-0.117100075
109	0x3ce02608	0.027361885
110	0xbc480460	-0.012208074
111	0xbde98146	-0.1140161
112	0x3a01e600	0.0004955232
113	0x3dcd6d74	0.10030642
114	0xbdafc9c2	-0.08583404
115	0xba8b3a80	-0.0010622293
116	0xbdd5fe1a	-0.10448857
117	0xbda55b10	-0.080740094
118	0xbd177d48	-0.036984712
119	0xbd0cdb70	-0.03438896
120	0xbcc72208	-0.02430822
121	0xbcc2db08	-0.023786083
122	0x3d7591f4	0.059953645
123	0xbc88e2a0	-0.016709626
124	0xbd0413f4	-0.03224559
125	0xbd3bcb3c	-0.045848116
126	0x3dc94154	0.098269135
127	0x3de66bb8	0.112510145
128	0x3c027b10	0.007963911
129	0x3d9ff9a8	0.0781129
130	0xbccd6fc0	-0.0250777
131	0x3da96e52	0.08272995
132	0xbd50ead8	-0.051005214
133	0x3daf648c	0.085641
134	0x3d1450f0	0.03621
135	0xbdd9a152	-0.106264725
136	0xbd26dcf4	-0.04073806
137	0x3c054310	0.008133665
138	0x3dae192c	0.08500895
139	0x3c2f32a0	0.010693222
140	0xbdd9489e	-0.10609554
141	0xbd9f0634	-0.07764855
142	0xbb92bb60	-0.0044779032
143	0x3d7eb524	0.062184468
144	0xbd5c0d00	-0.053723335
145	0xbda47a40	-0.0803113
146	0x3cfad730	0.030620188
147	0x3d1a8edc	0.037733898
148	0x3db5f0dc	0.08883831
149	0x3dab7bf4	0.083732516
150	0x3d9c2058	0.076233566
151	0xbcb24010	-0.021759063
152	0xbd7c6814	-0.061622694
153	0x3cd70758	0.026248619
154	0xbccc57a0	-0.024944127
155	0xbd9738f6	-0.07383911
156	0x3d8db238	0.06918758
157	0xbd02fac4	-0.03197743
158	0xbd774e88	-0.060377628
159	0x3b9eff60	0.0048522204
160	0x3dabedec	0.08394989
161	0xbc952698	-0.01820688
162	0xbd5bf38c	-0.05369906
163	0xbdc0b3d4	-0.094092995
164	0x3d5389e0	0.05164516
165	0xbdca51b0	-0.09878862
166	0x3c5d3430	0.013501212
167	0xbbba9ea0	-0.005695179
168	0x3d5eb3a8	0.054370552
169	0x3c286ff0	0.010280594
170	0xbd96cc28	-0.073631585
171	0x3cea4a40	0.028599858
172	0x3dacfc9a	0.084466174
173	0x3dc9d9d2	0.09855999
174	0xbdc3ce58	-0.09560841
175	0x3b72e840	0.0037064701
176	0xbda0a024	-0.078430444
177	0xbd718838	-0.0589678
178	0x3dd01202	0.10159685
179	0x3df60bce	0.1201397
180	0xbddb5440	-0.10709429
181	0xbc642ef0	-0.013927206
182	0x3dc7fd64	0.09765127
183	0x3ddb0ada	0.10695429
184	0xbb9585a0	-0.0045630485
185	0x3db6596c	0.089037746
186	0xbcf15368	-0.029458717
187	0xbdceec5c	-0.10103676
188	0x3dc083ca	0.09400137
189	0xbdee5234	-0.11636773
190	0xbde1b182	-0.11020185
191	0xbd01a3d4	-0.03165038
192	0xbcb30028	-0.02185066
193	0x3d285264	0.0410942
194	0x3ce88300	0.028382778
195	0xbd958c04	-0.073020965
196	0xbcae02e0	-0.021241605
197	0x3dc5a7d2	0.0965115
198	0x3d987312	0.07443823
199	0x3d11704c	0.035507485
200	0x3ce91df8	0.028456673
201	0xbdaca0f0	-0.08429134
202	0x3da38eac	0.07986197
203	0xbcbea890	-0.023273736
204	0xbb16b000	-0.0022993088
205	0x3d84e09e	0.06488155
206	0x3c84b230	0.016198248
207	0xbcf03800	-0.029323578
208	0xbda0d0e2	-0.07852341
209	0xbc768880	-0.015047193
210	0x3de200b6	0.11035292
211	0xbd40579c	-0.04695855
212	0x3d7cad44	0.061688676
213	0xba48f200	-0.00076654553
214	0xbcf717a0	-0.030162632
215	0x3d71a0f4	0.058991387
216	0x3d9cdf10	0.07659733
217	0x3de72420	0.11286187
218	0x3d3c85c0	0.04602599
219	0x3cbf0278	0.023316607
220	0x3da62c5c	0.0811393
221	0x3d9f79c8	0.077869
222	0x3dea1f1a	0.114317134
223	0x3da2b4e2	0.07944657
224	0xbd48f250	-0.049059212
225	0x3b624d80	0.0034531057
226	0x3d108dcc	0.035291478
227	0xbdd0e0de	-0.1019914
228	0xbc7d3c00	-0.0154562
229	0xbd8ae53a	-0.06782003
230	0x3da191e0	0.078891516
231	0xbcea6528	-0.028612688
232	0x3a135400	0.0005620122
233	0x3d81c252	0.06335892
234	0xbceeb028	-0.029136732
235	0x3c870230	0.016480535
236	0x3d5d90b4	0.054093078
237	0xbda36230	-0.07977712
238	0x3d87410e	0.06604205
239	0xbdc47346	-0.09592299
240	0x3d88467e	0.0665407
241	0x3de70206	0.11279683
242	0xbc9569f0	-0.018238991
243	0xbaf66600	-0.0018798709
244	0x3d1eaa30	0.038736522
245	0x3d89743e	0.067116246
246	0xbdb071d8	-0.08615464
247	0xbc118d30	-0.008883759
248	0xbd5b0cbc	-0.05347894
249	0xbd910212	-0.07080473
250	0x3d9acad0	0.07558215
251	0xbd692464	-0.05691947
252	0x3cdd07c8	0.02698125
253	0xbdcee8c6	-0.10102992
254	0x3caaeca8	0.0208648
255	0x3d5ea384	0.05435516
