adversarially_trained_model_mnist.pt (torch, 286331 bytes, 14 tensors)

embedding.weight f4 [64, 64]
0	0xbd34bca4	-0.044125214
1	0x3d877299	0.06613655
2	0xbc86fbc8	-0.01647748
3	0xbd670101	-0.05639744
4	0xbbcb27d7	-0.0061998176
5	0x3cb680fa	0.022278298
6	0xbd888baf	-0.066672675
7	0xbd39c793	-0.045356344
8	0x3d4bc08a	0.049744166
9	0xbd9b1304	-0.07571986
10	0x3d36b948	0.04461029
11	0x3ce66dc6	0.028128516
12	0x3d8ecfc8	0.06973225
13	0xbd9ac85d	-0.075577475
14	0xbd82cea0	-0.06387067
15	0xbda11e24	-0.07867077
16	0x3d67aa4c	0.056558892
17	0xbdb26d88	-0.08712298
18	0xbcc44e36	-0.023963075
19	0xbd212990	-0.039346278
20	0xbcf7e04c	-0.03025832
21	0x3ccf97d8	0.02534096
22	0xbdb3e3c0	-0.08783674
23	0xbdab571f	-0.083662264
24	0xbde5ced3	-0.11221089
25	0xbcb87bcf	-0.022519974
26	0xbd997b0e	-0.07494174
27	0x3d0abd1a	0.033871748
28	0x3db17275	0.08664409
29	0xbcc79750	-0.024364144
30	0x3db0a3d2	0.08624996
31	0x3d8f652e	0.0700172
32	0xbcaf407f	-0.021393059
33	0x3dcf3397	0.10117262
34	0xbd864b04	-0.06557277
35	0xbdbb774b	-0.09153613
36	0x3e11f7f4	0.14254743
37	0xbdad32df	-0.084569685
38	0x3cbd3750	0.023097664
39	0x3dbe3c42	0.09288837
40	0xbdca6919	-0.09883327
41	0x3d3b5804	0.045738235
42	0xbd921608	-0.071331084
43	0x3db49be1	0.08818794
44	0xbdb3d445	-0.087807216
45	0x3d470785	0.048591156
46	0x3dd57e8b	0.10424527
47	0x3db19b3d	0.086721875
48	0xbd668020	-0.056274533
49	0x3d332b09	0.043742213
50	0x3c537b5e	0.012907831
51	0x3a80f4c9	0.0009838577
52	0xbcdadd75	-0.026716927
53	0xbcfd6b1e	-0.030934867
54	0x3d1f81b4	0.038942054
55	0x3ce4fef4	0.027953602
56	0x3b5fba35	0.0034138088
57	0xbd2e0fc5	-0.042495508
58	0xbaa05e6c	-0.0012235171
59	0xbd812b76	-0.06307118
60	0x3d1d2eba	0.03837464
61	0x3df32717	0.1187269
62	0xbcd9f828	-0.026607588
63	0xbd3a7c0c	-0.045528457
64	0x3d9279f2	0.071521655
65	0xbd3919f8	-0.04519078
66	0x3d54642d	0.051853348
67	0xbc4fbac8	-0.012678809
68	0xbdf2d322	-0.11856677
69	0x3d29c7ec	0.041450426
70	0x3d0bbe05	0.034116764
71	0x3d786926	0.060647152
72	0xbdae08bb	-0.08497759
73	0x3d8b3736	0.0679764
74	0x3d86eade	0.06587766
75	0xbdd1aafe	-0.10237692
76	0x3dd93cc7	0.106072955
77	0xbc1edfcc	-0.009696912
78	0x3d8bb43f	0.068214886
79	0x3dd039ad	0.10167251
80	0xbd186d90	-0.037213862
81	0x3d12c8a6	0.035835885
82	0x3d6b8d2a	0.05750767
83	0x3de346f6	0.11097519
84	0x3d1220e2	0.03567589
85	0x3d1cddfb	0.038297635
86	0xbc27b5f7	-0.010236255
87	0xbdcb9de1	-0.099422224
88	0x3c0565ef	0.008141979
89	0x3d282b5d	0.04105698
90	0xbce62c14	-0.02809719
91	0x3bb10142	0.0054017613
92	0x3c5078c5	0.012724106
93	0xbdf28c73	-0.11843195
94	0x3d9f56b7	0.077802114
95	0xbd60ddeb	-0.054899137
96	0xbbc35968	-0.005961586
97	0xbdc9f03d	-0.09860275
98	0xbd87e0a6	-0.06634645
99	0xbce4c45c	-0.027925663
100	0x3c936680	0.017993212
101	0x3ca1ae2f	0.019736378
102	0x3b2c185e	0.002625964
103	0x3cfca900	0.030842304
104	0x3d23e4b0	0.040013015
105	0x3dc6b272	0.097020045
106	0xbccd8e3f	-0.025092242
107	0xbde78c97	-0.11306112
108	0xbc7ef22f	-0.015560671
109	0xbd3d2813	-0.046180796
110	0xbd69738d	-0.056994963
111	0xbdb62405	-0.08893589
112	0xbcb78552	-0.02240244
113	0x3baa5dc4	0.005199166
114	0x3cdc6750	0.026904732
115	0x3da42be8	0.08016187
116	0x3dcea7cb	0.10090598
117	0xbd86ea6e	-0.06587683
118	0x3ce959b0	0.02848515
119	0xbdd3753e	-0.103250965
120	0x3dba7b92	0.091056004
121	0xbc99efc1	-0.018791081
122	0xbd1bc781	-0.03803206
123	0xbc3b35eb	-0.011426429
124	0xbcee93b0	-0.029123157
125	0x3dc9ee41	0.098598965
126	0x3d8bf220	0.06833291
127	0xbdbf322c	-0.093357414
128	0x3db4e4bf	0.08832692
129	0x3daf91ac	0.085727066
130	0xbd19cc9b	-0.037548643
131	0xbdd57d43	-0.104242824
132	0xbd6df607	-0.058095958
133	0x3d9f48f9	0.0777759
134	0x3db3aa12	0.08772673
135	0xbde4e86d	-0.11177144
136	0xbd9f3780	-0.07774258
137	0x3d7278f7	0.059197392
138	0x3da3efe9	0.080047436
139	0x3c615004	0.013751987
140	0x3d15d986	0.0365844
141	0xbd9e54bf	-0.07731008
142	0x3de20b0b	0.110372625
143	0xbdb28d34	-0.087183386
144	0x3b048e6e	0.0020226496
145	0x3a545d6a	0.0008101078
146	0x3babc1c2	0.0052416036
147	0x3d6a502f	0.057205375
148	0x3d988833	0.07447853
149	0xbde1df6d	-0.11028943
150	0xbda8ab19	-0.08235759
151	0x3d17b43b	0.037037116
152	0x3d72df6e	0.05929511
153	0xbdc10d82	-0.094264045
154	0xbd042d56	-0.0322698
155	0x3d9c0396	0.076178715
156	0x3d88ac77	0.0667352
157	0xbc5e60a6	-0.0135728475
158	0x3c17cbed	0.009264928
159	0x3d156db6	0.03648158
160	0xbde2c814	-0.11073318
161	0x3dec4601	0.1153679
162	0x3da527ef	0.08064257
163	0xbcdedf71	-0.027206155
164	0xbc861ae2	-0.01637024
165	0xbd42059f	-0.047368642
166	0x3daab6f9	0.083356805
167	0xbce2e631	-0.027697654
168	0x3d9f7f16	0.077879116
169	0xbd754e72	-0.059889264
170	0x3c17c6ee	0.009263737
171	0x3c41ff6b	0.011840682
172	0x3dafc3b9	0.08582253
173	0xbd9c9117	-0.07644861
174	0xbda52b2d	-0.08064876
175	0xbd4e737d	-0.050403107
176	0x3db5d3fc	0.088783234
177	0xbd2fcf53	-0.04292233
178	0xbde4afb1	-0.11166323
179	0xbc87cc99	-0.016577052
180	0x3da72149	0.081606455
181	0x3da2689c	0.07930109
182	0x3cfa4934	0.030552484
183	0xbcf4396c	-0.029812537
184	0x3d5bbb66	0.053645514
185	0x3d41afe5	0.047286887
186	0xbd1e670e	-0.0386725
187	0xbc9af914	-0.018917598
188	0x3db807d1	0.08985866
189	0x3df64909	0.12025649
190	0x3d88a7ee	0.06672655
191	0x3d210369	0.039309893
192	0xbcbf1569	-0.023325639
193	0x3d9d3e16	0.076778576
194	0x3ca308c8	0.019901648
195	0xbda4ef85	-0.08053497
196	0xbd070966	-0.032967947
197	0x3d5b7dfb	0.05358694
198	0x3dfd76b5	0.12376157
199	0x3d9f1df5	0.07769386
200	0x3cc2e535	0.023790935
201	0xbd9ca98a	-0.076495245
202	0x3ddd79a8	0.1081422
203	0xbde18b0e	-0.11012851
204	0xbce7e1b7	-0.028305871
205	0xbd677038	-0.056503505
206	0x3be4f839	0.0069875983
207	0x3d924082	0.0714121
208	0xbd8e6197	-0.069522075
209	0xbdb6ab8c	-0.08919439
210	0xbdb24443	-0.08704426
211	0x3db7e7c5	0.089797534
212	0x3cf13b19	0.029447125
213	0x3df37b83	0.11888792
214	0x3d1987ce	0.03748303
215	0x3dd09d16	0.10186212
216	0xbdbf3121	-0.093355425
217	0x3cbb8576	0.022890788
218	0xbc638510	-0.013886705
219	0x3d8ef252	0.06979813
220	0xbd48fcff	-0.0490694
221	0xbd1ed3bf	-0.038776156
222	0xbce8ec69	-0.028433042
223	0x3db276d3	0.0871407
224	0x3d552ff1	0.052047674
225	0xbd2f52b4	-0.04280348
226	0x3d85bd3e	0.06530236
227	0x3d3f2d22	0.0466739
228	0xbd9b7d78	-0.07592291
229	0x3d966a49	0.07344491
230	0x3e087a0a	0.13327804
231	0x3de57987	0.1120482
232	0xbde4cf61	-0.11172367
233	0x3a0d2288	0.00053838687
234	0xbc5a342c	-0.013318103
235	0xbda94670	-0.08265388
236	0x3d00ac29	0.031414185
237	0xbcbe99c0	-0.023266673
238	0x3ddc9213	0.10770049
239	0xbd8f7fd9	-0.07006807
240	0x3df87c28	0.12133056
241	0xbc55fb16	-0.013060352
242	0x3d5f9c6f	0.054592546
243	0x3c6f213b	0.014595325
244	0xbd59e420	-0.053196073
245	0xbd345a24	-0.044031277
246	0xbd3a043d	-0.0454142
247	0x3dedb422	0.11606623
248	0xbddcfa54	-0.10789934
249	0xbdae0747	-0.08497482
250	0xbd8fe1e7	-0.07025509
251	0xbde1ac51	-0.11019195
252	0x3d43402b	0.047668617
253	0xbd0f6d29	-0.035016213
254	0xbd0766b1	-0.03305692
255	0xbd08d222	-0.033403523

embedding.bias f4 [64]
0	0xbdc79795	-0.09745709
1	0xbc6f565b	-0.014607991
2	0x3db30e8b	0.08743008
3	0x3ddd5a1e	0.10808204
4	0x3d3cd1ed	0.04609864
5	0xbdf7075e	-0.12061952
6	0x3c831e1a	0.016005564
7	0xbd4d7a22	-0.050165303
8	0xbe097c00	-0.13426208
9	0x3dc04cbf	0.09389638
10	0xbc8b3cc3	-0.016996747
11	0x3ccfee29	0.025382118
12	0xbd54c0af	-0.05194157
13	0xb9239779	-0.0001560132
14	0xbdbe1e19	-0.092830844
15	0x3dcc9b58	0.09990567
16	0xbd1c47d8	-0.038154453
17	0x3dcf97f6	0.10136406
18	0x3dc1d9b1	0.094653495
19	0xbd7f8d05	-0.062390346
20	0xbdeea4b7	-0.116525106
21	0x3db887aa	0.09010251
22	0xbd6a99c0	-0.057275534
23	0x3c5e01d0	0.013550237
24	0x3d6fbbf5	0.05852886
25	0x3dd4b2a8	0.103856385
26	0xbd0b7f82	-0.034057148
27	0x3c51dd9b	0.0128091825
28	0x3cd47ac1	0.02593744
29	0xbd1a2cd9	-0.037640426
30	0x3a9f9433	0.0012174904
31	0x3d503086	0.050827526
32	0x3dce2b32	0.100668326
33	0x3dc5246f	0.0962609
34	0xbd9b28a0	-0.07576108
35	0xbd8ca51a	-0.06867428
36	0xbd912c52	-0.070885316
37	0xbc4052bb	-0.0117384745
38	0xbdde2c39	-0.108482786
39	0xbb80b1b1	-0.0039274325
40	0x3e05b4a6	0.13057193
41	0x3ce93d09	0.028471487
42	0x3d817f84	0.0632315
43	0x3d78d5a0	0.060750604
44	0x3c6a0fdc	0.014286008
45	0xbde1bcda	-0.11022349
46	0xbd71dc24	-0.059047833
47	0x3deba8d2	0.11506809
48	0x3dd0df3a	0.10198827
49	0xbcfc13f6	-0.030771237
50	0x3d1bd2a5	0.038042683
51	0x3d879482	0.066201225
52	0x3de26b89	0.11055667
53	0x3d612910	0.0549708
54	0xbd1f8dfc	-0.038953766
55	0xbc48834e	-0.012238337
56	0xbd31e048	-0.043426782
57	0x3d75147d	0.059833992
58	0x3ddb5f82	0.10711576
59	0x3d2ac74a	0.041693963
60	0xbd297bbc	-0.041377768
61	0x3dad7722	0.084699884
62	0x3c1ef981	0.009703041
63	0xbcc7bda8	-0.024382427

block1.0.weight f4 [256, 64]
0	0xbdfe94f6	-0.12430756
1	0x3de357d9	0.1110074
2	0xbc224181	-0.009903313
3	0xbd6c3019	-0.057663057
4	0x3d4ba2ce	0.04971581
5	0xbd2c92a7	-0.042132046
6	0x3d8af2ad	0.06784568
7	0x3c37a95f	0.011209815
8	0x3cc2fc2d	0.023801887
9	0xbc2774d6	-0.010220727
10	0x3dc0c568	0.09412652
11	0xbd906c13	-0.070518635
12	0x3dba834e	0.09107076
13	0x3d23b3c5	0.039966363
14	0x3dd81009	0.105499335
15	0x3d9988e2	0.074968114
16	0x3be45050	0.006967582
17	0xbcea4022	-0.028595034
18	0xbd04a98e	-0.032388262
19	0xbddb5c25	-0.107109345
20	0x3d766e7a	0.060163952
21	0x3d3219da	0.043481685
22	0x3d6f4b59	0.058421466
23	0xbd5ce824	-0.053932324
24	0xbd903d34	-0.070429236
25	0x3d214b28	0.039378315
26	0xbcaeda10	-0.021344215
27	0x3ded57ff	0.115890495
28	0xbccce2c6	-0.025010478
29	0xbd1d9dde	-0.038480632
30	0x3dea1fb8	0.11431831
31	0x3d6ec93c	0.05829738
32	0x3d360f26	0.04444804
33	0xbdd49f29	-0.1038192
34	0x3df9b06f	0.12191855
35	0xbd1b87d7	-0.037971344
36	0xbdaac85e	-0.08338998
37	0x3dfc115b	0.12307998
38	0x3d5307a6	0.051520966
39	0xbdd2c473	-0.10291376
40	0xbcb4cfbd	-0.022071714
41	0xbc3c33ac	-0.011486929
42	0xbdb11628	-0.08646804
43	0xbc66becd	-0.014083576
44	0x3d66e06b	0.056366365
45	0xbba0b1b3	-0.004903996
46	0x3c8e2e8d	0.017356182
47	0xbcd79cbe	-0.026319858
48	0x3db10711	0.08643926
49	0xbddc478c	-0.10755834
50	0x3dc46f1d	0.09591506
51	0x3d7f4dca	0.062330045
52	0xbb534a0a	-0.0032240176
53	0x3cd38216	0.025818866
54	0x3cf677c3	0.030086404
55	0x3dbb65dd	0.09150288
56	0xbd52ea20	-0.05149281
57	0x3d9b26db	0.075757705
58	0x3af77053	0.001887808
59	0xbc28b109	-0.010296115
60	0xbd6eccd6	-0.058300816
61	0x3b97094a	0.0046092616
62	0xbdcbb2c7	-0.099462084
63	0xbd73f3f2	-0.059558816
64	0xbcc57b22	-0.024106566
65	0x3d87c95b	0.066302024
66	0x3cbaf890	0.022823602
67	0x3c60eaa2	0.013727816
68	0x3e03cdd9	0.12871493
69	0xbd661e16	-0.056181036
70	0x3c21673e	0.009851275
71	0x3e0116f1	0.12606408
72	0xbd927fba	-0.07153268
73	0xbdf81cf3	-0.121148966
74	0x3b12145a	0.0022289963
75	0x3deb695d	0.11494706
76	0xbd9d2029	-0.0767215
77	0xbc8af4b7	-0.016962392
78	0x3dc0bf4a	0.094114855
79	0xbd9346e0	-0.07191253
80	0xbdf589e2	-0.1198919
81	0xbdc91cb4	-0.09819928
82	0x3d2a67ee	0.04160302
83	0xbbbead87	-0.005819026
84	0x3dfdf844	0.124008685
85	0x3da7c470	0.08191764
86	0xbce698e4	-0.028149076
87	0x3d04deff	0.03243923
88	0xbdf8a69c	-0.12141153
89	0x3b957358	0.004560869
90	0x3adb9a77	0.0016754408
91	0xbde4ffc4	-0.11181596
92	0xbd43bcb5	-0.047787387
93	0xbd9809c3	-0.07423737
94	0x3dcaf7bd	0.099105336
95	0x3bd719b1	0.006564342
96	0xbd572449	-0.05252484
97	0x3c459d14	0.012061376
98	0x3d63647c	0.05551575
99	0xbdb1005a	-0.08642645
100	0x3d86b16a	0.06576808
101	0xbc4f96bf	-0.012670218
102	0xbd16a413	-0.036777567
103	0xbdbd9d03	-0.09258463
104	0xbb093363	-0.002093517
105	0x3de2b872	0.110703364
106	0xbd30d731	-0.043173973
107	0xbdb97dfd	-0.090572335
108	0x3bf2d3b1	0.0074104895
109	0x3dd39e3f	0.103329174
110	0xbc1c5b16	-0.009543201
111	0xbd7d6543	-0.06186415
112	0x3d20dac0	0.039271116
113	0xbc92d413	-0.01792339
114	0x39d34dea	0.00040303107
115	0xbce2af9d	-0.02767163
116	0xbd00d713	-0.03145511
117	0x3c82d7de	0.015972074
118	0xbdacfda0	-0.08446813
119	0x3dd191be	0.10232876
120	0x3e00d423	0.12580924
121	0xbd9718d0	-0.073777795
122	0x3cc1c579	0.023653733
123	0xbdefb3e7	-0.117042355
124	0x3de93224	0.11386517
125	0x3ce048cb	0.02737846
126	0xbc6edc9e	-0.014578966
127	0xbdc32de6	-0.09530239
128	0x3d634ff8	0.055496186
129	0xbda7269f	-0.08161663
130	0xbdef9425	-0.11698178
131	0x3ba581db	0.0050508804
132	0x3db6e41e	0.08930229
133	0xbd0c92b0	-0.03431958
134	0x3dc9f01a	0.09860249
135	0xbddcef95	-0.10787884
136	0xbd78a7cc	-0.0607069
137	0x3dec0bca	0.11525686
138	0xbbe6fbbb	-0.0070490516
139	0x3c926f69	0.01787539
140	0xbd161cdf	-0.036648627
141	0xbdbc7934	-0.09202805
142	0x3d58881f	0.05286419
143	0xbd215ee9	-0.039397154
144	0xbd7e9571	-0.062154237
145	0xbd3924e0	-0.045201182
146	0xbdd4f02b	-0.10397371
147	0x3d875cb2	0.06609477
148	0xbde646d9	-0.11243982
149	0xbdd0102d	-0.10159335
150	0xbcad03d7	-0.021119995
151	0x3dec5581	0.11539746
152	0xbd31764d	-0.04332571
153	0x3cc64958	0.024204895
154	0x3bde75d0	0.0067889467
155	0x3dc91e84	0.098202735
156	0xbdde2cc5	-0.10848383
157	0xbdde3235	-0.1084942
158	0x3cd98129	0.026550846
159	0x3d772e0e	0.060346656
160	0x3ce5c2b9	0.028046953
161	0x3d66816a	0.056275763
162	0xbc7813e5	-0.015141462
163	0xbd53ed03	-0.051739704
164	0xbdcef036	-0.1010441
165	0x3dcbb86e	0.099472865
166	0xbdaa806a	-0.08325274
167	0xbdac8eba	-0.084256604
168	0xbd53e695	-0.051733572
169	0x3e010ef9	0.12603368
170	0x3dce7dac	0.10082564
171	0xbd98321a	-0.07431431
172	0xbdbdcc4f	-0.092674844
173	0x3dda7add	0.106679656
174	0x3deafdca	0.11474188
175	0xbccadd41	-0.024763705
176	0x3da7f2be	0.08200596
177	0xbd9a1eb2	-0.07525386
178	0xbdabc0d5	-0.08386389
179	0xbc621c4f	-0.013800695
180	0x3dcdf7c9	0.10057027
181	0xbe045072	-0.12921312
182	0x3d06f9c5	0.032953043
183	0x3cabf637	0.020991428
184	0xbde55cd3	-0.111993454
185	0xbb0c45fe	-0.0021404023
186	0xbd1396e2	-0.036032565
187	0xbd1cdde3	-0.038297545
188	0x3db3ca1e	0.08778785
189	0x3dad5d52	0.08465065
190	0x3ceadca1	0.028669657
191	0x3c62f2ff	0.01385188
192	0xbdc68eed	-0.0969523
193	0x3de60f34	0.112333685
194	0xbd69bba8	-0.05706373
195	0x3d0d2806	0.034461997
196	0xbcfe97ae	-0.031078186
197	0xbcfbd9e1	-0.030743541
198	0xbc18e6a7	-0.009332336
199	0x3d211ecc	0.03933601
200	0x3dd0c21f	0.10193276
201	0x3d47865d	0.048712123
202	0xbca1f11e	-0.019768294
203	0xbc9e2a6d	-0.01930734
204	0xbd44fcad	-0.048092533
205	0x3b18b6e8	0.002330238
206	0xbdcc766e	-0.09983526
207	0xbdcaf8ec	-0.09910759
208	0xbdfac227	-0.12244063
209	0xbd12abb6	-0.035808288
210	0x3dd0163d	0.101604916
211	0xbd1d6545	-0.038426656
212	0x3da6f3b0	0.081519485
213	0xbd95fb8b	-0.07323369
214	0x3d98c8b1	0.07460154
215	0xbb90835c	-0.0044101905
216	0x3da136be	0.07871769
217	0xbdcc8d56	-0.09987895
218	0xbdb3c4ee	-0.08777796
219	0x3d9d1194	0.076693684
220	0xbdea45e0	-0.11439109
221	0xbd100e98	-0.035170168
222	0x3d8f8b61	0.07009006
223	0xbcc1c93b	-0.023655524
224	0x3de38c78	0.11110777
225	0xbd990c16	-0.07473008
226	0xbda5f21b	-0.081028186
227	0x3dcfc49e	0.101449236
228	0x3d2b97af	0.041892704
229	0xbd43fc13	-0.04784782
230	0x3d66be10	0.0563336
231	0x3cea2d9c	0.028586201
232	0x3db8643b	0.090034924
233	0x3d62e5dd	0.055394996
234	0xb98cd9a0	-0.00026865024
235	0x3db8ef34	0.090299994
236	0xbd98c75f	-0.07459902
237	0x3dd7c85e	0.10536264
238	0x3ddce669	0.10786135
239	0x3d760afe	0.060069077
240	0xbdd69b73	-0.10478868
241	0x3db5e0a8	0.088807404
242	0x3dec899d	0.11549685
243	0xbdfdd155	-0.123934425
244	0x3d4eb5ad	0.05046623
245	0x3d76ef50	0.06028682
246	0xbd09fc4e	-0.033687882
247	0xbde78b39	-0.113058515
248	0xbdef2e42	-0.11678745
249	0x3d171b11	0.036891047
250	0xbdf1ce94	-0.1180698
251	0x3d03e776	0.03220316
252	0xbdb206ef	-0.08692729
253	0x3d5fda26	0.054651402
254	0xbd437a82	-0.047724254
255	0xbdebbe5e	-0.11510919

block1.0.bias f4 [256]
0	0x3db6ca72	0.08925332
1	0x3d52c1c9	0.05145434
2	0xbbd53aef	-0.0065072696
3	0x3dcfb204	0.10141376
4	0x3dc68cac	0.096948
5	0xbdc3b226	-0.095554635
6	0x3d3c1d60	0.04592645
7	0x3d155c90	0.036465228
8	0xbdd435ad	-0.103618
9	0xbcf4bc65	-0.02987499
10	0x3d069328	0.032855183
11	0x3dfa6403	0.12226107
12	0x3cf74590	0.030184537
13	0xbd3bd2ee	-0.045855455
14	0xbd8c9d51	-0.06865943
15	0xbcf1c7f2	-0.029514287
16	0xbd5271df	-0.051378127
17	0xbdcc668c	-0.09980497
18	0x3dc7a67d	0.09748552
19	0x3befe972	0.00732153
20	0x3ab5c4fe	0.0013867912
21	0xbd9d9c3d	-0.07695816
22	0xbdec7f86	-0.11547761
23	0xbb06e366	-0.0020582317
24	0xbd287712	-0.04112918
25	0xbdc54031	-0.09631384
26	0xbd35c182	-0.044373997
27	0xbd87eec2	-0.06637336
28	0xbe05fbff	-0.1308441
29	0x3caf880b	0.021427175
30	0x3dc56c09	0.09639747
31	0x3dbf2013	0.093322895
32	0xbc0845dd	-0.008317438
33	0x3d5bd80f	0.053672846
34	0x3d868ea2	0.06570174
35	0x3d8d4f2a	0.06899865
36	0xbd4e5023	-0.050369393
37	0xbcef42bf	-0.029206632
38	0x3daa12f6	0.08304398
39	0x3d636865	0.05551948
40	0x3d1d7377	0.038440194
41	0xbcfaf415	-0.030633966
42	0xbdb382da	-0.08765192
43	0x3dabba5e	0.08385156
44	0xbd000d79	-0.03126285
45	0x3c206d06	0.009791618
46	0xbcd7618b	-0.02629163
47	0x3d2ca234	0.042146876
48	0xbcbf7a35	-0.023373703
49	0xbc560a6c	-0.013064008
50	0xbdb19acc	-0.08672103
51	0xbd68cf0d	-0.056838084
52	0xbc248e87	-0.010043747
53	0x3d7f80ac	0.06237857
54	0x3db52fd4	0.08847013
55	0xbd979515	-0.07401482
56	0x3d5f7d0d	0.054562617
57	0x3db23ef0	0.087034106
58	0x3d6baefe	0.057539932
59	0xbd9cadd3	-0.07650342
60	0x3cca3819	0.024684953
61	0x3cf4a4f3	0.02986381
62	0xbdd3160f	-0.10306942
63	0x3da3a5a3	0.07990577
64	0xbdaef1bb	-0.085422
65	0xbd697220	-0.056993604
66	0xbd22c973	-0.0397429
67	0xbde9983c	-0.114059895
68	0xbc950c32	-0.018194292
69	0xbd9464ba	-0.072457746
70	0xbd09c62c	-0.033636257
71	0x3c7f6577	0.015588156
72	0xbd77927d	-0.060442436
73	0x3ca2869a	0.019839574
74	0xbddcec6c	-0.107872814
75	0xbd1631c7	-0.036668565
76	0x3d21f4e0	0.03954017
77	0x3da2bf3c	0.07946631
78	0x3d738cd4	0.059460476
79	0x3df9f326	0.1220458
80	0x3d1c40f3	0.038147878
81	0xbd65a77f	-0.05606794
82	0xbd0fd6ba	-0.03511689
83	0x3c4fb179	0.01267659
84	0x3de0e8e8	0.10981923
85	0xbdd02e60	-0.10165095
86	0xbdb1dac7	-0.086843066
87	0x3d75b351	0.059985463
88	0xbdc50356	-0.09619777
89	0x3d3efbab	0.046626728
90	0xbdd4f52d	-0.10398326
91	0xbb52fd92	-0.0032194597
92	0x3cd8b143	0.026451712
93	0xbd87089f	-0.06593441
94	0xbcf185de	-0.029482778
95	0xbd4239de	-0.047418468
96	0x3c2a99eb	0.0104126735
97	0x3de585a0	0.112071276
98	0x3dbbe71c	0.0917494
99	0x3d8ac18d	0.06775198
100	0xbd2ebe8b	-0.042662185
101	0x3df2f5b4	0.118632704
102	0xbdb453e7	-0.088050656
103	0x3d89361b	0.06699773
104	0x3dc32e90	0.095303655
105	0x3d825567	0.063639455
106	0xbda4cb65	-0.08046607
107	0x3d7053db	0.05867372
108	0xbdc9bf9b	-0.09850999
109	0xbdb430b6	-0.087983534
110	0x3da482cd	0.08032761
111	0x3dd343ee	0.10315691
112	0x3c84ac46	0.016195428
113	0xbdbdc337	-0.0926575
114	0x3d683b67	0.056697275
115	0x3d81be89	0.0633517
116	0x3c472d26	0.01215676
117	0xbda2e256	-0.079533264
118	0xbbda5378	-0.0066627823
119	0xbd592465	-0.053013224
120	0xbddc5ea7	-0.10760241
121	0x3dcc0f06	0.09963803
122	0xbd7d5d45	-0.061856527
123	0xbdc973db	-0.09836551
124	0xbd802663	-0.06257322
125	0x3d48f0db	0.049057823
126	0xbdeb9172	-0.11502351
127	0x3d908aa8	0.070576966
128	0x3ddd7bb6	0.108146116
129	0xbccf2780	-0.02528739
130	0x3caacf0e	0.020850684
131	0x3daae7b7	0.08344977
132	0xbda7f770	-0.08201492
133	0xbde021c1	-0.10943938
134	0x3cc030e0	0.023460805
135	0xbd7a9bb8	-0.06118366
136	0x3d70791a	0.05870924
137	0xbda3f8c0	-0.0800643
138	0xbdd6ecad	-0.10494361
139	0x3d58a04a	0.05288724
140	0xbd021b60	-0.031764388
141	0x3d7dcbe7	0.061962035
142	0xbda59d32	-0.08086623
143	0xbd27abaa	-0.040935196
144	0xbcbb2f4a	-0.022849698
145	0xbca19c1d	-0.01972776
146	0xbdb0ef2e	-0.0863937
147	0x3dfa1fac	0.12213072
148	0xbdad95bf	-0.084758274
149	0xbda2eba4	-0.07955101
150	0x3d5e613d	0.054291952
151	0xbdd089a0	-0.101825
152	0x3d46fdc4	0.048581854
153	0xbca2d21e	-0.019875582
154	0x3cd1475a	0.025546718
155	0xbda91b8c	-0.08257207
156	0xbd9f99dc	-0.07793018
157	0xba9a47a7	-0.0011770622
158	0x3dacf00b	0.08444222
159	0xbc36a1ba	-0.011146957
160	0x3dab4ac3	0.08363869
161	0x3d2a5ea2	0.041594155
162	0x3c9fb0db	0.019493511
163	0xbc38a06a	-0.011268714
164	0x3dbb0845	0.09132437
165	0xbdcbaf68	-0.099455655
166	0x3dbef6ed	0.09324441
167	0x3a98a844	0.0011646827
168	0x3d0a26e1	0.033728484
169	0xbbacd381	-0.0052742367
170	0x3dfff2ca	0.1249748
171	0xbda5de7c	-0.08099076
172	0x3ddbed76	0.107386515
173	0xbdc7289e	-0.09724544
174	0xbda802c0	-0.082036495
175	0x3c4896f5	0.012243022
176	0xbc92c05c	-0.01791399
177	0x3c3e2652	0.011605816
178	0x3d79f721	0.061026696
179	0x3df5ab11	0.11995519
180	0x3d5878f9	0.052849744
181	0x3d36e71b	0.044653993
182	0x3dc7c772	0.09754838
183	0xbc6a5e71	-0.014304743
184	0x3dd53054	0.104096085
185	0x3d01ae99	0.03166065
186	0x3c3eabcd	0.01163764
187	0xbd31732c	-0.043322727
188	0xbcd2c830	-0.025730222
189	0xbdfa8fd5	-0.12234465
190	0xbdc6fa71	-0.09715737
191	0xbdba39e5	-0.09093074
192	0xbd40f113	-0.047104906
193	0xbd8d5337	-0.069006376
194	0x3dc2c85b	0.09510871
195	0x3d5cac11	0.053875033
196	0xbd9150eb	-0.07095512
197	0xbd93a0f4	-0.07208434
198	0xbdbec004	-0.09313968
199	0xbcdabed0	-0.026702315
200	0xbd2b3876	-0.041801892
201	0x3d0e9aea	0.034815706
202	0xbda981db	-0.08276721
203	0xbddb0ee0	-0.106961966
204	0xba55998d	-0.0008148186
205	0x3da1003b	0.07861372
206	0xbc62c55b	-0.0138409985
207	0xbdcf03de	-0.101081595
208	0xbca5f580	-0.020258665
209	0x3d41250b	0.047154468
210	0xbd69e58b	-0.057103675
211	0xbdcf659a	-0.10126801
212	0x3d18d3c9	0.03731135
213	0x3d97cf20	0.07412553
214	0xbd80753a	-0.06272359
215	0xbd01104b	-0.03150968
216	0xbd1cdc35	-0.038295943
217	0xbc576109	-0.013145694
218	0xbdcceb9d	-0.10005877
219	0xbd980c99	-0.07424278
220	0xbd5cace5	-0.053875823
221	0x3df72b0e	0.12068759
222	0xbd67f92b	-0.05663411
223	0xbd9df2d1	-0.07712329
224	0x3dc168c3	0.0944381
225	0x3d95599e	0.07292484
226	0x3da201ad	0.07910476
227	0x3da3e200	0.080020905
228	0xbc9595a8	-0.018259838
229	0x3b330734	0.0027317526
230	0xbdfcba64	-0.12340239
231	0xbd53a441	-0.051670317
232	0x3d841bd8	0.06450623
233	0xbd6220e7	-0.05520716
234	0xbdd51af6	-0.10405533
235	0x3d14882a	0.03626267
236	0x3d5ac15a	0.05340705
237	0xbd92c4f9	-0.07166476
238	0x3dbc14fa	0.091836885
239	0x3cb47550	0.022028595
240	0x3cc431af	0.023949472
241	0x3d17bb34	0.037043765
242	0x3dbb9f72	0.09161271
243	0xbcd98a2d	-0.026555145
244	0x3d6c65bb	0.057714205
245	0xbd61ddc1	-0.05514312
246	0x3d856c50	0.065147996
247	0xbdddb67e	-0.10825823
248	0xbdf02b30	-0.11726987
249	0xbc6d2c55	-0.014475902
250	0xbdba3b7e	-0.090933785
251	0x3d096fe0	0.033553958
252	0xbbfdb2fd	-0.0077422843
253	0x3da78e17	0.08181398
254	0xbcf280da	-0.029602457
255	0x3c82ba53	0.015957987

block1.2.weight f4 [64, 256]
0	0xbd5c9b60	-0.053859115
1	0x3d5e5ecb	0.05428962
2	0xbc6322b7	-0.013863257
3	0xbad5d969	-0.0016315404
4	0x3c00be0a	0.007857809
5	0x3b52c0db	0.0032158408
6	0xbd0b1d21	-0.033963326
7	0x3c89dba3	0.016828364
8	0x3d30e692	0.04318864
9	0x3d5a997f	0.05336904
10	0xbcd19c7e	-0.025587317
11	0x3d1afd17	0.03783902
12	0xbcb91209	-0.022591608
13	0x3ce2b0d0	0.027672201
14	0x3c5d42d1	0.0135047
15	0x3caf63e5	0.021409938
16	0xbd5292d7	-0.05140957
17	0xbd193402	-0.037403114
18	0x3d90189d	0.070359446
19	0x3a0f7bc0	0.0005473457
20	0xbd539d71	-0.05166382
21	0xbca5f81d	-0.020259911
22	0x3d622689	0.05521253
23	0xbd5b7ec1	-0.05358768
24	0xbd0c767b	-0.03429268
25	0xbcacb40d	-0.021081949
26	0xbd4094a7	-0.047016766
27	0x3d6dc9e7	0.058053877
28	0x3b75ced2	0.0037507308
29	0x3d221765	0.039573092
30	0x3d6f1bad	0.058376003
31	0x3a0c846b	0.0005360308
32	0xbd115c6a	-0.035488524
33	0xbd4de5d2	-0.050268
34	0xbd31c58e	-0.043401293
35	0x3d198c9f	0.037487622
36	0xbcb1a874	-0.02168677
37	0x3b831c61	0.0040011858
38	0xbd4564d8	-0.048191875
39	0x3d3702e6	0.0446805
40	0xbd26e038	-0.040741175
41	0x3d121b3a	0.035670497
42	0x3b775486	0.003773959
43	0xbc823f41	-0.015899302
44	0x3cd05e01	0.02543545
45	0xbba3487c	-0.004983006
46	0x3d5512b2	0.052019782
47	0x3c801bf9	0.015638338
48	0xbd6785db	-0.05652414
49	0x3cc8982e	0.024486627
50	0x3c6a3eb2	0.014297174
51	0x3c5584bb	0.013032134
52	0x3d300a6a	0.04297868
53	0xbce201fd	-0.027588839
54	0x3c3f52d7	0.011677465
55	0x3d0dd440	0.034626245
56	0xbcd4fcb2	-0.0259994
57	0x3d876a5c	0.06612083
58	0x3d24190b	0.040062945
59	0x3d77b4c5	0.06047513
60	0xbcdf5f92	-0.027267251
61	0x3d5476fb	0.05187128
62	0xbd6026de	-0.054724567
63	0x3d5d8436	0.054081164
64	0x3d4c7fcc	0.049926564
65	0xbcdd06a6	-0.02698071
66	0x3d22d433	0.03975315
67	0x3d70f456	0.058826767
68	0x3d544588	0.051824123
69	0xbc132940	-0.008982003
70	0xbc9e340a	-0.019311924
71	0xbbba6240	-0.005687982
72	0x3d3d1884	0.046165958
73	0xbc396cc4	-0.011317436
74	0xbbadb6d2	-0.005301335
75	0x3d1ce5fa	0.03830526
76	0x3d0605a9	0.03272024
77	0xbd3b11cf	-0.04567128
78	0x3d46813b	0.048463088
79	0xbb2f1ddf	-0.0026720685
80	0xbd28570f	-0.04109865
81	0x3d87bfe6	0.066283986
82	0x3d1db5e8	0.038503557
83	0xbd46cd8f	-0.04853588
84	0x3ce225a0	0.027605832
85	0xbc7b67b1	-0.015344546
86	0xbd6ceacd	-0.05784111
87	0x3d0cb1dc	0.034349307
88	0x3ba1bb33	0.004935646
89	0xbb8754b8	-0.0041299723
90	0xbc80e65a	-0.01573484
91	0xba319389	-0.00067739986
92	0xbc9cfd65	-0.019163797
93	0x3d21d8b5	0.03951331
94	0x3c101823	0.008794817
95	0xbd3cb3a9	-0.046069775
96	0xbce20635	-0.02759085
97	0xbcb96a79	-0.022633778
98	0xbd119146	-0.035538934
99	0xbc844b1f	-0.016149102
100	0xbc97d31b	-0.01853328
101	0x3d3ed01f	0.0465852
102	0xbc14980a	-0.009069452
103	0xbd7a8993	-0.061166357
104	0x3c237594	0.009976763
105	0xbd361483	-0.044453155
106	0x3d401495	0.04689463
107	0x3d03865b	0.032110553
108	0x3c2dd194	0.010609049
109	0xbc5406b8	-0.012941055
110	0x3ba8c0e6	0.0051499484
111	0xbd87d848	-0.06633049
112	0x3b9544c4	0.0045553166
113	0xbd02b37b	-0.031909447
114	0xbceebd6c	-0.029143058
115	0x3be7622b	0.007061263
116	0xbc4e6d6c	-0.01259933
117	0x3c77cbbd	0.015124259
118	0xbc80b988	-0.015713468
119	0x3b8d8e91	0.0043199738
120	0xbd2326d1	-0.03983194
121	0xbcedb6ba	-0.029017795
122	0x3d2ba943	0.041909467
123	0x3c0e3c9d	0.0086814435
124	0xbaee2fcf	-0.0018172207
125	0x3d02e82e	0.031959705
126	0x3d737ca8	0.059445053
127	0xbc8d1270	-0.017220706
128	0xba5a3b5c	-0.0008324885
129	0xbc835380	-0.016031027
130	0x391046ea	0.00013759328
131	0xbd22b880	-0.039726734
132	0xbd2e2332	-0.042514034
133	0xbcf413cb	-0.029794594
134	0xbcfc9df5	-0.030837039
135	0xbd778709	-0.060431514
136	0xbd47a8ad	-0.048744846
137	0xbd1e78f0	-0.038689554
138	0xbc88d0f5	-0.016701201
139	0xbb876428	-0.0041318126
140	0xbd0ff9f7	-0.035150494
141	0x3d89f510	0.06736195
142	0x3d3e5580	0.046468258
143	0xbc95fb11	-0.018308194
144	0x3d1b7c3f	0.037960287
145	0x3c35d5b2	0.011098312
146	0xbcb98016	-0.022644084
147	0x3d85e698	0.06538123
148	0x3ca48cc1	0.020086648
149	0x3d52be6e	0.05145114
150	0xbd385b14	-0.045008734
151	0xbcd3344c	-0.025781773
152	0x3d2200e6	0.039551638
153	0xbc9a2564	-0.018816657
154	0x3c2a50f8	0.010395281
155	0x3d2e4f67	0.042556193
156	0xbd0df7a6	-0.034660004
157	0x3d511c27	0.05105224
158	0x3b88fab3	0.0041802763
159	0x3d2ef7d2	0.04271681
160	0xbd2c7dd2	-0.04211218
161	0xbd7b35c3	-0.061330568
162	0xbc6fcc14	-0.014636058
163	0xbd076b8f	-0.03306156
164	0x3d443ed8	0.047911495
165	0xbd4b28f4	-0.049599603
166	0xbd58d4a6	-0.052937172
167	0xbd1a168d	-0.037619162
168	0xbbbb8a44	-0.0057232697
169	0xbb40b708	-0.002940597
170	0xbccbceb4	-0.024878837
171	0xbd579571	-0.052632753
172	0x3c32cb6c	0.010912757
173	0x3c92b9aa	0.017910797
174	0xbd7808ba	-0.060555197
175	0xbd46f658	-0.048574775
176	0x3cd8fd9d	0.02648812
177	0xbd083d58	-0.033261627
178	0xbcdf96e9	-0.02729364
179	0xbc81c5a7	-0.015841318
180	0xbd0a1750	-0.03371364
181	0xbd41f770	-0.047355115
182	0x3d4d5ecd	0.050139237
183	0xbd25e81a	-0.040504552
184	0x3d41c3d0	0.047305882
185	0xbc3ae609	-0.011407384
186	0x3d539b18	0.05166158
187	0x3d1d2268	0.03836289
188	0xbd37fc3c	-0.044918284
189	0x3d6737e3	0.056449782
190	0x3c9f601e	0.019455012
191	0xbd670b6c	-0.056407377
192	0x3c811533	0.015757179
193	0xbcbe14eb	-0.023203334
194	0xbd417d4d	-0.047238637
195	0xbadfc82d	-0.0017073207
196	0x3d24846a	0.040165342
197	0xbd01cda7	-0.031690266
198	0xbb272011	-0.002550129
199	0xbcba2dc5	-0.022726903
200	0xbd4c85f1	-0.049932424
201	0xbd75cc5f	-0.060009357
202	0x3d435efd	0.04769801
203	0x3cd91dde	0.0265035
204	0xbd28a82c	-0.041176006
205	0xbd8ec36e	-0.06970869
206	0x3d72ffbf	0.05932593
207	0xbd148595	-0.036260206
208	0xbd7e83ca	-0.062137403
209	0xbcbaa570	-0.022783965
210	0x3d5a09b8	0.053231925
211	0xbcb3db2b	-0.021955093
212	0xbc8b341f	-0.016992627
213	0xbc976b98	-0.018483922
214	0x3cd3a5b2	0.025835846
215	0x39866c42	0.0002563913
216	0x3d2c09a3	0.042001378
217	0xbd046c60	-0.032329917
218	0xbd0f15a6	-0.034932755
219	0x3d542c97	0.051800337
220	0x3d371080	0.04469347
221	0xbd6527a4	-0.055946007
222	0x3b73697a	0.0037141726
223	0xbc76ac43	-0.015055719
224	0x3d30b655	0.043142635
225	0xbcaf77d8	-0.02141945
226	0x3d2b3db8	0.041806906
227	0x3c4232d3	0.011852938
228	0x3ca3b944	0.019985802
229	0x3c356db3	0.011073518
230	0x3d5db7c6	0.054130338
231	0x3cedb104	0.029015072
232	0xbd43609f	-0.047699567
233	0x3d3161b5	0.04330607
234	0x3cb140f5	0.02163742
235	0x3c9cff83	0.019164806
236	0xbd6b5a27	-0.057459023
237	0x3d5aa678	0.053381413
238	0x3d60cde9	0.05488387
239	0xbc9e037d	-0.019288773
240	0xbba2b463	-0.0049653514
241	0xbb044e2b	-0.0020188193
242	0x3d102f91	0.035201613
243	0xbd061733	-0.03273697
244	0xbd23eac6	-0.04001882
245	0x3d1ed82f	0.038780387
246	0x3a6d6553	0.0009055931
247	0xbb96ca03	-0.0046017184
248	0xbcc91c3a	-0.024549592
249	0x3d5b035e	0.053470008
250	0xbd62cae6	-0.05536928
251	0x3cde7dbd	0.027159566
252	0x3bec9749	0.007220183
253	0xbc2e97d4	-0.010656316
254	0x3d0d4e12	0.03449828
255	0xbcba4394	-0.022737302

block1.2.bias f4 [64]
0	0x3bb97b93	0.005660483
1	0xbdf100ac	-0.11767706
2	0x3da4cef8	0.08047289
3	0xbc0187ac	-0.007905882
4	0x3d21e9e6	0.039529704
5	0xbc973ed8	-0.018462583
6	0xbda08534	-0.078379065
7	0xbd9b44d4	-0.07581487
8	0x3d381a66	0.04494705
9	0x3de8c81f	0.11366295
10	0x3c935e08	0.017989174
11	0xbbfc3892	-0.0076971734
12	0xbcdbe307	-0.026841654
13	0xbd6292c3	-0.055315744
14	0x3ddbbff4	0.107299715
15	0xbdbcdfeb	-0.092223965
16	0xbd6b147d	-0.057392586
17	0x3c6eae11	0.014567868
18	0xbdc02660	-0.093823195
19	0xbd9a2657	-0.07526844
20	0x3da845e0	0.082164526
21	0xbc910d38	-0.017706499
22	0xbce8bcbd	-0.02841031
23	0xbd056c4e	-0.03257399
24	0xbd978751	-0.073988564
25	0xbcbb218f	-0.02284315
26	0x3dde37c2	0.10850479
27	0xbd847aca	-0.06468733
28	0x3b90c7a9	0.0044183326
29	0x3d60b0b1	0.054856006
30	0x3d843aa1	0.06456495
31	0xbd8358cc	-0.06413421
32	0xbbcd8f18	-0.0062731616
33	0xbd669a1b	-0.05629931
34	0xbd6b263c	-0.05740951
35	0x3d2d0023	0.04223646
36	0x3d92b999	0.07164306
37	0x3dbdf260	0.09274745
38	0xbd8aa0da	-0.06768961
39	0xbda436ce	-0.08018266
40	0xbd088ce4	-0.03333749
41	0xbcef3587	-0.029200329
42	0xbda4424a	-0.08020456
43	0x3dcc8d0f	0.09987842
44	0x3d6654cd	0.056233216
45	0xbda6e582	-0.08149244
46	0xbdb4876b	-0.088148914
47	0xbbf9969d	-0.0076168315
48	0x3e009641	0.12557317
49	0x3e02581e	0.12728927
50	0xbc0c080d	-0.008546841
51	0xbd3875b2	-0.045034118
52	0xbd50d323	-0.050982606
53	0x3a8c5cdb	0.0010708825
54	0xbd9eb355	-0.077490486
55	0x3c426f97	0.011867425
56	0x3cbc2106	0.022964966
57	0x3be87e4c	0.007095134
58	0x3c8a933b	0.016915908
59	0x3c78d787	0.0151881045
60	0x3dd2c086	0.10290627
61	0x3d389daf	0.045072254
62	0x3d392dab	0.045209568
63	0xbd81c6a8	-0.06336719

block2.0.weight f4 [256, 64]
0	0xbdb8dde6	-0.09026699
1	0xbdfdc624	-0.12391308
2	0x3c9afe58	0.018920109
3	0xbd1a29c8	-0.037637502
4	0xbcd65960	-0.026165664
5	0x3d979414	0.074012905
6	0x3d55db20	0.052210927
7	0xbdba3602	-0.090923324
8	0xbdfa4af0	-0.122213244
9	0x3d7514f0	0.05983442
10	0x3d82968c	0.06376371
11	0x3d6c8aa4	0.057749406
12	0xbb8d22e0	-0.004307136
13	0x3d0a4670	0.03375858
14	0x3df8cee6	0.12148838
15	0xbdea79e8	-0.11449033
16	0xbdab3138	-0.08358997
17	0xbbc471c0	-0.0059950054
18	0xbd3a2be0	-0.045452
19	0xbdd86ae6	-0.10567264
20	0xbda8c1ae	-0.082400665
21	0x3d90462a	0.07044633
22	0x3cb08980	0.02154994
23	0x3cf7d0d8	0.030250952
24	0xbdd5dce8	-0.10442525
25	0x3d65212c	0.05593984
26	0x3c8b1558	0.01697795
27	0x3d940800	0.072280884
28	0xbc0313d0	-0.008000329
29	0x3d33696c	0.04380171
30	0x3db3c1ae	0.08777176
31	0x3d6dd6a0	0.05806601
32	0x3d78e818	0.060768217
33	0x3db18ab0	0.08669031
34	0x3da60e10	0.08108151
35	0x3a0dad00	0.0005404502
36	0x3dd8fe3a	0.10595365
37	0xbda2f5c6	-0.07957034
38	0x3dd9c06a	0.10632403
39	0x3d799ef4	0.060942605
40	0x3dcc63d2	0.09979977
41	0xbda4651a	-0.08027096
42	0xbcd07be0	-0.025449693
43	0x3d5a4644	0.053289667
44	0xbd29265c	-0.041296348
45	0x3ddc095a	0.10743971
46	0xbbbe0500	-0.005798936
47	0x3cbada00	0.022809029
48	0xbdac0680	-0.08399677
49	0xbdf0fbd2	-0.11766781
50	0x3dc448c0	0.095841885
51	0x3b8995e0	0.0041987747
52	0x3d35f5e4	0.044423953
53	0xbd585f7c	-0.052825436
54	0xbdd28ba4	-0.102805406
55	0xbdf8508e	-0.121247396
56	0xbdc99b66	-0.09844093
57	0xbddf1e38	-0.10894436
58	0x3d918522	0.07105471
59	0x3d247374	0.040149167
60	0x3d7f8814	0.062385634
61	0xbde7faec	-0.113271564
62	0x3df894ce	0.12137757
63	0xbd7ce838	-0.0617449
64	0x3d6b2464	0.05740775
65	0xbdb61986	-0.08891587
66	0xbd365b88	-0.044520885
67	0x3b4693c0	0.0030300468
68	0x3c90d418	0.01767926
69	0xbcef7f08	-0.029235378
70	0xbd892e2e	-0.06698261
71	0xbdda1ade	-0.10649656
72	0xbdbf1f22	-0.0933211
73	0x3db27e1a	0.08715458
74	0xbc335210	-0.010944858
75	0xbcbe3050	-0.023216397
76	0xbdccc450	-0.09998381
77	0xbcce5490	-0.025186807
78	0xbd76da9c	-0.060267076
79	0x3de2c478	0.1107263
80	0xbda8006a	-0.08203204
81	0xbdf6beb0	-0.120480895
82	0xbc58e680	-0.013238549
83	0x3db3f4de	0.08786939
84	0x3de92f9c	0.11386034
85	0xbb5b4a00	-0.0033460855
86	0xbdc5aff8	-0.09652704
87	0x3dd33394	0.10312572
88	0x3daeebf0	0.08541095
89	0xbd5193b4	-0.05116625
90	0x3cea5ad8	0.02860777
91	0x3d9deb88	0.0771094
92	0xbd1b1dc8	-0.0378702
93	0x3df618a4	0.120164186
94	0xbda6da4e	-0.08147107
95	0x3dd84f82	0.1056204
96	0x3ca7bee0	0.020476758
97	0x3d815cfe	0.06316565
98	0xbd08508c	-0.03327994
99	0xbbf39bc0	-0.0074343383
100	0xbd189cf8	-0.037259072
101	0x3cb245a8	0.02176173
102	0x3bb62800	0.0055589676
103	0xbda6a6c2	-0.08137275
104	0xbd11eaf4	-0.03562446
105	0xbc3d6700	-0.011560202
106	0x3c2e0580	0.0106214285
107	0x3bd6efa0	0.0065593272
108	0xbd983bae	-0.07433258
109	0x3d98f2fa	0.07468219
110	0xbd1e8aa0	-0.03870642
111	0x3d95b360	0.07309604
112	0xbdb3dba0	-0.087821245
113	0xbd414c30	-0.0471918
114	0x3de655b2	0.11246814
115	0xbc1e8130	-0.009674355
116	0xbd99a6ce	-0.075025186
117	0x3dcf90e6	0.10135059
118	0x3c7f3e80	0.015578866
119	0x3de4167c	0.11137101
120	0x3d8ac6a2	0.067761675
121	0x3d6fe494	0.0585676
122	0x3d80e96c	0.06294522
123	0xbdcab960	-0.09898639
124	0xbd044838	-0.032295436
125	0xbdcc3674	-0.099713236
126	0xbd9e72f4	-0.07736769
127	0x3dbb37d0	0.09141505
128	0xbdf2641e	-0.11835502
129	0x3ddacc3a	0.106834844
130	0x3ca2cb00	0.019872189
131	0x3da7fa6a	0.082020596
132	0x3de5c772	0.11219682
133	0x3df8fd28	0.12157661
134	0x3d152ea8	0.036421448
135	0xbda2239c	-0.07916948
136	0xbd9f7ecc	-0.077878565
137	0xbc7e0590	-0.015504256
138	0xbdd3ea28	-0.10347396
139	0xbdcb55b6	-0.099284574
140	0xbc03bc70	-0.0080405325
141	0x3dd43c18	0.103630245
142	0x3d4d3284	0.050097004
143	0xbdc0a8c4	-0.094071895
144	0xbcd5ec00	-0.02611351
145	0x3da102bc	0.0786185
146	0xbd6763d4	-0.056491688
147	0x3a2c0d00	0.00065632164
148	0x3dcdbd8c	0.10045919
149	0x3d59c9d4	0.053170994
150	0xbdb55878	-0.08854765
151	0xbd6aaeec	-0.057295725
152	0xbd9ce552	-0.07660927
153	0x3c148a90	0.009066239
154	0xbd325b34	-0.04354401
155	0xbb17fac0	-0.002319023
156	0xbdee2568	-0.116282284
157	0xbdde9f46	-0.10870223
158	0x3d501478	0.05080077
159	0x3d4e0374	0.050296262
160	0x3d53a5a8	0.051671654
161	0x3dcd07dc	0.10011265
162	0xbd1d04f4	-0.0383348
163	0xbb6fb1c0	-0.0036574453
164	0xbdff0882	-0.124527946
165	0x3ddcf688	0.107892096
166	0xbddd4e02	-0.108058944
167	0xbcd295f8	-0.025706276
168	0x3ddcde78	0.1078462
169	0x3c92b970	0.01791069
170	0xbd5c652c	-0.053807423
171	0x3dbc818e	0.09204398
172	0x3db323b0	0.08747041
173	0xbda1b4ec	-0.07895836
174	0x3db64bd2	0.0890118
175	0x3d145a50	0.03621894
176	0x3db80f56	0.089873
177	0x3d9a1480	0.07523441
178	0x3d13bb9c	0.03606759
179	0xba00a400	-0.00049072504
180	0x3dd7a824	0.10530117
181	0xbdf6b0ea	-0.120454624
182	0xbd8f254c	-0.06989536
183	0xbd2fe320	-0.042941213
184	0x3df1a8b4	0.11799756
185	0xbdec9d80	-0.11553478
186	0xbce2a0a8	-0.027664497
187	0x3cba3810	0.02273181
188	0xbd85eb60	-0.06539035
189	0xbd5b4a68	-0.053537756
190	0xbccf4858	-0.02530305
191	0xbdd78bc2	-0.105247036
192	0xbd8ec8d8	-0.06971902
193	0xbd7d4b90	-0.06183964
194	0xbdfb3a70	-0.122670054
195	0xbcc626b0	-0.02418837
196	0x3d4767d0	0.048682988
197	0x3d011cfc	0.031521782
198	0x3cb32018	0.02186589
199	0x3ca33ad0	0.019925505
200	0x3d37d900	0.04488468
201	0x3d953044	0.072845966
202	0x3dbf19cc	0.09331092
203	0x3b617440	0.0034401566
204	0x3d8d7ece	0.06908952
205	0xbd80e128	-0.06292945
206	0x3df623a8	0.1201852
207	0x3de93b90	0.11388314
208	0x3c6dafc0	0.014507234
209	0x3ddbf08a	0.107392386
210	0x3d808ea0	0.062772036
211	0xbd98b086	-0.07455544
212	0x3dc211b6	0.09476034
213	0xbdb76fe8	-0.08956891
214	0xbd4a03c4	-0.049319997
215	0xbd6be108	-0.057587653
216	0xbdcd3dc6	-0.10021548
217	0x3d0d4f08	0.0344992
218	0x3cbe9bb0	0.023267597
219	0x3dc24b8e	0.09487067
220	0x3cd4d890	0.025982171
221	0xbd7a38d0	-0.061089337
222	0xbd2fbe1c	-0.04290591
223	0x3da581b4	0.080813795
224	0x3dd72970	0.105059505
225	0x3df583a2	0.119879976
226	0x3dad8b3a	0.08473821
227	0x3deb0df2	0.11477269
228	0x3d3be5f4	0.045873597
229	0xbd91e986	-0.07124619
230	0xbd2efa64	-0.04271926
231	0xbd7b3e8c	-0.061338946
232	0x3cdae910	0.026722461
233	0xbbb48f00	-0.005510211
234	0x3ce8f388	0.028436437
235	0xbdee4c9c	-0.11635706
236	0x3de8995c	0.11357376
237	0xbdf2daa8	-0.118581116
238	0xbd61d3ac	-0.055133507
239	0x3d91f8aa	0.07127507
240	0xbc9ac090	-0.01889065
241	0xbd023264	-0.031786337
242	0x3cfecc98	0.031103417
243	0xbd16e328	-0.036837727
244	0x3db20238	0.086918294
245	0x3cc406d0	0.02392903
246	0x3dbae404	0.09125522
247	0x3d23de8c	0.04000716
248	0xbd62c428	-0.05536285
249	0x3cabe200	0.020981789
250	0x3dd8bb54	0.10582605
251	0x3db9516e	0.090487346
252	0xbd769760	-0.060202956
253	0xbda89f0a	-0.08233459
254	0xbdfa7668	-0.122296154
255	0x3d4cefc4	0.050033346

block2.0.bias f4 [256]
0	0xbde42ea6	-0.1114171
1	0x3d5e644c	0.05429487
2	0xbc13bb00	-0.009016752
3	0xbd21512c	-0.039384052
4	0x3dc8b360	0.09799838
5	0xbd94064a	-0.07227762
6	0x3dafeb76	0.085898325
7	0xbccd6d00	-0.02507639
8	0x3d4fe9e0	0.05076015
9	0xbd9a1d92	-0.07525171
10	0x3d87b3dc	0.06626102
11	0xbc8ab218	-0.016930625
12	0xbcdd9ca0	-0.027052224
13	0x3cc21348	0.023690835
14	0xbdc8c22c	-0.0980266
15	0x3d3f81a8	0.04675451
16	0xbdb18360	-0.08667636
17	0xbdb99324	-0.09061268
18	0x3d45d1e4	0.04829587
19	0x3dadf5ba	0.08494134
20	0x3b7ef340	0.0038902313
21	0xbdb7e126	-0.089784905
22	0x3ce018c0	0.027355552
23	0xbdce4a32	-0.100727454
24	0x3ce12b18	0.027486369
25	0xbcd9d290	-0.026589662
26	0xbdb906d6	-0.09034507
27	0x3debbdd2	0.11510815
28	0x3d95ab1e	0.07308029
29	0xbd94d882	-0.07267858
30	0xbcdd14a8	-0.026987389
31	0x3c9a0160	0.018799484
32	0xbda066ec	-0.07832131
33	0xbc1addf0	-0.009452328
34	0x3dc194f2	0.09452237
35	0x3ded5a42	0.11589481
36	0xbdc4855c	-0.09595749
37	0x3d7879f8	0.060663193
38	0xbdd3128e	-0.103062734
39	0xbdfb3a34	-0.12266961
40	0x3da0dc6e	0.078545436
41	0xbdd10f3c	-0.10207984
42	0xbdd6bb1e	-0.104849085
43	0xbd908210	-0.070560575
44	0xbd4bd330	-0.04976195
45	0x3dd17168	0.10226709
46	0x3cc382c8	0.023866072
47	0xbdad299e	-0.084552035
48	0xbddbfe64	-0.107418805
49	0x3dd29b3e	0.10283516
50	0xbcc424e0	-0.023943365
51	0x3d9b4564	0.075815946
52	0x3ce5c158	0.028046295
53	0x3a82f800	0.0009992123
54	0x3d68b8cc	0.05681686
55	0xbde15d48	-0.1100412
56	0x3cc5c410	0.024141341
57	0xbdde3be4	-0.10851267
58	0x3ab7b680	0.0014016181
59	0x3cb70ab0	0.022343963
60	0x3dd98356	0.106207535
61	0x3dc44624	0.09583691
62	0xbdeed40e	-0.1166154
63	0xbd9bf620	-0.07615304
64	0xbda52372	-0.08063401
65	0x3c343a80	0.011000276
66	0x3c950f68	0.018195823
67	0xbdf24d90	-0.118312
68	0xbddeb154	-0.108736664
69	0x3cbb8bb0	0.022893757
70	0xbd06cb70	-0.032908857
71	0xbdb757f4	-0.089523226
72	0x3d5c5758	0.053794235
73	0xbcd6ef78	-0.026237234
74	0x3d1e6bdc	0.03867708
75	0xbd2c2160	-0.042024016
76	0x3dbcc972	0.0921811
77	0xbcf2bc70	-0.02963087
78	0xbde3c264	-0.111210614
79	0xbd4582d4	-0.04822047
80	0xbc485b40	-0.012228787
81	0xbd9f7902	-0.07786752
82	0x3dbcc8d0	0.092179894
83	0x3c98cf78	0.018653616
84	0xbd7913b0	-0.06080979
85	0x3c61eaa0	0.013788849
86	0x3db00dea	0.08596404
87	0xbd903750	-0.070418
88	0xbdf9918e	-0.121859655
89	0xba263700	-0.0006340593
90	0x3d49ecc0	0.049298048
91	0xbde428b6	-0.111405775
92	0xbd9f1aac	-0.07768759
93	0x3baeb660	0.0053317994
94	0xbd348008	-0.044067413
95	0x3d6ce1f8	0.057832688
96	0xbd4bd420	-0.049762845
97	0x3c259490	0.010106221
98	0x3ccd5218	0.02506356
99	0x3cb0aaa0	0.021565735
100	0x3d6d1310	0.057879508
101	0x3d9116ce	0.07084428
102	0x3dce5e54	0.100765854
103	0x3dd987d2	0.10621609
104	0x3daf9bbc	0.08574626
105	0xbde25482	-0.11051275
106	0x3d8337d8	0.06407136
107	0x3dfdd71a	0.12394543
108	0xbd0aac2c	-0.033855602
109	0xbdb957be	-0.090499386
110	0x3c89a5d8	0.016802713
111	0x3dc4f622	0.096172586
112	0x3da151c6	0.07876925
113	0x3dea7eb4	0.11449948
114	0xbde34f4c	-0.11099109
115	0xbdc3ead6	-0.09566276
116	0x3dc58ea8	0.0964635
117	0x3d63875c	0.05554901
118	0xbd141fac	-0.036163017
119	0xbd830fae	-0.06399475
120	0xbb7a9700	-0.0038236976
121	0x3d00d17c	0.03144978
122	0x3cd6f218	0.026238486
123	0xbd394dbc	-0.04524015
124	0x3d66243c	0.0561869
125	0xbd667b88	-0.056270152
126	0xbd807b2c	-0.06273493
127	0xbbc149e0	-0.005898699
128	0x3d98d9aa	0.07463391
129	0x3db867ee	0.09004198
130	0x3d6f9dc0	0.05850005
131	0x3d521c0c	0.05129628
132	0xbc832110	-0.016006976
133	0xbd0770ac	-0.033066437
134	0x3d94cb6c	0.07265362
135	0xbc75a460	-0.014992803
136	0x3d3e4c04	0.046459213
137	0x3d04ca5c	0.032419547
138	0xbd99aac8	-0.07503277
139	0x3ca759c8	0.020428553
140	0x3dd43c60	0.10363078
141	0x3bbb74e0	0.0057207197
142	0xbd0d4cf8	-0.03449723
143	0xbc49f960	-0.012327522
144	0x3cb41310	0.021981746
145	0x3daa3902	0.083116546
146	0xbd4d0a4c	-0.050058648
147	0xbd9e241c	-0.07721731
148	0xbd3cc268	-0.046083838
149	0x3ca705f0	0.020388573
150	0x3bf9db40	0.0076250136
151	0xbdac068a	-0.08399685
152	0x3da41fc6	0.08013873
153	0x3d824786	0.06361298
154	0xbd402200	-0.046907425
155	0xb9149400	-0.00014169514
156	0x3d631b34	0.055445865
157	0x3d54986c	0.051903173
158	0xbdbee5b0	-0.09321153
159	0xbdf50b8e	-0.119650945
160	0xbdabaa32	-0.083820716
161	0xbcad5dd8	-0.021162912
162	0xbdcccd7c	-0.100001305
163	0x3d0cd2c0	0.034380674
164	0xbde99aaa	-0.11406453
165	0xbdeea7c6	-0.11653094
166	0xbc8e8ff0	-0.01740262
167	0x3da7ce92	0.08193697
168	0x3dc94e7a	0.09829421
169	0x3c275330	0.010212705
170	0x3de2b0a4	0.11068848
171	0xbd8ba338	-0.06818241
172	0x3dd06512	0.10175528
173	0x3dd3bbf2	0.10338582
174	0x3cc72140	0.024307847
175	0xbdcc69fa	-0.09981151
176	0x3d0c42bc	0.03424333
177	0x3c1ea160	0.0096820295
178	0x3c588550	0.013215378
179	0x3cd020b0	0.025406212
180	0xbd0ed010	-0.034866393
181	0xbd9c1882	-0.07621862
182	0xbca9fb58	-0.020749733
183	0x3bd93b00	0.006629348
184	0xbc50f870	-0.012754545
185	0xbdd1da12	-0.10246672
186	0xba34f100	-0.0006902367
187	0x3d850e94	0.06496921
188	0x3d45a540	0.048253298
189	0xbd8541dc	-0.06506702
190	0x3d8fbc7c	0.070183724
191	0xbb7c66c0	-0.0038513392
192	0xbdf8eb22	-0.12154223
193	0x3dac4950	0.08412421
194	0x3d488a2c	0.048959896
195	0xbdffc4d8	-0.12488717
196	0x3b5b7f80	0.0033492744
197	0xbdeac8b6	-0.11464064
198	0x3d9be578	0.07612127
199	0xbbd8a9c0	-0.0066120327
200	0xbd9e51ba	-0.07730432
201	0xbb8d1a20	-0.004306093
202	0x3d388c3c	0.045055613
203	0xbc4dadb0	-0.012553617
204	0xbc71f730	-0.014768407
205	0x3b428840	0.0029683262
206	0x3df266fc	0.11836049
207	0xbd64de68	-0.055876166
208	0x3d1b4108	0.037903816
209	0xbb977dc0	-0.004623145
210	0x3b325d80	0.0027216375
211	0xbd423da4	-0.047422066
212	0x3dbb1a04	0.091358215
213	0xbc71a000	-0.01474762
214	0x3d964314	0.07337013
215	0x3d4d8424	0.050174847
216	0xbc8b6380	-0.017015219
217	0x3caf2570	0.021380156
218	0xbd689390	-0.05678135
219	0xbd206144	-0.03915526
220	0xbd91c110	-0.07116902
221	0xbd16c95c	-0.036813125
222	0xbce36ba8	-0.027761295
223	0xbdff7590	-0.12473595
224	0x3d7b0790	0.06128651
225	0x3d4ab498	0.049488634
226	0x3d454ddc	0.048169956
227	0x3d69e4d4	0.057102993
228	0x3d550474	0.0520062
229	0xbdf691b6	-0.12039511
230	0xb9c27e00	-0.0003709644
231	0x3c864af8	0.01639317
232	0xba872d00	-0.0010313094
233	0xbdc2e8ec	-0.095170826
234	0xbde42c86	-0.11141305
235	0xbdadec58	-0.084923446
236	0xbd8c696a	-0.06856044
237	0xbc76c590	-0.015061751
238	0xbded95b4	-0.11600819
239	0xbddf9074	-0.10916224
240	0xbde7cc4c	-0.113182634
241	0xbcbecd20	-0.02329117
242	0xbb76db80	-0.0037667453
243	0xbdc83fb2	-0.09777774
244	0xbd60b3c4	-0.054858938
245	0xbd6c3544	-0.057667986
246	0x3d8c938e	0.06864081
247	0xbd0855bc	-0.033284888
248	0x3d36e67c	0.0446534
249	0x3aa11e80	0.0012292415
250	0x3dae1462	0.084999815
251	0xbc8ca6e0	-0.017169416
252	0x3bdd3e60	0.0067518204
253	0x3c940878	0.018070444
254	0x3db56b8a	0.08858402
255	0xbdf912c4	-0.121617824
