adversarially_trained_model.pt (torch, 273255 bytes, 14 tensors)

embedding.weight f4 [64, 10]
-0.13984409 0.047456548 0.42623168 -0.12567177 0.08367543 -0.29080293 -0.058484394 -0.21832426
-0.09131001 -0.29101557 0.16038151 -0.039540496 -0.4821996 0.45805946 0.12538046 0.02362641
0.33474743 0.05105538 -0.045163073 -0.14476119 0.383529 -0.23101015 0.05010946 0.38069206
0.38319206 0.35241875 0.025519751 -0.5352722 -0.10326946 0.060027126 0.04607991 -0.1064753
-0.7384998 0.25249434 0.33173954 0.25564677 0.3165142 0.09416889 0.18917195 0.41027626
-0.3730553 0.15121177 0.2539945 0.119268 -0.42032316 0.016437983 -0.14282253 0.101805694
0.07733916 -0.24437188 0.13057336 -0.4293939 -0.21279691 0.5407198 -0.055722464 0.030924853
0.05909281 -0.4126524 0.11431821 -0.018883843 -0.3848466 0.424561 -0.21518895 -0.2400212
-0.48123056 0.2069701 -0.2798907 0.23134851 0.10985949 -0.22224799 0.11426983 -0.46800253
-0.651777 0.03497891 0.61048675 0.34374738 0.43645215 0.059357584 -0.103312366 0.2037298
0.10137742 -0.314138 0.7649468 -0.23974757 -0.3243421 -0.45390326 -0.3504303 -0.09268113
-0.20677753 -0.010202923 -0.06687204 0.09350213 0.6104767 -0.7211104 -0.11783922 -0.4865225
-0.7339394 0.41465932 -0.17966351 -0.3616164 0.38707826 -0.22439218 -0.497053 -0.44115537
0.3288737 0.044335734 -0.19346648 0.48134938 0.20401648 0.17380594 -0.0891971 0.26023498
-0.19981945 0.3470452 0.3788059 -0.058026306 0.003532316 0.25744635 0.12650812 0.0025027343
0.20776455 -0.33683553 -0.43028626 0.018082224 0.28735617 0.1117138 0.017679876 0.019448565
-0.33259714 0.07497329 -0.7313747 0.069293514 0.8346541 -0.11919594 -0.3340557 -0.3080798
-0.41560715 -0.26478755 -0.00030514278 0.1280341 -0.40143892 -0.07326661 -0.3723748 0.040474236
0.18161127 -0.093204364 0.6322152 0.32189715 0.24810559 0.26758564 -0.0074431007 -0.32980993
-0.51215905 -0.14445904 0.49937692 0.44752452 0.28643042 0.1387158 0.35717133 -0.25477645
-0.17169812 -0.48762617 -0.008053782 0.040872533 0.29891667 0.015961949 0.280551 -0.26494858
0.13949859 0.005971452 0.55762726 -0.28104642 -0.9313174 0.21430686 0.7518603 0.48794302
0.38122174 0.17036262 -0.20522317 0.28002164 -0.15791431 0.33549535 -0.17716101 0.2926879
-0.21536963 0.04761579 0.5165181 0.31106603 0.13952702 -0.24123485 -0.34394863 0.42293295
-0.18193954 0.25474826 0.44788134 0.13851187 -0.4408489 0.41502452 -0.06889174 -0.028800637
0.11399109 -0.24706432 0.6435481 0.13957494 -0.4822757 -0.1317101 0.24115469 -0.38967252
-0.27237847 -0.25717866 0.06081686 0.08840064 -0.55304515 0.38211823 -0.14521424 0.1946312
-0.16647375 0.3251266 -0.08227832 0.36478356 0.25632805 0.02185074 -0.65965015 0.2876104
0.6236425 0.02934523 0.07259808 0.34869927 -0.22234158 -0.021540746 -0.65296906 -0.41472045
0.6242963 -0.30358124 0.029955 0.12108036 -0.7340391 0.29371107 0.15495414 -0.047341496
-0.33847108 0.5092331 -0.30281928 -0.18150659 -0.1448626 0.26306266 -0.25764114 0.3403581
0.27252287 -0.112037994 0.25090054 -0.51206815 0.083502464 0.17872804 0.21345384 0.25916776
00000000: 4a33 0fbe cc61 423d 0a3b da3e 1ab0 00be
00000010: 065e ab3d 1fe4 94be 558d 6fbd 6590 5fbe
00000020: be00 bbbd feff 94be 0d3b 243e 37f5 21bd
00000030: dee2 f6be c586 ea3e bc63 003e 2c8c c13c
00000040: 0464 ab3e 721f 513d eafc 38bd 473c 14be
00000050: ea5d c43e ed8d 6cbe 943f 4d3d 12ea c23e
00000060: c031 c43e 3b70 b43e cc0e d13c 9907 09bf
00000070: f07e d3bd 01df 753d 4abe 3c3d b90f dabd
00000080: 530e 3dbf f046 813e c4d9 a93e 22e4 823e
00000090: 260e a23e 9edb c03d 4bb6 413e bb0f d23e
000000a0: 1b01 bfbe 42d7 1a3e 910b 823e c842 f43d
000000b0: 9934 d7be f3a8 863c 1240 12be 817f d03d
000000c0: fe63 9e3d 9f3c 7abe 06b5 053e 84d9 dbbe
000000d0: 6fe7 59be 9d6c 0a3f 3d3d 64bd 1e56 fd3c
000000e0: 4d0b 723d 2d47 d3be aa1f ea3d 4ab2 9abc
000000f0: 9d0a c5be 0f60 d93e 7e5a 5cbe 1ec8 75be
00000100: da63 f6be f8ef 533e d54d 8fbe a0e6 6c3e
00000110: 03fe e03d fa94 63be 4d06 ea3d 079e efbe
00000120: dcda 26bf 0c46 0f3d dc48 1c3f a8ff af3e
00000130: a876 df3e f020 733d 6f95 d3bd 8b9e 503e
00000140: f79e cf3d b2d6 a0be 8ed3 433f 6380 75be
00000150: 2b10 a6be 0266 e8be 9a6b b3be 9bcf bdbd
00000160: 7dbd 53be 292a 27bc 35f4 88bd 0b7e bf3d
00000170: 3348 1c3f b19a 38bf b055 f1bd 7a19 f9be
00000180: 74e3 3bbf 3a4e d43e b6f9 37be c925 b9be
00000190: 1f2f c63e 10c7 65be bb7d febe 1edf e1be
000001a0: 2262 a83e 6399 353d 141c 46be 6d73 f63e
000001b0: b2e9 503e 2ffa 313e f8ac b6bd 853d 853e
000001c0: 789d 4cbe e9af b13e d9f2 c13e feac 6dbd
000001d0: 6e7e 673b 02d0 833e 588b 013e ea04 243b
000001e0: 3bc0 543e b575 acbe 7b4e dcbe 2c21 943c
000001f0: 5920 933e 34ca e43d 63d5 903c 9952 9f3c
00000200: 2c4a aabe 998b 993d 5f3b 3bbf c2e9 8d3d
00000210: e4ab 553f 001d f4bd 5909 abbe a3bc 9dbe
00000220: 76ca d4be 3c92 87be 92fb 9fb9 5f1b 033e
00000230: 6789 cdbe ce0c 96bd e9a7 bebe 50c8 253d
00000240: 4ef8 393e eee1 bebd dbd8 213f b4cf a43e
00000250: 640f 7e3e fc00 893e 41e5 f3bb d9dc a8be
00000260: db1c 03bf 12ed 13be 55ae ff3e ef21 e53e
00000270: 02a7 923e 840b 0e3e 29df b63e 0f72 82be
00000280: a2d1 2fbe 23aa f9be 03f4 03bc f569 273d
00000290: 9b0b 993e a2c2 823c 61a4 8f3e 57a7 87be
000002a0: b8d8 0e3e 2cac c33b a9c0 0e3f 51e5 8fbe
000002b0: d16a 6ebf 4273 5b3e eb79 403f abd3 f93e
000002c0: 7f2f c33e 8a73 2e3e 0626 52be ff5e 8f3e
000002d0: 4ab4 21be 0cc6 ab3e b269 35be 30db 953e
000002e0: db89 5cbe c608 433d 883a 043f 0c44 9f3e
000002f0: 2ce0 0e3e 4506 77be 091a b0be ab8a d83e
00000300: 5c4e 3abe 5d6e 823e b450 e53e 0ed6 0d3e
00000310: f2b6 e1be 187e d43e 1d17 8dbd 50ef ebbc
00000320: 2974 e93d 6efe 7cbe 91bf 243f bcec 0e3e
00000330: d7ec f6be 03df 06be 41f1 763e 2883 c7be
00000340: 3175 8bbe ecac 83be 1a1b 793d 650b b53d
00000350: 5e94 0dbf 00a5 c33e 0bb3 14be 674d 473e
00000360: 1878 2abe fe76 a63e 8981 a8bd e9c4 ba3e
00000370: 6e3d 833e 5300 b33c d5de 28bf ac41 933e
00000380: 09a7 1f3f 6865 f03c 4dae 943d b688 b23e
00000390: 83ad 63be 3876 b0bc fb28 27bf 3d56 d4be
000003a0: e2d1 1f3f 006f 9bbe 3064 f53c fbf8 f73d
000003b0: fde9 3bbf 4c61 963e 4cac 1e3e 28e9 41bd
000003c0: 154c adbe 1a5d 023f 210b 9bbe dddc 39be
000003d0: dd56 14be 26b0 863e 8ae9 83be 6b43 ae3e
000003e0: 1e88 8b3e 2d74 e5bd 0976 803e e616 03bf
000003f0: 5703 ab3d 7c04 373e a593 5a3e a3b1 843e

embedding.bias f4 [64]
0.08616033 0.17465878 0.00858564 -0.6082002 0.08813988 -0.5105175 -0.5362614 -0.2772692
0.52578455 -0.16821757 -0.18844964 0.13634291 -0.7267186 0.24177465 -0.12848277 0.44091412
0.16865405 -0.33415937 -0.07731372 0.024018629 0.5067619 -0.21519825 -0.0035383634 0.005197289
0.024514683 0.3112833 -0.27162385 -0.40181085 -0.2586403 -0.12779292 -0.031514484 0.23751377
-0.35656035 -0.41350412 -0.4212155 -0.44802016 -0.06504053 -0.45514482 0.18496789 -0.50965285
-0.31040427 -0.009963753 0.38320932 0.33364958 -0.2472173 0.26891154 0.15990634 -0.5065905
0.23912477 -0.26092526 0.16875902 -0.23176996 -0.23789336 0.587421 -0.084142156 -0.39145753
0.35700873 0.66321427 0.29889104 -0.24034187 -0.15466954 0.20118892 -0.092561625 -0.10232832
00000000: d474 b03d c0d9 323e c9aa 0c3c 02b3 1bbf
00000010: ae82 b43d 46b1 02bf 6d48 09bf 3bf6 8dbe
00000020: d199 063f 3a41 2cbe f1f8 40be 7a9d 0b3e
00000030: 3b0a 3abf c693 773e fd90 03be 7fbf e13e
00000040: a6b3 2c3e f016 abbe a856 9ebd b7c2 c43c
00000050: 26bb 013f ee5c 5cbe e3e3 67bb 054e aa3b
00000060: 04d3 c83c 8660 9f3e 4812 8bbe 27ba cdbe
00000070: 806c 84be 26dc 02be 5515 01bd cf36 733e
00000080: 148f b6be d0b6 d3be 8fa9 d7be e662 e5be
00000090: f833 85bd be08 e9be 3968 3d3e 9c78 02bf
000000a0: 4fed 9ebe 023f 23bc 0334 c43e 1ed4 aa3e
000000b0: 8826 7dbe c6ae 893e 7dbe 233e eaaf 01bf
000000c0: 20dd 743e ff97 85be 2acf 2c3e 1b55 6dbe
000000d0: 519a 73be 3961 163f b952 acbd 1f6d c8be
000000e0: d9c9 b63e 69c8 293f 3f08 993e 2e1c 76be
000000f0: b161 1ebe 7804 4e3e f390 bdbd 8391 d1bd

block1.0.weight f4 [256, 64]
0.12576114 0.0052327 0.038476553 -0.033229433 0.10714069 0.050308228 0.13455012 0.031017356
0.06664045 -0.07465013 -0.01773724 0.06606187 0.007911653 -0.08919025 -0.11173201 0.0603872
-0.05027223 -0.030544568 0.027188126 -0.121408805 0.1092277 0.021744674 -0.03286634 0.075296424
-0.060229253 -0.11483112 0.087996356 -0.030917568 0.101826355 0.0689209 -0.050497912 0.09408558
-0.1845473 -0.07152332 0.035794068 -0.109505884 -0.054127872 -0.100968935 0.07597018 -0.017833972
-0.05888217 0.10235277 -0.0036498173 0.12883087 -0.088687904 0.026392896 0.02189291 -0.0701394
0.040100437 -0.05002733 -0.048270267 0.042055763 -0.077297136 -0.08468536 0.082525924 0.034551006
-0.023379473 -0.119253896 -0.012886049 0.020658653 -0.022712717 -0.101312466 0.0284071 -0.022527086
0.06462665 -0.13038763 0.24335396 0.02596835 -0.10284867 -0.05881487 -0.2625492 -0.16677614
0.053213064 0.16179386 0.030810302 0.12442367 -0.07337295 -0.07929213 0.03295065 -0.1464331
-0.004100736 -0.05707236 0.17120291 0.040263515 -0.044569887 -0.043408174 -0.05704701 0.14031485
-0.23000441 0.17410105 -0.012960122 0.19320635 -0.044512965 0.107000455 -0.21181378 -0.16906834
-0.15249944 0.079769105 -0.16503109 0.22617432 0.23112798 0.045412228 0.15618668 0.21416338
-0.008990645 0.18375497 0.03923372 -0.27359793 -0.15358528 -0.1261972 -0.032559164 -0.18032274
-0.19520932 -0.061357282 -0.12860721 -0.025845712 0.059240185 0.14981867 -0.024706313 0.07017705
-0.08642695 0.02767675 -0.01771312 -0.13525325 -0.026790386 -0.3042 0.20779788 0.04542659
-0.060665276 0.10425024 0.09945762 -0.002170463 -0.0018959943 -0.11877531 -0.19073589 -0.1163915
0.087988764 -0.1383608 -0.09032126 0.08592248 -0.06524037 0.06902335 0.08987812 -0.16317
-0.14358623 0.11964819 0.064664766 0.045216046 0.12032651 0.011319003 0.06258984 -0.05422371
-0.07482182 0.20493472 -0.065834746 -0.053609785 -0.081713825 0.120414674 -0.049335003 -0.019284043
-0.05404106 -0.078720436 -0.08736258 -0.07784106 0.10792417 0.052451164 0.0043040356 0.09065099
-0.09392444 -0.032296795 -0.021896416 0.16474919 0.000712913 0.050435495 0.11719321 0.01510791
0.08136153 0.034823425 -0.0019616724 0.03259325 -0.078071944 0.06409374 -0.054695968 -0.0035250417
0.052634697 -0.038157947 0.19533782 0.08485488 0.003809773 0.019232275 -0.009260997 -0.012950758
-0.10463072 0.0068592723 -0.017150946 -0.026924163 -0.052707434 0.046363704 -0.09797475 0.09190835
-0.076468945 -0.042425215 -0.11033752 -0.023070216 -0.019379798 0.0258134 -0.037530545 -0.074118085
-0.05519394 -0.0423528 0.05605808 -0.021024404 -0.07101602 -0.051168244 -0.08062056 -0.036521893
0.08152526 0.06157187 0.04824488 -0.13379057 0.047719833 0.034910586 -0.0031780675 -0.04130721
-0.04421141 -0.011657292 -0.052541714 0.00443865 -0.12858878 -0.1232072 0.118664645 -0.14091219
0.0342377 -0.116399035 -0.09748267 0.09509051 0.12592104 -0.042246666 -0.055299323 0.030905208
0.0079960385 0.07541963 0.113015875 -0.01735088 -0.003340209 0.06349939 0.06886201 0.118212484
0.09749906 0.12752898 -0.08348952 -0.05040889 -0.09115472 -0.028862292 -0.02162253 -0.04161701
00000000: 87c7 003e 1277 ab3b 9799 1d3d 961b 08bd
00000010: 946c db3d 0010 4e3d 82c7 093e 1c18 fe3c
00000020: ca7a 883d 2be2 98bd b04d 91bc 724b 873d
00000030: e19f 013c 61a9 b6bd c1d3 e4bd 9258 773d
00000040: 41ea 4dbd 9a38 fabc a2b9 de3c 2ea5 f8bd
00000050: c6b2 df3d e321 b23c db9e 06bd 0335 9a3d
00000060: f3b2 76bd 942c ebbd 6f37 b43d d746 fdbc
00000070: 568a d03d 6726 8d3d e6d6 4ebd f1af c03d
00000080: f8f9 3cbe d27a 92bd cd9c 123d 9f44 e0bd
00000090: 30b5 5dbd cdc8 cebd 4196 9b3d 8d18 92bc
000000a0: 6e2e 71bd 549e d13d c631 6fbb 3dec 033e
000000b0: 01a2 b5bd ea35 d83c c358 b33c 3fa5 8fbd
000000c0: 5b40 243d 75e9 4cbd 0bb7 45bd aa42 2c3d
000000d0: f64d 9ebd 856f adbd 5a03 a93d 5b85 0d3d
000000e0: 4f86 bfbc 633b f4bd 0220 53bc 563c a93c
000000f0: 0510 babc e97c cfbd 02b6 e83c b98a b8bc
00000100: fa5a 843d 5684 05be c831 793e 94bb d43c
00000110: 53a2 d2bd dce7 70bd d96c 86be 5dc7 2abe
00000120: f1f5 593d 4aad 253e e365 fc3c d6d1 fe3d
00000130: 8f44 96bd ea63 a2bd 43f7 063d 8ff2 15be
00000140: 785f 86bb b5c4 69bd d14f 2f3e 5beb 243d
00000150: ea8e 36bd c5cc 31bd 20aa 69bd b2ae 0f3e
00000160: 4786 6bbe 8c47 323e b156 54bc e3d7 453e
00000170: 3a53 36bd 0e23 db3d b6e5 58be 4020 2dbe
00000180: d028 1cbe fc5d a33d e9fd 28be 3e9a 673e
00000190: d0ac 6c3e 2c02 3a3d 67ef 1f3e a54d 5b3e
000001a0: 804d 13bc 432a 3c3e 8ab3 203d 0715 8cbe
000001b0: 7645 1dbe d739 01be c25c 05bd 86a6 38be
000001c0: f4e4 47be c651 7bbd 9cb1 03be 63ba d3bc
000001d0: d6a5 723d 116a 193e e564 cabc fcb8 8f3d
000001e0: 9d00 b1bd 5aba e23c 1b1b 91bc d47f 0abe
000001f0: 8377 dbbc 1ac0 9bbe f8c8 543e 3b11 3a3d
00000200: 277c 78bd 2681 d53d 70b0 cb3d 543e 0ebb
00000210: 0383 f8ba 7840 f3bd 4550 43be ab5e eebd
00000220: 7433 b43d 74ae 0dbe 5afa b8bd 20f8 af3d
00000230: be9c 85bd 1d5c 8d3d 0512 b83d 0916 27be
00000240: 4508 13be 1c0a f53d f66e 843d 7634 393d
00000250: bf6d f63d 5773 393c 1a2f 803d ae19 5ebd
00000260: 2f3c 99bd 68da 513e 5ed4 86bd ef95 5bbd
00000270: 9459 a7bd f89b f63d 8013 4abd 92f9 9dbc
00000280: 295a 5dbd 2e38 a1bd 27eb b2bd 226b 9fbd
00000290: 5907 dd3d 08d7 563d de08 8d3b 3aa7 b93d
000002a0: 755b c0bd a549 04bd 1d60 b3bc 03b4 283e
000002b0: c8e2 3a3a 7395 4e3d fe02 f03d 2b87 773c
000002c0: e0a0 a63d 02a3 0e3d 678f 00bb 8080 053d
000002d0: 2fe4 9fbd 9443 833d e108 60bd 6304 67bb
000002e0: 7b97 573d 824b 1cbd a306 483e 65c8 ad3d
000002f0: 62ad 793b 018d 9d3c 70bb 17bc 6b2f 54bc
00000300: a248 d6bd bfc3 e03b 2480 8cbc 1090 dcbc
00000310: c0e3 57bd dee7 3d3d fca6 c8bd 723a bc3d
00000320: c09b 9cbd 10c6 2dbd a3f8 e1bd c0fd bcbc
00000330: 62c2 9ebc a076 d33c a1b9 19bd 39cb 97bd
00000340: 0a13 62bd 217a 2dbd 289d 653d 5f3b acbc
00000350: d970 91bd cb95 51bd 641c a5bd fb97 15bd
00000360: b7f6 a63d c932 7c3d 6c9c 453d 6500 09be
00000370: df75 433d 67fe 0e3d 2047 50bb c031 29bd
00000380: 0617 35bd 3afe 3ebc fb35 57bd 1872 913b
00000390: c7ac 03be 0e54 fcbd 7306 f33d 494b 10be
000003a0: d53c 0c3d 9e62 eebd fea4 c7bd d0be c23d
000003b0: 72f1 003e d70a 2dbd 8b81 62bd eb2c fd3c
000003c0: d101 033c 9b75 9a3d de74 e73d 6f23 8ebc
000003d0: 68e7 5abb f80b 823d 8707 8d3d 6319 f23d
000003e0: 96ad c73d f596 023e 8efc aabd 8d79 4ebd
000003f0: 53af babd 9d70 ecbc bb21 b1bc 9976 2abd

block1.0.bias f4 [256]
0.10298299 -0.31019208 -0.05508036 0.0055370363 0.15322746 -0.008814108 -0.042392395 -0.1146846
0.24400099 -0.0070536346 0.05331973 -0.078370154 -0.055175327 -0.10148139 -0.14753737 0.23934585
0.0100020515 0.13440219 -0.112231 0.20172235 -0.0505161 -0.13976505 -0.0056171645 -0.5224412
0.08323948 -0.041178007 0.018347822 -0.11849692 0.27173248 0.19277617 0.014636759 -0.25257298
-0.06197587 0.053394098 0.013103112 0.027379371 -0.14757727 -0.07584076 -0.010649384 -0.1614683
0.06400497 0.025411427 -0.0461792 0.12611854 -0.083171785 0.013283721 -0.03430238 -0.043266833
-0.05942035 -0.17172909 -0.1204301 0.13935286 -0.1772697 -0.071283266 -0.16071898 -0.018142458
-0.1023233 0.01787933 0.04531697 0.049878117 0.08563731 0.02299181 0.12196327 -0.039691973
0.10696936 -0.06550581 -0.3333247 -0.30521294 -0.17301984 -0.068733245 0.05223191 -0.08039892
0.15096043 0.15092969 0.041812137 -0.073421106 -0.07763979 0.08221315 -0.4010384 -0.054510854
-0.1021896 -0.14042768 0.0706421 -0.113313 -0.15603808 -0.18589069 0.13915284 0.055733696
-0.04316664 -0.28579354 -0.098320425 0.027712738 -0.026905488 -0.48752695 0.101169795 -0.17598279
-0.06841185 0.21368116 -0.14544055 -0.32661176 -0.0518352 -0.027400842 -0.022186954 -0.0008544716
0.07677694 0.16049223 -0.35098472 -0.027809806 -0.07675447 -0.29557884 0.04028254 -0.0067595765
0.09224701 0.088826895 -0.070053965 0.12385723 0.067769036 0.0038981715 0.012611449 0.0069158184
0.09712643 -0.113105886 -0.055199757 -0.10753774 0.11825459 0.037746955 -0.11688203 0.029033264
0.058845513 0.07871988 0.08233909 -0.061723623 0.118972324 0.2920218 0.013263256 0.06497245
-0.0474494 0.010011274 0.010174836 -0.15889578 -0.060330033 -0.0784747 0.08396881 0.04086457
0.0365697 -0.08751708 0.039907835 0.00750628 0.0026120464 0.06937684 0.072278515 0.07714756
0.09338732 0.076654054 0.040917758 0.015544311 0.07948981 0.084067136 -0.06714738 0.020863628
-0.12744871 -0.06079282 -0.008848721 0.0407903 -0.070950024 0.06717092 -0.3495779 -0.03510425
0.13242516 -0.037917577 -0.02276654 0.056677688 0.07755399 -0.07841209 0.08891764 -0.0013529821
-0.10981874 -0.13704582 -0.041245744 0.16942014 0.052841604 0.066499345 0.072964385 -0.16379885
0.037125595 0.011670419 -0.063733816 -0.13820747 0.06953375 -0.13604228 -0.08819752 0.062194172
-0.050281998 0.079443276 -0.06569408 -0.048724458 0.10665342 0.23954745 -0.09001836 0.11280758
0.00505782 -0.040514402 -0.1430884 0.0861485 -0.026393427 0.16831373 -0.19484599 -0.08105891
-0.0065383515 0.11241701 -0.014844122 0.0048795636 -0.026870094 0.061461166 -0.115477264 0.101429455
-0.19297442 -0.10433515 -0.015564118 -0.09617382 -0.010146852 0.09758569 -0.07950735 0.04523847
0.040540546 -0.0061911624 0.036197327 -0.033119183 -0.079875775 0.06932707 0.025542684 -0.0489321
0.06394927 0.024405953 0.08228415 -0.020014357 0.02009349 0.008881834 -0.060188696 -0.15196091
-0.120003365 0.2615518 0.047604274 -0.08071496 -0.10835549 0.06596378 -0.03502562 -0.00078373216
-0.024408195 0.069501005 0.106965035 0.051711645 -0.14876704 -0.15206122 -0.37171373 -0.09632248
00000000: bfe8 d23d 7fd1 9ebe f29b 61bd 0770 b53b
00000010: a9e7 1c3e 0c69 10bc a6a3 2dbd c2df eabd
00000020: 65db 793e 2d22 e7bb ca65 5a3d 8880 a0bd
00000030: 86ff 61bd 7ad5 cfbd 0914 17be 1417 753e
00000040: a5df 233c baa0 093e 5ed9 e5bd 4e90 4e3e
00000050: f8e9 4ebd 921e 0fbe 3110 b8bb b5be 05bf
00000060: 7679 aa3d 45aa 28bd 2c4e 963c 83ae f2bd
00000070: 8520 8b3e 1e67 453e 04cf 6f3c 3f51 81be
00000080: 69da 7dbd c5b3 5a3d 6fae 563c b44a e03c
00000090: 7f1e 17be 6652 9bbd c17a 2ebc f257 25be
000000a0: 0a15 833d a02b d03c 6726 3dbd 3825 013e
000000b0: f855 aabd f7a3 593c a780 0cbd 9038 31bd
000000c0: c162 73bd c0d9 2fbe 0ea4 f6bd 84b2 0e3e
000000d0: 3086 35be f6fc 91bd 8493 24be 7e9f 94bc
000000e0: e18e d1bd ac77 923c 4a9e 393d ff4c 4c3d
000000f0: 9d62 af3d 5259 bc3c e1c7 f93d 0d94 22bd
00000100: c012 db3d e927 86bd 89a9 aabe df44 9cbe
00000110: 1d2c 31be 04c4 8cbd 21f1 553d 30a8 a4bd
00000120: 5f95 1a3e 508d 1a3e 3443 2b3d ce5d 96bd
00000130: 9c01 9fbd 5e5f a83d e854 cdbe c646 5fbd
00000140: c848 d1bd 46cc 0fbe ceac 903d a510 e8bd
00000150: 72c8 1fbe 215a 3ebe 157e 0e3e 0449 643d
00000160: 81cf 30bd 8853 92be 385c c9bd d305 e33c
00000170: e668 dcbc 229d f9be 1c32 cf3d d534 34be
00000180: 831b 8cbd 3ccf 5a3e 5eee 14be a839 a7be
00000190: 2651 54bd bb77 e0bc 6ac1 b5bc 9efe 5fba
000001a0: 3a3d 9d3d 1358 243e 45b4 b3be 64d1 e3bc
000001b0: 7331 9dbd 1c56 97be 4eff 243d 707f ddbb
000001c0: 00ec bc3d e0ea b53d 7478 8fbd dca8 fd3d
000001d0: 7eca 8a3d 7778 7f3b 40a0 4e3c 179e e23b
000001e0: 39ea c63d 0fa4 e7bd 2419 62bd bf3c dcbd
000001f0: 762f f23d 8d9c 1a3d d95f efbd 2bd7 ed3c
00000200: fe07 713d e337 a13d 66a1 a83d e9d1 7cbd
00000210: c3a7 f33d e283 953e 214e 593c 4710 853d
00000220: 4d5a 42bd 5406 243c 5bb4 263c 93b5 22be
00000230: a01c 77bd 58b7 a0bd d7f7 ab3d 9b61 273d
00000240: 1cca 153d 283c b3bd 6676 233d 3ef7 f53b
00000250: de2e 2b3b 7215 8e3d c206 943d 8aff 9d3d
00000260: da41 bf3d cdfc 9c3d 6199 273d 91ad 7e3c
00000270: 8ecb a23d 642b ac3d 9184 89bd 33ea aa3c
00000280: ea81 02be e401 79bd 3afa 10bc bb13 273d
00000290: 3f4e 91bd e890 893d e0fb b2be 79c9 0fbd
000002a0: 769a 073e 764f 1bbd e580 babc dd26 683d
000002b0: a0d4 9e3d 8596 a0bd 741a b63d 8c56 b1ba
000002c0: a6e8 e0bd bd55 0cbe 4cf1 28bd 797c 2d3e
000002d0: 7070 583d cf30 883d 5a6e 953d e3ba 27be
000002e0: 0211 183d 4935 3f3c e086 82bd 4286 0dbe
000002f0: b667 8e3d ab4e 0bbe e7a0 b4bd 51bf 7e3d
00000300: 7ff4 4dbd 28b3 a23d 9e8a 86bd 4c93 47bd
00000310: 1c6d da3d ed4b 753e 8c5b b8bd a907 e73d
00000320: 12bc a53b 6ef2 25bd c485 12be a06e b03d
00000330: 0737 d8bc 6f5a 2c3e b585 47be 3702 a6bd
00000340: ab3f d6bb e43a e63d c334 73bc bfe4 9f3b
00000350: ac1e dcbc b4be 7b3d 587f ecbd 3fba cf3d
00000360: 169b 45be abad d5bd a400 7fbc c8f6 c4bd
00000370: fb3e 26bc 02db c73d c0d4 a2bd f94b 393d
00000380: d80d 263d 3cdf cabb a643 143d fba7 07bd
00000390: e995 a3bd 5afb 8d3d e43e d13c 076d 48bd
000003a0: d6f7 823d feee c73c 9884 a83d 26f5 a3bc
000003b0: 1a9b a43c 1d85 113c 6c88 76bd a49b 1bbe
000003c0: 53c4 f5bd 1eea 853e b3fc 423d e34d a5bd
000003d0: 7ce9 ddbd 0518 873d 0677 0fbd 6073 4dba
000003e0: b2f3 c7bc 8b56 8e3d 7c10 db3d 97cf 533d
000003f0: 6356 18be f0b5 1bbe 4351 bebe b844 c5bd

block1.2.weight f4 [64, 256]
0.0027859479 -0.19697101 0.10383704 0.011916804 0.08447351 -0.0020395175 -0.031943426 0.0057380255
0.02117532 0.045483004 0.05726303 0.04649811 -0.042970147 -0.09889356 0.034203175 0.011802819
-0.030889783 0.025500497 0.0042564683 0.19569983 -0.012240885 0.036204074 -0.029115977 0.048807383
0.054255996 -0.025173662 0.03283214 -0.043397658 0.22561821 0.063736066 0.013078697 0.054181915
-0.039295483 -0.011063689 0.032349788 -0.038668066 0.012395925 0.0518762 0.029088715 0.036681663
-0.038077 -0.04018612 -0.009488424 0.007915845 0.15159367 -0.04070988 0.00574785 0.0040533934
-0.007327159 -0.03741642 0.008929793 0.13055041 -0.006970998 -0.013319833 -0.16776925 0.026110003
-0.039600454 0.0025452042 -0.056156684 0.01667668 -0.0137821045 0.061200246 0.020730283 -0.007349975
-0.04553313 0.010495555 -0.2770497 0.065040134 0.008310631 -0.0016197123 -0.04074059 0.024703622
0.015340922 0.03251718 -0.025508419 0.07026304 0.04250162 0.087683916 -0.21906845 -0.030856416
-0.0452396 0.06217926 -0.0703307 0.018277857 0.0034853749 -0.086950414 0.11022819 -0.028674146
-0.017026398 0.017272806 0.01388664 -0.027344547 0.020352542 0.02319769 0.06624036 -0.10780895
0.05826493 0.058063176 -0.049598742 0.038829356 0.054358054 0.02705578 0.08571658 -0.048135016
0.18415776 0.05842206 0.17815803 -0.01949274 -0.004876333 -0.24874608 0.018021788 0.023418136
-0.013754204 0.036718614 -0.08162897 0.09560252 -0.056042504 0.0417919 0.0146793425 -0.01069777
-0.030015785 -0.0038371051 -0.00485303 -0.14801838 -0.0035129627 -0.04545311 0.013042735 0.05592132
0.033126324 0.02509586 -0.011298735 -0.09200014 -0.02573376 0.1599877 0.059990585 -0.055876184
0.050533284 -0.06163379 0.044596955 -0.09008676 0.0007225464 0.011281978 0.009325476 -0.052311447
-0.037781034 -0.15784271 0.0179813 0.030676976 0.022446733 0.020465335 0.038824685 -0.05189689
0.025159612 -0.016115826 0.02862958 0.028499378 0.045955315 -0.009452261 -0.047595028 -0.046521828
-0.007864357 -0.0030869194 0.016538164 -0.0023353687 -0.031564523 0.021305496 0.0447491 0.023056071
0.017831702 -0.015399852 0.038936928 0.044055767 -0.035808884 -0.032395333 0.033289373 -0.03430341
0.066462114 -0.016714469 0.06072836 0.06713686 -0.061684694 0.0783661 0.048644196 -0.09362193
-0.022148425 -0.0017619997 0.022613596 0.015764967 0.015739428 0.038068905 0.04476862 0.063296296
-0.023998514 -0.17716476 0.032638356 0.07464724 -0.052009877 0.12181386 -0.0018890958 0.0149255255
0.062079586 0.02766493 -0.035094842 -0.016330907 -0.057610672 0.09975036 0.06862982 -0.031640094
-0.045407888 -0.053811643 0.05608644 0.0002247875 -0.017425688 -0.015787123 0.014440815 0.0031150312
0.29470605 -0.0009367141 0.07976582 -0.012698015 -0.16410786 -0.040239107 -0.13471834 0.008984357
-0.022571923 0.009467387 0.015169356 -0.037031732 0.020965515 0.13371645 -0.065329865 -0.041788176
0.08369348 0.0389952 0.007415952 -0.049722206 -0.0119438395 -0.015574759 -0.04372775 -0.038301375
-0.041861672 0.05483148 -0.13774818 0.028477147 -0.025998384 -0.006476191 -0.037058424 0.02224997
0.010867948 -0.026159948 0.026209688 -0.015066233 0.025114592 -0.15156756 -0.09576638 -0.041801568
00000000: 7394 363b c5b2 49be 84a8 d43d b33e 433c
00000010: 7300 ad3d 6da9 05bb 1cd7 02bd 0c06 bc3b
00000020: dd77 ad3c 634c 3a3d a48c 6a3d cd74 3e3d
00000030: 7701 30bd b588 cabd a118 0c3d 9c60 413c
00000040: 920c fdbc 6be6 d03c d879 8b3b 8965 483e
00000050: fe8d 48bc b94a 143d a184 eebc 40ea 473d
00000060: 893b 5e3d ff38 cebc fe7a 063d bec1 31bd
00000070: 7608 673e 0e88 823d 0848 563c dbed 5d3d
00000080: 4df4 20bd 7a44 35bc 3681 043d 6862 1ebd
00000090: 4718 4b3c 237c 543d 754b ee3c 833f 163d
000000a0: a1f6 1bbd 339a 24bd 5675 1bbc 76b1 013c
000000b0: 5f3b 1b3e 67bf 26bd 7658 bc3b 54d2 843b
000000c0: aa18 f0bb f641 19bd 444e 123c 02af 053e
000000d0: f86c e4bb 6e3b 5abc b4cb 2bbe a5e4 d53c
000000e0: 1634 22bd 71cd 263b 8d04 66bd 889d 883c
000000f0: 56ce 61bc 1cad 7a3d 8ed2 a93c 0fd8 f0bb
00000100: f380 3abd 8cf5 2b3c 75d9 8dbe c333 853d
00000110: 5029 083c 874c d4ba 9bdf 26bd 405f ca3c
00000120: 7e58 7b3c bc30 053d 08f7 d0bc 12e6 8f3d
00000130: 2e16 2e3d a093 b33d 7b53 60be 98c6 fcbc
00000140: 294d 39bd aeaf 7e3d 8b09 90bd 72bb 953c
00000150: e36a 643b 0f13 b2bd 51bf e13d 0be6 eabc
00000160: f27a 8bbc b37f 8d3c ca84 633c ac01 e0bc
00000170: 60ba a63c 1509 be3c 07a9 873d f0ca dcbd
00000180: 35a7 6e3d a7d3 6d3d 0d28 4bbd 880b 1f3d
00000190: 8da6 5e3d 15a4 dd3c 2d8c af3d 3929 45bd
000001a0: da93 3c3e f84b 6f3d 0f6f 363e 3daf 9fbc
000001b0: a5c9 9fbb 4bb7 7ebe 6ea2 933c 64d7 bf3c
000001c0: 5059 61bc 4266 163d 172d a7bd 41cb c33d
000001d0: d38c 65bd fc2d 2b3d a081 703c b345 2fbc
000001e0: aae3 f5bc f177 7bbb 2b06 9fbb 2192 17be
000001f0: bc39 66bb 0a2d 3abd 32b1 553c c10d 653d
00000200: 78af 073d d595 cd3c 541e 39bc 926a bcbd
00000210: 9bcf d2bc d1d3 233e b0b8 753d 6dde 64bd
00000220: fdfb 4e3d b773 7cbd 4cab 363d 687f b8bd
00000230: 4569 3d3a 0cd8 383c e2c9 183c 8744 56bd
00000240: 49c0 1abd 85a1 21be 854d 933c 484e fb3c
00000250: 36e2 b73c eba6 a73c a206 1f3d d591 54bd
00000260: 881b ce3c 5605 84bc 9588 ea3c 8777 e93c
00000270: a43b 3c3d a8dd 1abc 01f3 42bd ac8d 3ebd
00000280: 81d9 00bc ea4d 4abb 0b7b 873c fc0c 19bb
00000290: cd49 01bd dd88 ae3c d54a 373d 16e0 bc3c
000002a0: ca13 923c a94f 7cbc 547c 1f3d d273 343d
000002b0: 56ac 12bd f8b0 04bd 705a 083d bc81 0cbd
000002c0: 4a1d 883d c8ec 88bc 4dbe 783d 0d7f 893d
000002d0: 17a9 7cbd 687e a03d 233f 473d dbbc bfbd
000002e0: 9d70 b5bc e6f2 e6ba 2640 b93c 8825 813c
000002f0: f9ef 803c 24ee 1b3d 4d5f 373d 7da1 813d
00000300: 8898 c4bc ae6a 35be ccaf 053d a7e0 983d
00000310: 4f08 55bd 8c79 f93d 899b f7ba 318a 743c
00000320: 2a47 7e3d 90a1 e23c 9cbf 0fbd 65c8 85bc
00000330: 2bf9 6bbd eb49 cc3d cb8d 8c3d 0b99 01bd
00000340: 9ffd 39bd 9969 5cbd e5ba 653d efb4 6b39
00000350: 51c0 8ebc ff53 81bc 2b99 6c3c 8d25 4c3b
00000360: b6e3 963e d28d 75ba 435c a33d 560b 50bc
00000370: e40b 28be c3d1 24bd 9bf3 09be 2033 133c
00000380: c1e8 b8bc 191d 1b3c e488 783c 96ae 17bd
00000390: dfbf ab3c f7ec 083e aacb 85bd 142a 2bbd
000003a0: 7d67 ab3d 6eb9 1f3d 8401 f33b 83a9 4bbd
000003b0: 18b0 43bc 462d 7fbc df1b 33bd e7e1 1cbd
000003c0: 2577 2bbd f996 603d dc0d 0dbe e848 e93c
000003d0: 90fa d4bc 3a36 d4bb 93ca 17bd 9245 b63c
000003e0: 7a0f 323c 634d d6bc b3b5 d63c 5dd8 76bc
000003f0: 1ebd cd3c 8734 1bbe 2a21 c4bd 1f38 2bbd

block1.2.bias f4 [64]
0.22238952 -0.09447077 -0.1463483 0.043554988 -0.009400275 -0.1228676 -0.3404966 0.045949176
0.10181433 0.506972 0.04856914 -0.06826306 -0.15618365 0.028977752 -0.02873969 -0.118781276
-0.1376502 0.103022 -0.012237921 0.01862208 -0.027744727 -0.00045265004 -0.007727106 0.021654041
-0.023204986 0.09391391 0.024504192 -0.9401255 -0.058752228 0.092403166 0.08710943 0.09583903
0.10322944 -0.007054935 0.09514323 0.17872529 0.09971825 0.23673958 0.12526342 -0.043207638
-0.08805995 0.11664419 -0.16703856 0.008555343 -0.051623847 -0.011561979 0.05542138 0.046456542
-0.12033755 0.13851474 -0.152766 0.19573146 0.01913004 0.0016088893 -0.06954371 -0.14899637
-0.0558675 -0.02464427 -0.012555816 -0.071352236 0.04643486 0.089853436 3.975065e-05 -0.11715248
00000000: 14ba 633e e479 c1bd 54dc 15be b766 323d
00000010: 9c03 1abc 02a2 fbbd 9255 aebe 3435 3c3d
00000020: 0884 d03d ebc8 013f 6ff0 463d 81cd 8bbd
00000030: 9bee 1fbe c062 ed3c 806f ebbc 9943 f3bd
00000040: 2df4 0cbe 33fd d23d 9081 48bc 558d 983c
00000050: e948 e3bc a951 edb9 aa33 fdbb d163 b13c
00000060: 6218 bebc f055 c03d 04bd c83c 11ac 70bf
00000070: 2da6 70bd df3d bd3d 6e66 b23d 4147 c43d
00000080: f569 d33d 162d e7bb 74da c23d c303 373e
00000090: 1539 cc3d dc6b 723e 0e45 003e 7efa 30bd
000000a0: c658 b4bd 26e3 ee3d 280c 2bbe b62b 0c3c
000000b0: 8773 53bd 746e 3dbc 8701 633d 3749 3e3d
000000c0: 8973 f6bd cfd6 0d3e b16e 1cbe d46d 483e
000000d0: 9ab6 9c3c 5ee1 d23a ef6c 8ebd 8192 18be
000000e0: 52d5 64bd c8e2 c9bc e9b6 4dbc 1f21 92bd
000000f0: 7b32 3e3d 1405 b83d efb9 2638 a4ed efbd

block2.0.weight f4 [256, 64]
0.060595185 0.019438624 0.04812102 0.03955771 0.11479257 -0.09432809 -0.09577264 -0.11857699
0.05358006 0.051106915 -0.070469916 0.022038594 0.04096265 -0.09209019 0.046860725 -0.08881451
-0.01458168 0.028201416 0.09953511 -0.12274337 0.0061409324 -0.0029242486 -0.090817675 -0.11426817
0.010264143 -0.060971558 0.113737956 -0.024771169 0.08403987 0.07805365 0.109735355 -0.104937375
0.05182053 -0.013045132 -0.08948749 0.07484084 0.08347908 0.06623955 0.04680738 -0.045405626
0.006913677 0.08408606 0.044459596 0.08708964 0.097608134 -0.04794568 -0.01894021 -0.021604612
-0.057417378 0.080122665 -0.09766717 -0.013417333 -0.042369455 -0.06877048 0.086358756 0.11238326
0.088332444 0.03550206 -0.10936181 0.033186108 -0.118862376 -0.06987475 0.116015404 -0.08417815
0.004448995 0.023725197 0.04355681 -0.112778574 0.108798906 0.054168195 0.021834463 0.10545954
0.049216643 0.080052584 -0.07986635 -0.11831421 0.07500617 -0.012960538 0.059310153 -0.0037736893
0.10226172 -0.030975178 0.0035092086 -0.053280458 0.12266585 0.06589757 0.08625391 -0.09988573
0.06640966 -0.10039891 0.11220144 0.10359025 -0.06477091 0.0407352 -0.053585425 0.08078374
0.09186344 -0.020528838 0.120556384 0.05881132 -0.08448073 -0.09199065 0.012684837 0.037982345
-0.04813625 -0.04121825 -0.052274793 0.06832808 -0.1053004 0.050112396 -0.12181309 0.086915925
0.12141104 0.00074341893 -0.0039970726 -0.1089468 -0.11280753 -0.11579852 0.025703445 -0.12091586
-0.10813552 -7.727742e-05 0.08878082 -0.077027336 -0.12408866 0.03195846 0.11131419 0.002416402
0.070770994 -0.07471016 0.09856446 0.019961625 -0.042744964 0.06281422 0.03582312 -0.03500241
-0.05949679 0.07516244 0.052565455 0.082339585 -0.092606544 0.09991972 0.09785567 0.05491869
0.0486072 -0.028397799 -0.12007555 -0.0095689595 -0.027768478 0.034202024 -0.119341135 -0.029474124
0.057698935 -0.031830862 0.020884693 0.09976101 -0.062009886 0.08244318 -0.028961942 0.10843173
0.10151678 0.057527184 -0.10788627 -0.058731705 0.044008806 0.030343756 0.022600114 -0.027163565
0.05095096 0.014093354 0.09465878 -0.02530934 0.03357902 0.01735273 0.023508206 0.124856696
-0.12405741 -0.08502884 0.052725807 0.066976964 -0.10342878 0.12038538 -0.027798712 -0.07348427
0.06816682 -0.074220404 0.073596 -0.0533178 0.08049597 0.030955523 -0.008415297 -0.08480592
0.011713862 -0.09974913 -0.025545776 0.10212429 -0.1037671 0.10962385 -0.10776515 0.09256251
-0.03124775 0.086393386 0.062121183 0.08368437 0.029615 -0.0913942 0.06031178 -0.038089216
-0.0128240585 0.11326383 0.064086735 -0.06821181 0.11646752 0.07245271 0.03261353 -0.071244135
0.09777859 -0.091416776 -0.044484064 0.042370036 -0.07639924 -0.03635697 -0.023928925 0.004753262
0.053225115 -0.12315141 -0.10980646 -0.04026121 -0.10351744 -0.00010943413 -0.027131632 0.0516036
-0.08512649 -0.007371038 -0.09227674 0.045065925 -0.076353505 0.012945399 0.09434044 -0.03404203
0.08494137 0.024630561 0.10117741 -0.11170848 -0.060145527 0.09667285 0.0821538 -0.054541975
-0.08860959 -0.09850815 -0.066328466 -0.077003896 0.10321526 -0.04382482 0.021445334 -0.087421134
00000000: a832 783d c03d 9f3c 8c1a 453d 4407 223d
00000010: 5e18 eb3d 162f c1bd 7224 c4bd 7ed8 f2bd
00000020: c476 5b3d 7c55 513d 8852 90bd 488a b43c
00000030: 74c8 273d c899 bcbd 08f1 3f3d 62e4 b5bd
00000040: 00e8 6ebc a806 e73c 10d9 cb3d e060 fbbd
00000050: e039 c93b c0a4 3fbb 9efe b9bd 6e05 eabd
00000060: f02a 283c 50bd 79bd 72ef e83d e8ec cabc
00000070: 181d ac3d 98da 9f3d eebc e03d 68e9 d6bd
00000080: c441 543d 40bb 55bc 3845 b7bd 2846 993d
00000090: 14f7 aa3d 9aa8 873d 18b9 3f3d 40fb 39bd
000000a0: 208c e23b 5035 ac3d 441b 363d 0e5c b23d
000000b0: c6e6 c73d b062 44bd 8028 9bbc 28fc b0bc
000000c0: 7c2e 6bbd 5a17 a43d ba05 c8bd 60d4 5bbc
000000d0: 988b 2dbd 8ad7 8cbd dcdc b03d 3229 e63d
000000e0: a4e7 b43d 9c6a 113d 16f9 dfbd 28ee 073d
000000f0: 1e6e f3bd 7e1a 8fbd 7c99 ed3d 9865 acbd
00000100: e0c8 913b 585b c23c a068 323d 74f8 e6bd
00000110: f6d1 de3d 78df 5d3d 30de b23c 2cfb d73d
00000120: 6497 493d 9cf2 a33d f890 a3bd b84e f2bd
00000130: d69c 993d 7058 54bc 34ef 723d 0050 77bb
00000140: 986e d13d a8bf fdbc c0fa 653b 9c3c 5abd
00000150: 3c38 fb3d 4ef5 863d e4a5 b03d e490 ccbd
00000160: ca01 883d f29d cdbd dec9 e53d 2027 d43d
00000170: 9ca6 84bd f4d9 263d 647c 5bbd f271 a53d
00000180: e622 bc3d 182c a8bc 44e6 f63d 24e4 703d
00000190: 3c04 adbd 9865 bcbd 10d4 4f3c 6093 1b3d
000001a0: 842a 45bd 78d4 28bd 181e 56bd 98ef 8b3d
000001b0: bca7 d7bd a842 4d3d 2479 f9bd fa00 b23d
000001c0: 5aa6 f83d 00e2 423a e0f9 82bb 801f dfbd
000001d0: a207 e7bd c627 edbd 0890 d23c bca2 f7bd
000001e0: 2876 ddbd 0010 a2b8 b8d2 b53d 82c0 9dbd
000001f0: 3222 febd e0e6 023d b2f8 e33d 805c 1e3b
00000200: 62f0 903d a401 99bd 2adc c93d 9086 a33c
00000210: 5815 2fbd bea4 803d 44bb 123d b05e 0fbd
00000220: e8b2 73bd c4ee 993d e04e 573d a8a1 a83d
00000230: 80a8 bdbd b6a2 cc3d 8e68 c83d 6cf2 603d
00000240: 5818 473d 80a2 e8bc 2cea f5bd 20c7 1cbc
00000250: b87a e3bc 6c17 0c3d 2069 f4bd b873 f1bc
00000260: b855 6c3d 1461 02bd 6016 ab3c 804f cc3d
00000270: 14fe 7dbd f8d7 a83d 9841 edbc 7411 de3d
00000280: 08e8 cf3d a0a1 6b3d 7af3 dcbd a890 70bd
00000290: 9442 343d 7893 f83c e023 b93c 2086 debc
000002a0: f4b1 503d d0e7 663c 76dc c13d 8855 cfbc
000002b0: 288a 093d 5027 8e3c 4894 c03c deb4 ff3d
000002c0: d011 febd 9a23 aebd 04f7 573d 382b 893d
000002d0: 78d2 d3bd 9c8c f63d 20ba e3bc ec7e 96bd
000002e0: 0c9b 8b3d de00 98bd 80b9 963d c463 5abd
000002f0: 12db a43d 7096 fd3c 50e0 09bc baae adbd
00000300: 80eb 3f3c 4649 ccbd 6045 d1bc 8a26 d13d
00000310: d883 d4bd 7882 e03d fab3 dcbd 6a91 bd3d
00000320: 48fb ffbc 04ef b03d c872 7e3d b662 ab3d
00000330: 289b f23c e22c bbbd 7c09 773d 7003 1cbd
00000340: 001c 52bc def6 e73d e83f 833d a2b2 8bbd
00000350: 8686 ee3d 1662 943d c495 053d 72e8 91bd
00000360: 2440 c83d b838 bbbd ec34 36bd 348c 2d3d
00000370: 3477 9cbd 0ceb 14bd 9806 c4bc 40c1 9b3b
00000380: 9402 5a3d ce36 fcbd 36e2 e0bd f0e8 24bd
00000390: f400 d4bd 0080 e5b8 2843 debc 4c5e 533d
000003a0: cc56 aebd c088 f1bb 96fb bcbd 0c97 383d
000003b0: 3a5f 9cbd f018 543c 9035 c13d a86f 0bbd
000003c0: bef5 ad3d 08c6 c93c 1a36 cf3d 6ac7 e4bd
000003d0: 285b 76bd 6afc c53d 4040 a83d 6867 5fbd
000003e0: f278 b5bd a4be c9bd 38d7 87bd 38b4 9dbd
000003f0: 8662 d33d a881 33bd 20ae af3c da09 b3bd

block2.0.bias f4 [256]
-0.124627024 -0.019166827 0.05928473 -0.09808195 -0.04430525 0.10730569 -0.015357524 -0.0400445
-0.08627026 0.017093733 -0.037665576 0.09677471 -0.038327157 0.030021504 -0.01626639 0.018675223
-0.11785793 -0.06397237 0.061305165 0.0746014 0.094536304 -0.003389284 -0.11964075 0.047750413
0.10206652 -0.08919732 -0.048680156 -0.05891882 0.078182876 -0.12381175 0.055270538 0.11411634
-0.1191154 -0.058013663 -0.074819714 0.098023325 -0.05833286 0.021562576 0.095102176 0.061855614
-0.07822657 0.081321254 -0.11659294 -0.06696141 -0.108404696 -0.077968046 0.08841002 0.068326995
0.032120273 -0.08506963 -0.11681265 -0.06883103 -0.038111433 0.105295256 0.02889803 -0.10937218
0.055875838 0.11054063 -0.114511505 0.118178055 -0.12258802 0.052775174 0.10336615 0.028913647
-0.11534695 -0.00819549 0.10516232 -0.05099584 -0.027870998 0.12296584 0.053507403 -0.10929558
0.013638169 0.06164357 0.019984975 0.09604119 -0.0024164617 -0.12049137 -0.050376117 0.02142416
-0.09589009 -0.06369658 -0.005979046 -0.07920258 -0.0946708 0.09767212 -0.0150848925 0.048847422
-0.034543082 0.090400875 -0.11351408 -0.061558053 -0.076352656 -0.10534987 0.046532184 -0.09581819
-0.09102923 -0.022145629 -0.0050246418 -0.05006808 -0.11606999 0.080350935 0.03908132 -0.11794858
0.00789611 0.010755613 0.09237878 0.053576097 0.07266568 0.075176686 -0.0972286 -0.0018551052
-0.113115594 0.12153971 0.059946403 -0.09371625 -0.04601875 0.096996695 0.11233595 -0.017107964
0.05491382 0.07674399 0.058750704 0.10213943 -0.015772566 -0.07722442 -0.0847162 0.08344266
0.081205085 -0.10780424 0.05080813 -0.101815075 -0.06293543 -0.07676692 -0.11316651 0.086005256
-0.02256465 -0.0317073 0.0036870092 -0.08507997 0.075871155 0.057480693 -0.05211526 0.08711906
0.03986889 -0.038723096 -0.018080965 -0.040727943 0.1245095 -0.0044575334 0.08441809 0.040126696
-0.12040295 -0.011368245 -0.024530515 0.068865165 0.090972275 -0.031172603 -0.0275843 -0.0675925
0.056432128 0.08906652 -0.006625563 0.08196211 -0.07595801 0.112818316 0.004285291 -0.11408591
0.03469968 -0.08666812 -0.07320596 -0.032347232 -0.07671769 0.023704812 -0.086861655 -0.09550692
0.0201578 0.059407085 -0.1075512 0.10513762 -0.054903924 0.026197866 -0.12100628 0.12477763
0.12276462 0.1004965 -0.043288857 0.047837943 0.040393293 -0.007886261 -0.032493114 -0.021941781
-0.058055878 0.07851873 -0.09988324 0.055410475 -0.008364558 0.052495435 0.015037864 -0.010187611
-0.05589734 -0.08845003 -0.08560689 0.07645042 0.05138816 -0.038552597 0.012299985 0.07837835
-0.032747224 -0.029377371 -0.113013074 -0.07105443 -0.08677587 -0.025245726 -0.020548344 0.010639548
0.107979536 -0.12345922 -0.008072302 -0.040192172 -0.11799812 -0.014900222 -0.06172788 -0.10125537
-0.08358896 -0.117495164 -0.08124633 -0.10605088 -0.024278015 0.040217146 0.07315597 0.013096973
0.11389817 -0.116217345 -0.11012149 0.124684766 0.11058517 0.06059219 0.06263326 0.011560693
-0.06843519 -0.018733367 0.0075392276 -0.10657288 -0.011894643 -0.098237395 -0.054676726 0.07747549
-0.043882653 0.121352404 -0.07762408 0.015441477 0.05811557 0.008306593 0.09296721 -0.10165316
00000000: 743c ffbd c003 9dbc 8cd4 723d 30df c8bd
00000010: 6c79 35bd 16c3 db3d 209e 7bbc b405 24bd
00000020: 76ae b0bd 2808 8c3c 3847 1abd d231 c63d
00000030: f0fc 1cbd a8ef f53c 1841 85bc c8fc 983c
00000040: 805f f1bd f203 83bd 201b 7b3d 9ec8 983d
00000050: 409c c13d c01e 5ebb 3606 f5bd f095 433d
00000060: 4008 d13d 16ad b6bd d864 47bd dc54 71bd
00000070: 581e a03d 0491 fdbd 5c63 623d d4b5 e93d
00000080: c6f2 f3bd bc9f 6dbd 143b 99bd 74c0 c83d
00000090: 70ee 6ebd 00a4 b03c eec4 c23d 505c 7d3d
000000a0: 4035 a0bd c28b a63d 48c8 eebd 1023 89bd
000000b0: 4803 debd b6ad 9fbd 5010 b53d 06ef 8b3d
000000c0: 8c90 033d fc38 aebd 783b efbd 48f7 8cbd
000000d0: bc1a 1cbd 0aa5 d73d 90bb ec3c 86fe dfbd
000000e0: 10de 643d 2063 e23d 0285 eabd 5607 f23d
000000f0: 6e0f fbbd c82a 583d a2b1 d33d 50dc ec3c
00000100: 063b ecbd 6046 06bc 585f d73d 04e1 50bd
00000110: b851 e4bc 84d5 fb3d 942a 5b3d 5cd6 dfbd
00000120: a072 5f3c f87d 7c3d 88b7 a33c 3eb1 c43d
00000130: 805d 1ebb 2ec4 f6bd 3057 4ebd b881 af3c
00000140: 0662 c4bd 5a73 82bd e0eb c3bb f634 a2bd
00000150: c4e2 c1bd 5208 c83d a026 77bc 3c14 483d
00000160: 0c7d 0dbd 1824 b93d 127a e8bd 4c24 7cbd
00000170: c85e 9cbd acc1 d7bd 8898 3e3d 543c c4bd
00000180: 886d babd c06a b5bc c0a5 a4bb 3014 4dbd
00000190: 1ab6 edbd 088f a43d bc13 203d 068f f1bd
000001a0: b05e 013c 5038 303c 1631 bd3d 9c72 5b3d
000001b0: bed1 943d 3cf6 993d ca1f c7bd 0027 f3ba
000001c0: 26a9 e7bd d0e9 f83d 5c8a 753d 4eee bfbd
000001d0: 287e 3cbd 34a6 c63d 6410 e63d 0026 8cbc
000001e0: 50ed 603d f42b 9d3d 94a4 703d 7a2e d13d
000001f0: 7835 81bc d627 9ebd b07f adbd fce3 aa3d
00000200: da4e a63d 78c8 dcbd 301c 503d 6c84 d0bd
00000210: 4ae4 80bd fa37 9dbd d8c3 e7bd 8623 b03d
00000220: 80d9 b8bc 84df 01bd c0a1 713b 683e aebd
00000230: 5662 9b3d e070 6b3d d076 55bd 7a6b b23d
00000240: 904d 233d 1c9c 1ebd 881e 94bc 58d2 26bd
00000250: d6fe fe3d 8010 92bb 64e3 ac3d e45b 243d
00000260: d295 f6bd e041 3abc 38f4 c8bc 2e09 8d3d
00000270: ac4f ba3d b05d ffbc 78f8 e1bc f06d 8abd
00000280: 6025 673d 8268 b63d 401b d9bb c0db a73d
00000290: e08f 9bbd 4a0d e73d a06b 8c3b e0a5 e9bd
000002a0: 4021 0e3d 0e7f b1bd 02ed 95bd 887e 04bd
000002b0: 2a1e 9dbd 9830 c23c 86e4 b1bd 2299 c3bd
000002c0: f821 a53c d854 733d ce43 dcbd 6452 d73d
000002d0: f0e2 60bd e89c d63c 24d2 f7bd 6a8b ff3d
000002e0: 046c fb3d 1cd1 cd3d a84f 31bd b8f1 433d
000002f0: 7073 253d 6035 01bc 8017 05bd 40bf b3bc
00000300: 00cc 6dbd 6ece a03d 968f ccbd 18f6 623d
00000310: 800b 09bc 7405 573d 6061 763c f0e9 26bc
00000320: 9cf4 64bd 4a25 b5bd aa52 afbd 0a92 9c3d
00000330: 647c 523d 54e9 1dbd e085 493c d484 a03d
00000340: f421 06bd d0a8 f0bc 6673 e7bd fc84 91bd
00000350: 8cb7 b1bd 20d0 cebc 0055 a8bc 8051 2e3c
00000360: 6024 dd3d 30d8 fcbd b041 04bc 8ca0 24bd
00000370: 00a9 f1bd 1020 74bc 60d6 7cbd fa5e cfbd
00000380: b030 abbd 4ea1 f0bd 7a64 a6bd 3431 d9bd
00000390: b0e2 c6bc bcba 243d ccd2 953d b094 563c
000003a0: 7243 e93d 5c03 eebd 6087 e1bd ba5a ff3d
000003b0: 7a7a e23d 842f 783d de45 803d 1069 3d3c
000003c0: c027 8cbd b876 99bc a00b f73b e242 dabd
000003d0: c0e1 42bc b030 c9bd b4f4 5fbd 78ab 9e3d
000003e0: 4cbe 33bd 9c87 f83d 60f9 9ebd 40fe 7c3c
000003f0: 980a 6e3d 6018 083c 9865 be3d 882f d0bd

block2.2.weight f4 [64, 256]
0.009623878 -0.010072999 0.033136517 0.04315725 -0.045216285 -0.012213945 0.046745583 -0.054039672
0.06147757 -0.06003438 -0.042561024 -0.00011186302 -0.047595173 -0.049662888 -0.058505535 -0.029967584
0.021064177 -0.018343203 0.019048683 -0.058431864 -0.030145444 0.05164902 -0.051728427 -0.048973277
-0.054685555 0.0066008344 0.0073039457 0.006934412 -0.03751695 -0.059819303 -0.036119856 0.034624852
-0.017282352 -0.0038019046 0.013605967 0.04663886 -0.04910066 -0.0041102767 -0.004622221 -0.05631145
-0.025708728 -0.055848703 -0.010584898 -0.04792545 0.06210909 0.043596976 -0.03392891 -0.034681924
0.0515773 -0.019893214 -0.011940278 0.03300938 -0.006553568 0.050683863 0.050506227 0.0022255555
0.02942048 0.05926799 -0.032910578 -0.006116286 -0.026198603 -0.024843648 0.054789074 -0.016398959
0.04577028 0.011725634 0.053232133 -0.023296863 0.028725125 -0.029581062 0.013999276 0.054233998
0.013837241 0.054820858 0.03000909 -0.050714538 -0.0154882595 0.054710962 0.049130693 0.027783044
-0.027968965 0.009252124 0.05673653 -0.024539292 -0.0048792586 -0.016858794 -0.05786369 0.017158434
0.054090343 -0.051854707 0.0071713403 -0.004088722 0.032394774 -0.016081639 0.054536834 0.036066644
-0.020905837 -0.03863991 0.047753066 -0.019175693 -0.031977594 -0.004795745 -0.02084563 -0.05581919
0.025388941 0.024149455 -0.057774737 -0.038401768 0.005443141 0.056444272 -0.023111463 0.0462465
0.029922158 0.049943335 0.0047234595 0.05105459 0.031343058 0.023527496 0.0027598292 -0.043918096
0.019708745 -0.0036084354 -0.042862557 -0.043740593 0.014784902 -0.060798474 0.013399638 0.0043501556
-0.0028626025 0.0016658381 0.005468555 -0.040981755 -0.017756388 -0.05471134 0.05479739 -0.0064736754
0.01016099 0.015165292 0.03432093 -0.014067858 -0.005767241 0.04882571 0.03250993 0.021222591
0.019119695 -0.045378603 -0.05799169 -0.0011219606 0.03215792 0.015811875 0.03378527 -0.0072409436
0.011222713 -0.006193295 -0.025162205 -0.022208102 0.005473487 -0.021264128 -0.02855926 -0.0076997876
0.011983506 0.02974885 -0.003748998 0.0074954554 0.0478755 -0.0005379766 -0.011400908 -0.023824163
-0.04959172 0.015927538 -0.011615448 0.039229088 -0.037290998 0.04608994 -0.049744904 0.016297989
0.0075362474 -0.012841344 -0.04235214 -0.030286133 -0.0412103 0.014149398 0.044737525 -0.044888347
-0.057530954 -0.045320034 -0.031568974 0.041385762 -0.0166611 -0.037874423 0.043033905 -0.041937746
0.052103907 0.016775452 -0.021567166 0.044547267 -0.0005132407 0.041193895 0.04164867 -0.05235368
-0.049415685 0.03381981 0.019441403 -0.050681897 -0.0060055405 0.00724598 0.027404666 -0.020883434
0.032624006 0.046223886 0.034205757 0.05320724 0.016353227 -0.016899616 0.019012265 -0.037045695
0.051897563 -0.043492444 -0.004828289 0.035610653 0.040971167 -0.054839566 0.055175476 0.03136962
0.030240111 -0.05372999 0.015857942 -0.010017015 0.057249613 0.06140461 -0.042794704 0.056492075
0.00853391 0.017179608 0.0056782663 0.052313544 -0.03021682 -0.051161468 0.03680367 -0.055433005
-0.031270213 -0.05638375 -0.044902593 -0.05693405 0.031035379 0.015279062 0.0145376995 0.03407643
0.019051127 -0.02950564 -0.041272476 -0.060451858 0.022391982 -0.012452967 -0.011960961 -0.028602354
00000000: 78ad 1d3c 3809 25bc 28ba 073d a8c5 303d
00000010: b634 39bd 001d 48bc 4c78 3f3d b458 5dbd
00000020: e8cf 7b3d 9ce6 75bd 7854 2ebd 0098 eab8
00000030: 28f3 42bd 506b 4bbd 80a3 6fbd 947e f5bc
00000040: c88e ac3c 7c44 96bc fc0b 9c3c 4056 6fbd
00000050: 94f3 f6bc ec8d 533d 30e1 53bd 3498 48bd
00000060: f6fd 5fbd d04b d83b f055 ef3b 103a e33b
00000070: 60ab 19bd 1605 75bd 6af2 13bd cad2 0d3d
00000080: b893 8dbc 6029 79bb 90eb 5e3c 6408 3f3d
00000090: c61d 49bd 80af 86bb 0076 97bb d6a6 66bd
000000a0: 1c9b d2bc 9cc1 64bd 486c 2dbc 7a4d 44bd
000000b0: 1a66 7e3d be92 323d 0af9 0abd a20e 0ebd
000000c0: b842 533d 18f7 a2bc 28a1 43bc d834 073d
000000d0: 50bf d6bb e299 4f3d 9edf 4e3d a0da 113b
000000e0: 3803 f13c fec2 723d 3ecd 06bd 206b c8bb
000000f0: 749e d6bc e884 cbbc 826a 603d 1c57 86bc
00000100: 9e79 3b3d e01c 403c f009 5a3d 10d9 bebc
00000110: f450 eb3c fc53 f2bc 385d 653c 7824 5e3d
00000120: 98b5 623c d68b 603d a0d5 f53c 0cba 4fbd
00000130: 78c2 7dbc 9a18 603d 443d 493d 4499 e33c
00000140: 2c1f e5bc 3896 173c 9064 683d a006 c9bc
00000150: 30e2 9fbb 741b 8abc 7a02 6dbd d88f 8c3c
00000160: d68d 5d3d 9a65 54bd 90fd ea3b b0fa 85bb
00000170: 62b0 043d a4bd 83bc 0462 5f3d 9eba 133d
00000180: b842 abbc e244 1ebd b898 433d 5816 9dbc
00000190: f0fa 02bd a025 9dbb 74c4 aabc aaa2 64bd
000001a0: 78fc cf3c 14d5 c53c 34a5 6cbd 2c4b 1dbd
000001b0: 605c b23b 1c32 673d 4054 bdbc f86c 3d3d
000001c0: 501f f53c 6291 4c3d 40c7 9a3b 9e1e 513d
000001d0: 9461 003d bcbc c03c 40de 343b 76e3 33bd
000001e0: 3c74 a13c 807b 6cbb a690 2fbd 5629 33bd
000001f0: 603c 723c d207 79bd 288a 5b3c c08b 8e3b
00000200: 809a 3bbb 4058 da3a 9031 b33b 7cdc 27bd
00000210: d875 91bc 0019 60bd 3a73 603d 2021 d4bb
00000220: 487a 263c d877 783c 1a94 0c3d e07c 66bc
00000230: 20fb bcbb 78fd 473d 2229 053d 00db ad3c
00000240: e8a0 9c3c eade 39bd b288 6dbd c00e 93ba
00000250: 06b8 033d e887 813c 6c62 0a3d 7045 edbb
00000260: 78df 373c 20f1 cabb f820 cebc c4ed b5bc
00000270: f05a b33b 1c32 aebc 1cf5 e9bc 804e fcbb
00000280: 7856 443c dcb3 f33c c0b1 75bb 709c f53b
00000290: 1a19 443d 0007 0dba e0ca 3abc e42a c3bc
000002a0: b020 4bbd 787a 823c b84e 3ebc aeae 203d
000002b0: 72be 18bd cec8 3c3d 50c1 4bbd 5c83 853c
000002c0: a0f2 f63b 8064 52bc 7079 2dbd a01a f8bc
000002d0: 22cc 28bd e0d2 673c b23e 373d d8dc 37bd
000002e0: 94a5 6bbd 80a1 39bd 784e 01bd 1e84 293d
000002f0: dc7c 88bc 3622 1bbd 5244 303d eac6 2bbd
00000300: e86a 553d ac6c 893c a0ad b0bc 3277 363d
00000310: 008b 06ba eeba 283d cc97 2a3d d070 56bd
00000320: 1a68 4abd a486 0a3d 9443 9f3c d297 4fbd
00000330: 20ca c4bb b06f ed3b c07f e03c bc13 abbc
00000340: c0a0 053d 4255 3d3d 561b 0c3d d6ef 593d
00000350: 34f7 853c 1071 8abc 9cbf 9b3c 3abd 17bd
00000360: 8a92 543d 2225 32bd a036 9ebb 7adc 113d
00000370: 62d1 273d 749f 60bd aeff 613d 6e7d 003d
00000380: 1cba f73c fa13 5cbd 84e8 813c 681e 24bc
00000390: 927e 6a3d 6683 7b3d 8049 2fbd 3c64 673d
000003a0: d0d1 0b3c 40bc 8c3c c010 ba3b ba46 563d
000003b0: 4489 f7bc b08e 51bd 72bf 163d b80d 63bd
000003c0: 3215 00bd a6f2 66bd c8eb 37bd ae33 69bd
000003d0: e83d fe3c 0855 7a3c 882f 6e3c ba93 0b3d
000003e0: 1c11 9c3c d0b5 f1bc 540d 29bd 5e9c 77bd
000003f0: 646f b73c 8807 4cbc e8f7 43bc 7c4f eabc

block2.2.bias f4 [64]
0.039627902 0.023689203 -0.0020595342 0.008476868 -0.010011315 0.005481899 -0.057618357 -0.050790958
0.038926117 -0.009207889 0.040585995 0.01292181 -0.04820119 -0.055865698 0.029692315 0.025511332
0.0038819239 -0.010592982 -0.039140232 -0.047558397 0.014023878 -0.04388286 -0.034276992 0.0291534
0.050585046 -0.051656015 -0.053350456 0.035728768 0.006638922 -0.022248402 -0.0011340678 -0.00024536252
0.042644836 -0.03147693 0.027447537 3.1776726e-05 -0.012603536 0.040075995 0.044797778 0.016212195
0.01819811 -0.026262753 0.0039503127 0.012609333 0.018684886 -0.02798596 -0.054943606 0.03052269
-0.003310874 -0.0035765246 0.015117668 0.05044297 0.010645017 0.0571983 0.013722032 -0.016151436
-0.019362427 0.059161253 -0.054315127 -0.053197607 -0.03293197 0.043940082 -0.05285924 0.020304568
00000000: de50 223d dc0f c23c 40f9 06bb 90e2 0a3c
00000010: 8006 24bc 80a1 b33b 3a01 6cbd 2e0a 50bd
00000020: fe70 1f3d b0dc 16bc 803d 263d 00b6 533c
00000030: 9c6e 45bd 6ed3 64bd 4c3d f33c 24fd d03c
00000040: e067 7e3b 308e 2dbc 8251 20bd 98cc 42bd
00000050: 68c4 653c 84be 33bd 0866 0cbd 1cd3 ee3c
00000060: 4432 4f3d 4295 53bd 0286 5abd 5458 123d
00000070: 508b d93b 4842 b6bc 00a5 94ba 00a4 80b9
00000080: 5aac 2e3d f4ed 00bd a8d9 e03c 0048 0538
00000090: 107f 4ebc ba26 243d e07d 373d 70cf 843c
000000a0: 3414 953c fc24 d7bc a071 813b 6097 4e3c
000000b0: 0c11 993c d042 e5bc 8c0c 61bd b80a fa3c
000000c0: 40fb 58bb 2064 6abb 18b0 773c 4a9d 4e3d
000000d0: 7068 2e3c c448 6a3d 60d2 603c 0450 84bc
000000e0: f49d 9ebc 1253 723d 8a79 5ebd bce5 59bd
000000f0: ace3 06bd 84fa 333d ee82 58bd c455 a63c

cls.0.weight f4 [64]
0.8697865 0.84107536 0.62417704 0.8982652 0.89508003 0.8564131 0.7174874 0.83141583
0.91538334 -0.002499619 0.95641786 0.9239411 0.8917454 0.93323636 0.9186208 0.78848976
0.8639663 0.90884805 0.9411272 0.8978013 0.84447974 0.8356047 0.94365454 0.9350704
0.9068731 0.8153741 0.96285224 0.0155768925 0.8797488 0.71756625 0.9701955 0.9111352
0.88305104 0.8900837 0.8129335 0.83251595 0.92807007 0.7314242 0.9153749 0.95980585
0.9361374 0.91427237 0.3068498 0.88707286 0.9786483 0.91974056 0.93858343 0.95233303
0.9055573 0.91582716 0.78691083 0.8355242 0.9734571 0.95094746 0.9541651 0.72585547
0.48682463 0.9472258 0.9496606 0.94734406 0.9433376 0.91204405 0.8207746 0.91302663
00000000: 54aa 5e3f b750 573f 11ca 1f3f b5f4 653f
00000010: f723 653f e43d 5b3f 41ad 373f abd7 543f
00000020: 9056 6a3f a6d0 23bb cdd7 743f 6787 6c3f
00000030: 6d49 643f 94e8 6e3f bc2a 6b3f 77da 493f
00000040: e52c 5d3f 44aa 683f b6ed 703f 4ed6 653f
00000050: d32f 583f 31ea 553f 5893 713f c660 6f3f
00000060: d628 683f 5bbc 503f 7c7d 763f 3936 7f3c
00000070: 3837 613f 6cb2 373f bb5e 783f 2840 693f
00000080: a20f 623f 86dc 633f 691c 503f c41f 553f
00000090: 0096 6d3f 9e3e 3b3f 0256 6a3f d6b5 753f
000000a0: b3a6 6f3f c10d 6a3f 6b1b 9d3e 3517 633f
000000b0: b288 7a3f 1e74 6b3f 0147 703f 19cc 733f
000000c0: 9ad2 673f a673 6a3f fd72 493f eae4 553f
000000d0: 7c34 793f 4b71 733f 2a44 743f aad1 393f
000000e0: 1441 f93e 647d 723f f51c 733f 2485 723f
000000f0: 937e 713f b87b 693f 491e 523f 1dbc 693f
