naturally_trained_model_cifar.pt (torch, 532091 bytes, 14 tensors)

embedding.weight f4 [64, 1024]
00000000: ec27 0e3a 8bd1 f33c 236a a1bb 6983 f9bb
00000010: 6337 fabc 15ac 8f3c 6b42 d5bb c88e c8bc
00000020: 120f a8bc cbea 15bd a6fa 25bd 39e0 2b3c
00000030: 4f76 cd3c 8f1b a8bc 2b7e 81bb a293 24bd
00000040: 818d 773b eada 7d3c 3444 1b3c 816c e0bc
00000050: 46b0 c83c 6fe2 3cbc e88d 41bd 0f7a 43bd
00000060: 5680 21bd ad83 51bd c207 39bd 1741 fcbc
00000070: 2c93 ff3c d2e1 f5ba 3a99 26bc 5df9 dc3c
00000080: 8f0c a53c 8f75 913b fd73 063c d88a 19bc
00000090: 9f7c adbb 3058 ecbc 4d0e adbc b62c 7d3c
000000a0: d384 e63c ea37 4bbb c618 f23b bc6b ed3b
000000b0: 9b52 513c 9f5d 283c 018e 313d e7c1 d23b
000000c0: 276a 5dbc 879e 323c 6d49 be3c f953 31bc
000000d0: e23f 6aba d00f 90bc 518b 8cbc 09d3 22bc
000000e0: e036 dcbc eb40 14bd 9b0c fbbc 2ae0 a4bc
000000f0: 7265 183d 6c15 fe3c dea2 9ebc 563e f53b
00000100: c152 a0bb b8a1 2dbb 7079 c43c 4e2e 063d
00000110: 2b18 413b 7225 1fbb f231 8f3c 1ffc 653c
00000120: 3754 40bc 8e57 c33c d920 82bc 2652 c0bb
00000130: 97f4 5bbb d56e 813c 320b ebbb 5f5f 083d
00000140: dd8e b43c 401a d5b8 dac5 de3c aab1 613c
00000150: e12a 81bc f12a 803c 695e 1d3c 1ce7 ffbc
00000160: 1a4c dabb 3964 35bc 56d4 b3bc feba 8fbc
00000170: 5d4c 743c 4461 f43a 529c d5bc 7f43 3dbc
00000180: 0017 86bc e392 c9bc e931 ccbc 9270 8b3c
00000190: 4b47 8cbb b9a4 d1bc a8d6 943c b556 633c
000001a0: d82b b33b ede4 da3c 7e93 82bc 8688 92bc
000001b0: 656e 2e3d 774e f03c 2594 8e3c f869 6f3c
000001c0: 2f34 f1bc ecf6 dc3c 7383 3e3c ed33 1fbb
000001d0: e32f c83c 4b36 3c3c da9b b13c 043f b13b
000001e0: 1921 013c 5eab 4a3b 44a7 aebb 9afc 41bc
000001f0: 2d2f 35bc 4808 123c d691 873c 44c5 bb3c
00000200: 0518 6a3c 01bd 893c eb9c 113c 8efb 103c
00000210: eaed 3abb 65c2 a23c 3b32 afba 64a4 793c
00000220: 644b 423b f837 c03c 17fc 35bb 8243 a73a
00000230: 1bb7 873c 1c83 4b3c 655c 04bc 6942 b4bc
00000240: f3b6 403a 96f5 a2bc 2ac3 073d a598 aebc
00000250: 1ca5 e4bc d2fa 603c 9d69 f4bc 3493 aa3a
00000260: 6725 14bd 109d d2bc 81d3 883c c3a6 0e3c
00000270: f319 d3bb 5b21 643c da8b 093d 098f aabb
00000280: 4568 adbc 82d3 92bb 1bcf 023d 2dbf bbbc
00000290: 7204 9d3c 4210 d53c f554 efba 6c89 8ebc
000002a0: f945 423b a960 10bd 691a ea3c 7383 c4bc
000002b0: 7e63 79bc 4534 8abb cbe9 db3c d9d4 37bc
000002c0: 7f99 913b c17b f83c 7590 d8bc 2741 6cbc
000002d0: f330 5bbc 888b c939 7a4c 72bb 9c5b 3cbc
000002e0: bcba cfba fecd 2d3c 8fd3 1ebc 6137 f93b
000002f0: 1441 1d3d 8003 24bc b28c b9bc 51f4 f0bc
00000300: 1058 dcbc 9904 2f3c db6f 8b3c bfb2 6bbc
00000310: ca5e 46bc 3688 e2bc f995 aa3c cbea 38bc
00000320: d1ae bbbc 8778 b3bc 4732 b23c e2e1 a8bc
00000330: 63c1 6bbb 02cd bd3b 67e1 cc3c f911 6cbc
00000340: a3d3 8a3c e786 763c b701 9bbc f66d afbb
00000350: de5e 9f3c 342f 123d 64d5 c739 2377 403c
00000360: 9723 28bc 00c5 1dbd 8ff9 06bd b64d 053d
00000370: 98b6 a23b 9f1a 713c 2792 113d c579 bebc
00000380: 9f9c 6abc 8631 ee3b 54ea c63c a695 3f3b
00000390: 843b 01bd caa3 04bd 3714 633c 7970 2a3b
000003a0: c8e7 0d3c f4d4 c6bc 7e05 bf3c 315a b33b
000003b0: 3b93 7a3c 0751 21bc 06d7 8bbb 3da6 1ebc
000003c0: c835 73bc 8df5 ef3b 00a0 7ebc cfc0 6bbb
000003d0: effc b63b 9de1 c33c ea50 453d 7de1 b13c
000003e0: e83d adbc 9524 cdbc b689 d03c 98a3 98bc
000003f0: 9874 1a3d b23c 06bc 6ae2 3ebc bb9a 06bc
0.0005422819 0.029763004 -0.0049259826 -0.0076145423 -0.030543989 0.01753811 -0.006508162 -0.024482146
-0.020514999 -0.03660087 -0.04052224 0.010490471 0.025080828 -0.020520953 -0.003951808 -0.040179856
0.0037773552 0.015494088 0.00947671 -0.027395489 0.024498116 -0.011528595 -0.047254473 -0.047723826
-0.03942903 -0.051150966 -0.045173414 -0.030792756 0.031198107 -0.0018759316 -0.010168368 0.026974374
0.02014759 0.004439063 0.008206365 -0.009371482 -0.005294397 -0.028850645 -0.021124983 0.015452554
0.028139507 -0.003100867 0.007388207 0.007245509 0.012776042 0.010276227 0.043348316 0.0064318064
-0.013514078 0.010902054 0.023228372 -0.010823243 -0.0008935911 -0.017585665 -0.017156275 -0.00993801
-0.026881635 -0.036194723 -0.03064566 -0.020126421 0.03720612 0.031016074 -0.01936477 0.0074842377
-0.0048926775 -0.0026494097 0.023983687 0.032759003 0.0029463868 -0.0024283794 0.01747987 0.014037161
-0.011738828 0.02384546 -0.015884804 -0.005869168 -0.0033562535 0.01579992 -0.0071729654 0.033294078
0.022040779 -0.00010161521 0.027193952 0.013775269 -0.015767517 0.015645476 0.009605029 -0.031238131
-0.006661904 -0.011071258 -0.021951836 -0.01754522 0.014910785 0.001864471 -0.026075516 -0.011551737
-0.01636839 -0.024606174 -0.024926143 0.017021451 -0.0042809597 -0.025591241 0.018168762 0.013875653
0.005467873 0.026720488 -0.01593947 -0.017887365 0.04258575 0.02933429 0.017404625 0.014612667
-0.029443828 0.02697321 0.01162802 -0.0024292425 0.024436897 0.011487554 0.021680761 0.0054091234
0.007881426 0.0030924897 -0.005329998 -0.01184001 -0.011058611 0.008913107 0.016549032 0.022921212
0.014287953 0.016813757 0.00888751 0.008849038 -0.0028523155 0.019868085 -0.001336641 0.015236948
0.0029646987 0.023464188 -0.0027768665 0.0012761208 0.016566804 0.012421396 -0.008078669 -0.022004323
0.00073514803 -0.019892495 0.033145107 -0.021313021 -0.027910762 0.013731675 -0.029835517 0.0013013841
-0.036168482 -0.025709659 0.016702415 0.008706751 -0.0064423024 0.013923968 0.03358064 -0.0052050394
-0.021167884 -0.00448078 0.031935792 -0.022918308 0.019167159 0.026008729 -0.0018259572 -0.017399512
0.0029643758 -0.035248432 0.028577046 -0.023988461 -0.015221475 -0.004217657 0.02684488 -0.01122018
0.004443347 0.030332448 -0.02643607 -0.01441983 -0.01337837 0.00038441666 -0.0036971853 -0.011496451
-0.0015848498 0.010608194 -0.009693994 0.0076054786 0.03839214 -0.0100106 -0.022650097 -0.029413374
-0.02689746 0.0106822485 0.01702111 -0.014385878 -0.01210756 -0.027652841 0.020823466 -0.011286448
-0.022910507 -0.021908058 0.02175249 -0.020615522 -0.0035973422 0.005792261 0.025009824 -0.014408582
0.01694662 0.015046812 -0.018921716 -0.0053536845 0.019454416 0.035689548 0.00038115226 0.011747154
-0.0102623915 -0.038517952 -0.03295284 0.032544814 0.0049656145 0.01471582 0.035539772 -0.023251424
-0.014319568 0.0072690872 0.024281658 0.0029233485 -0.0315509 -0.032382764 0.0138598 0.002600698
0.008661218 -0.024271466 0.023318049 0.005473398 0.015293892 -0.009845979 -0.004267576 -0.009683189
-0.014844365 0.007322973 -0.015541077 -0.0035973077 0.0055843513 0.023911292 0.04817287 0.021713967
-0.021147683 -0.025041858 0.02545629 -0.018632695 0.03770885 -0.008193182 -0.011650661 -0.008215602

embedding.bias f4 [64]
00000000: 69cd 0a3d 9665 633c 991b b83c 9628 c53c
00000010: 078c aabc 6934 c43c 83c2 a43c 80d1 663b
00000020: c2e5 833c a19f 2e3a 6344 273c 635c 84bc
00000030: 50b6 6d3d f5d8 923b f59c 99bc c902 273d
00000040: c1a5 14bc 9ad1 49ba 0850 1bbd fc24 963b
00000050: 67b8 1cbc f3d9 0c3d 3e81 65bd b499 bf3b
00000060: 3984 503c 15a7 0ab8 1325 a7bc 17c3 09bd
00000070: 9733 de3c 2ea4 8ebb 7f1d 153c 7f87 0ebc
00000080: 8145 c23c e33c 2f3d 59cf 0bbd 2079 0fbc
00000090: 7e5e cebc c502 88bc 2a00 09bc a93c 8d3b
000000a0: 1ca2 fc3b 6f70 98bc 1f05 163d 953f 1fbc
000000b0: 5de2 b53c 7261 8f3b 4ebc 91bb 4689 283c
000000c0: 565b c6bc 95f1 e5bc cded a7bc 8b50 b33b
000000d0: 0fc9 803c 2824 443c 4dcb eabc 391c 493c
000000e0: 5b04 15ba c1c4 08bd d2a5 a23b 6eb7 7f3c
000000f0: b74f 2f3d 7ccd e1bb dbf5 cabc 5e20 31bc
0.0338873 0.0138792 0.022474097 0.024067204 -0.020818723 0.023950772 0.020112282 0.0035220087
0.016100768 0.000666136 0.010209176 -0.016157335 0.058035195 0.0044814297 -0.0187516 0.04077414
-0.009072722 -0.00076987746 -0.03791812 0.0045820456 -0.009565449 0.03438754 -0.056031458 0.0058471803
0.012726837 -3.305737e-05 -0.02040342 -0.033633318 0.02712421 -0.004353068 0.009101271 -0.008699297
0.023714783 0.042782675 -0.03413329 -0.008756906 -0.025191542 -0.016602883 -0.0083618555 0.00431021
0.0077097546 -0.0186083 0.036625978 -0.009719749 0.022202665 0.00437563 -0.0044474965 0.010286635
-0.024213474 -0.028069297 -0.020499134 0.005472248 0.015720872 0.011971511 -0.028661394 0.012274795
-0.0005684548 -0.033390764 0.004963615 0.015607698 0.04280063 -0.0068909507 -0.024775436 -0.01081094

block1.0.weight f4 [256, 64]
00000000: 90d3 23bd 9683 593d 2041 e73d 6bc1 8dbc
00000010: 0891 6cbd 5bdf 173d 03eb 49bd ed94 c3bd
00000020: 4fa3 c9bd 170d 603d 09c6 9b3c 2787 eebd
00000030: 94c0 d83d 6b83 9a3d b987 9a3d d2f8 e53d
00000040: c860 b8bd 1123 99bd 72c5 c0bd 3213 94bd
00000050: 93b2 55bc 674e e43d 4500 16bd ad25 c63d
00000060: 4980 fb3c 4f02 8c3d ba77 943d e2b8 f23c
00000070: 6fcf ee3c bdf3 8a3c 2aa7 c13d 12b1 a7bd
00000080: 55c0 81bc cc1b 6bbd 4739 c63d 9972 9e3d
00000090: 4945 36bd c78e d4bd 6d62 5fbd dad8 a63d
000000a0: e9a9 adbd 3211 cfbc ce3a 183d 381e 5dbc
000000b0: 8b04 a8bd 38ad 0bba 2fae cabd e723 283d
000000c0: d90f e1bd 7e83 9abd 36ee f03d ebbe babd
000000d0: 8002 df3c 63d0 98bd 07c1 21bc eeeb 25bd
000000e0: 18e0 20bd 8b57 e23d 96ad fabd 3b58 94bc
000000f0: be05 783d 78f5 dabc 296c a93d 85e6 cf3d
00000100: d47c 0a3d 5adf aebd aeb0 ef3d fb97 6ebc
00000110: 7172 763d 1608 653c 9980 973d 01b0 e53d
00000120: 5d7a 0037 6941 d13d cb35 883c d282 513d
00000130: f405 aa3c fbb9 b73b d092 723d 13cd 97bd
00000140: 0f73 93ba 4ddc 8ebd 9082 523b 0e86 723d
00000150: 75a1 e73d 631b 443c b169 0ebd 8ce8 9f3d
00000160: 6877 e93d 1b52 a93d 684e e23d 65ec 333c
00000170: a4ef a7bc 1e48 8e3d ba96 d43c 9752 763b
00000180: 2a60 fdbd 4f53 e83d 5850 133d dd8b 3fbd
00000190: 1e3d 00bd 16a3 c0bc 44b6 e3bd ca45 97bd
000001a0: 133f 29bc 38b4 a73d c9fa 99bd c4e5 afbd
000001b0: 6897 90bd d9de d9bd a2a0 a7bd 75eb a83d
000001c0: ac93 113c 1bbb aebc c2b7 fe3c b269 91bd
000001d0: 3094 e2bd 5d43 1fbc d676 f73d 690e 9f3d
000001e0: d591 f23d e72b 81bc 9165 fb3d 1fbc b13d
000001f0: 5d1d 843c 9323 b1bd 3ace 2d3b bb53 e83d
00000200: 0e46 d73d 0986 d93d 9ec6 6dbb 6a89 713d
00000210: 94aa c3bd e9aa 96bd 8469 003d b6cc babd
00000220: ac89 cb3d 1e0b 83ba 8295 15bd 8f35 d03c
00000230: 1d32 703b fe89 98bc 25cf a83d 5ba0 a43d
00000240: dc13 00be 1821 0d3d 4784 bd3c ea8a 153a
00000250: cc3e 0b3c 6f09 a5bd 5d28 edbd d890 123b
00000260: 1ddd a2bd f741 acbc eb5e 6fbd e52d 62bc
00000270: 7a04 933d bd7a 993d 3c9d ebbd 922e 46bd
00000280: 18c5 bdbd 414a 443d d44a be3d b56f ebbd
00000290: 51d2 a3b9 b2c4 ffbd 8c83 95bd 4451 513c
000002a0: a366 5bbd e2ca 253d 918c 003d 70a2 4cbd
000002b0: 0039 22bc 8725 dc3d b79e 21bc c5b6 0c3d
000002c0: 75d8 ac3c 2134 1a3c 79bd 33bb 0959 60bd
000002d0: 08e5 efbd cb6c 59bd 0533 b43d 70b4 0abd
000002e0: d7fd a53d 87d4 e7bd a4b3 0ebd 4eab ab3c
000002f0: 9d97 c83d cc7a a3bd 8a66 8fbd b0de 5bbd
00000300: ef34 7c3c 7872 f93d 8f60 913d 0193 72bd
00000310: 2cb8 9e3c 555f b63d 4f87 a4bd b3b9 9b3a
00000320: 4a7e d3bd aac3 143d 38b3 f53d b8c9 f3bd
00000330: bf6d 46bd bb8e c3bd 8778 cabd c077 91bd
00000340: a238 893c 347c 2b3d c7f0 bdbd fd46 d4bd
00000350: 7300 573d 8a0c fabd abb6 ac3c bc52 4c3b
00000360: 620c e23d 63db a7bd 00c8 d43d 4cc2 c83c
00000370: 04b4 46bd 77a9 b1bc d4f3 b9bd d851 e13d
00000380: 8389 39bd d23c a3bd 7847 f63d b885 14bd
00000390: d031 5dbd 4d3c e0bc f181 7e3d 264f cebd
000003a0: ad50 a4bd ce44 7a3d 9ebe 24bd 8dff fdbc
000003b0: 8c28 14bd 7b52 c6bd fecc 8c3d 68ff 593b
000003c0: 5ae2 4c3d 7619 d0bd dc1a aabd 047a bab8
000003d0: 1b2a c0bd 58ea 4d3d d06a f1bd c54e 6bbd
000003e0: 958e d13d 149d 883d 5b89 3c3d 1458 9a3c
000003f0: 35f8 48bc 6872 b63d da5a c43d 58b0 113c
-0.039996684 0.053104006 0.112917185 -0.017304143 -0.0577555 0.037078243 -0.04929639 -0.0954989
-0.09845602 0.054699983 0.019015329 -0.11646872 0.10583606 0.07544597 0.07545418 0.11229099
-0.090028346 -0.074773915 -0.0941266 -0.07230224 -0.013043064 0.111477666 -0.03662135 0.09675155
0.03070082 0.06836378 0.072493985 0.029629175 0.029151646 0.016961927 0.09455712 -0.0818807
-0.015838781 -0.057399556 0.096788935 0.077367015 -0.04449967 -0.10378795 -0.054537226 0.0814683
-0.084796734 -0.025276754 0.037165456 -0.013495974 -0.082039915 -0.0005328241 -0.09896504 0.041049864
-0.10989351 -0.075446114 0.11764185 -0.09118446 0.027222872 -0.074616216 -0.009872681 -0.040508203
-0.039276212 0.11051854 -0.1224014 -0.018108478 0.06055235 -0.026728377 0.08272583 0.1015139
0.03381045 -0.08538695 0.11703621 -0.014562602 0.060167734 0.013978979 0.07397575 0.11215211
7.657884e-06 0.10217554 0.016627213 0.05115015 0.020754792 0.0056068874 0.059222043 -0.07412162
-0.00112495 -0.06975613 0.0032121278 0.059209876 0.11310092 0.01196942 -0.034768764 0.07808027
0.11399728 0.082676135 0.11050111 0.010981654 -0.020500012 0.06947349 0.025950778 0.0037585848
-0.123718575 0.11344015 0.035965294 -0.046764243 -0.031308286 -0.023515265 -0.11118749 -0.07386358
-0.0103299795 0.08188671 -0.075185366 -0.08588746 -0.070601285 -0.10638208 -0.08184935 0.08248035
0.008885305 -0.021329453 0.031093482 -0.07100238 -0.11063421 -0.0097206505 0.12083213 0.077664204
0.118442215 -0.015768005 0.12275232 0.086784594 0.016127283 -0.08649363 0.0026520626 0.11344095
0.10511409 0.10621268 -0.0036281715 0.05896894 -0.095540196 -0.07356817 0.031350628 -0.09121077
0.09938368 -0.000999782 -0.036519535 0.025416164 0.0036650964 -0.018620487 0.08242635 0.08038398
-0.12507576 0.03445539 0.023134364 0.0005704599 0.008498859 -0.0805844 -0.11579964 0.0022364166
-0.0795233 -0.021027548 -0.05844013 -0.013804887 0.07178588 0.074941136 -0.115045995 -0.048384257
-0.09266108 0.047922377 0.09291616 -0.11495916 -0.0003124648 -0.124886885 -0.07300481 0.012775723
-0.05356468 0.040476687 0.031384055 -0.0499596 -0.009901285 0.10749345 -0.009864501 0.03435399
0.021099309 0.009411843 -0.0027426167 -0.05477241 -0.11713606 -0.05308227 0.08798794 -0.033863485
0.08105057 -0.11319833 -0.034839287 0.020955708 0.09794543 -0.07982406 -0.0700198 -0.05367917
0.01539348 0.12180036 0.07098495 -0.059222225 0.01937493 0.08904902 -0.080336206 0.0011880904
-0.10326822 0.036319412 0.11997074 -0.11903709 -0.048444506 -0.09548708 -0.0988627 -0.071029186
0.016750637 0.041866496 -0.0927444 -0.103651024 0.052490663 -0.12209423 0.021083197 0.0031177243
0.11037518 -0.081961416 0.103897095 0.02450671 -0.04851152 -0.021687252 -0.0907971 0.110019386
-0.045297157 -0.07970585 0.1202535 -0.036260337 -0.054002583 -0.027372504 0.06213564 -0.1007369
-0.080232 0.061100774 -0.04022085 -0.031005645 -0.03617148 -0.09683701 0.06875037 0.0033263806
0.050020553 -0.10161106 -0.08305904 -8.891898e-05 -0.09383031 0.050272316 -0.11787951 -0.057448167
0.102322735 0.06670585 0.04602943 0.018840827 -0.012266208 0.0890854 0.09587641 0.008892141

block1.0.bias f4 [256]
00000000: 1731 17bd e428 afbc d92f 77bd 8750 99bd
00000010: c520 09bd 9140 8e3d 6535 f4bc 3285 d7bd
00000020: ed5f 5f3c 96c5 0dbb 9a55 013d a27f 3cbb
00000030: 5e8b 03bd 73a6 f7bd 45b2 b23d 3c67 b4bd
00000040: 8397 06bc f4a6 bd3c e948 f5bd 6774 61bc
00000050: 890b d53d 5e51 9e3d bfba dd3d 7151 0fbd
00000060: 5c59 fabd dbd0 cabd bb04 f6bd 6f54 11bd
00000070: 6cac 6abc f3fe 573d 9162 d1ba 2022 003d
00000080: d744 d5bd 28a6 fdbd 0935 afbd baec e6bd
00000090: 6355 503d 3abe 21bd d2ae 22bd d55f e3bd
000000a0: 7cb3 c73d 6106 6c3d 02ce ad3c af76 e03d
000000b0: 91d6 283d 3aa9 883d 9573 b63d 0bd8 07bd
000000c0: b4fd 8dbd 7934 c63d 723b b73c b25e 963d
000000d0: fc47 d73d f86d 043d b7ab c43c 2a6d cfbd
000000e0: b01f 8c3a 9906 e93c a9de c43d f43e 24bd
000000f0: ea73 febc 788d 7e3d 19e9 b73d e91e 22bd
00000100: 3db2 d33d 7c8a 83bd 9438 ab3d f7b4 96b9
00000110: 61b0 0c3d 7f5a 13bc e972 f7bd bdc2 a3bd
00000120: a9f3 983d 5b34 b3bb 2c40 eebc 87a2 8f3d
00000130: 9c86 ddbc 7c5f f4bd 6de9 debc 03a8 093c
00000140: b323 bcbc 6dca c4bd 9af0 d53d 1954 abbd
00000150: daf0 033d 9532 3d3d 2aec f73d 9f18 c8bc
00000160: 27b1 773d 14d2 e73b 2da0 993b 6223 cabd
00000170: b03d 8ebc 68a4 99bc fb1b 063c 2310 9d3d
00000180: aa98 88bd dc60 223c 05c9 b5bc 5cc6 2ebd
00000190: e583 573d 92b7 553d d11d da3d 3a7c 933c
000001a0: 5061 e03d 6d17 b3bd f082 883d 7162 c0bd
000001b0: f103 8d3d b960 d23c e858 013e d215 8e3d
000001c0: a09a a9b8 2f6a b6bd c1bc 8dbd 4edb ab3d
000001d0: f80a 613c 13c4 003c e498 f33c ad95 893d
000001e0: ccc5 a5bd 56cc 863c 9784 2dbd 50f5 76bc
000001f0: 3eb3 b9bd fb44 853d 48b8 84bd e07a 973a
00000200: 76ca c9bb 9eaa 343d 59a0 8c3c 52e8 22bd
00000210: e88e 043c f4f1 2fbd fca3 d43d 9d7f fe3d
00000220: 66d2 ebbd 52ec a3bd 5e53 993d bdd5 573d
00000230: ec36 e6bd f042 01be 85e9 883c 964c cf3d
00000240: dcf7 f43d 937d 0f3d 98b5 d23d fe37 bebd
00000250: 4536 eebd 3821 f3bd 2b56 cc3d 3989 80bd
00000260: 4a68 3abd 1f4e c3bd 07fd 6e3d 6ec7 0a3d
00000270: 25b4 e43d 79b7 0b3d 4f33 9c3d f4b9 533d
00000280: f4e2 47bc 4425 60bd 3ad8 c83d d643 29bd
00000290: 9a77 df3d 802f 52bc b111 35bd cd57 813d
000002a0: 46c2 a93c 787c fdbd 0f79 8ebd a5b2 c2bc
000002b0: 9b97 da3c c725 a2bd 4d22 543c 840f 02be
000002c0: a9e7 18bc aeed 943c d0c3 10bd 3470 dbbd
000002d0: 1be7 a53d 273d 27bd a9aa a7bd 1669 d9bd
000002e0: 28bc 7c3d 216c 95bd 30e9 c7bd d20a b1bd
000002f0: b281 c83d bc11 97bd f86e d1bd d387 cfbd
00000300: 8a8a 18bd 6b6e 9dbd 4ba4 d13c efc7 903c
00000310: 56f7 bd3d 85aa 553d 054d d53d 1aac ccbd
00000320: 42d6 8dbc 16af 27bd 1cfd 93bd f4f8 ddbd
00000330: 6574 33bd e73a 3a3c 9007 69bd 3941 013d
00000340: d847 d83d 91b9 a3bd 3dd9 a6bd 8907 f1bc
00000350: 9ae8 e1bd a258 e6bd 0c35 7abd 665b 153c
00000360: 1b82 40bd aadf 963d fcba ec3c 13e5 b8bd
00000370: 6c2d 443d a865 4e3d c7bc 603d bc39 4bbd
00000380: ac38 9cbd 5da4 623d 04b2 10bd 8f9f 743c
00000390: 8645 783d f36e 55bd d8b6 c1bd 8fcf d0bd
000003a0: ec9d a63d ea1b ee3b ba59 dc3d ab13 89bd
000003b0: b2af ffbd 50fd f1bb d8c9 fbbd 1798 93bd
000003c0: 906b fb3d 3bc9 46bd d8cf 64bd 826f e1bb
000003d0: 0bcf 67bd ef54 89bc 04eb c83d 1b72 76bd
000003e0: 03ba f0bc 7c89 b33d 37ef 59bd aa88 673d
000003f0: ff8c 86bb dee1 a1bc 5fca 5c3d 9138 143d
-0.03691205 -0.021381803 -0.060348365 -0.074860625 -0.033478517 0.06945909 -0.029810617 -0.10523452
0.01363371 -0.0021632663 0.031575777 -0.0028762599 -0.032115333 -0.120922945 0.087254085 -0.08808753
-0.008214834 0.023150899 -0.11976797 -0.013760663 0.10402591 0.07730363 0.108266346 -0.034989778
-0.12224075 -0.09903117 -0.12012621 -0.035480913 -0.014323335 0.052733373 -0.001597481 0.031282544
-0.10413521 -0.123852074 -0.085550375 -0.11275621 0.05086268 -0.039488055 -0.039717503 -0.11102263
0.09751031 0.05762327 0.021216396 0.10960137 0.04122025 0.066729024 0.08908764 -0.03316502
-0.06933156 0.09677977 0.022367213 0.073422804 0.10511777 0.032331437 0.024007661 -0.10128243
0.0010690596 0.028445529 0.096127816 -0.0400991 -0.031061132 0.062146634 0.08980007 -0.03958026
0.10336731 -0.06422898 0.08360401 -0.0002874506 0.034347896 -0.008993744 -0.12082464 -0.07996128
0.074683495 -0.0054688877 -0.029083334 0.070134215 -0.027041726 -0.11932275 -0.027210915 0.0084018735
-0.022966241 -0.09608922 0.10446282 -0.0836565 0.032212116 0.046190817 0.121055916 -0.024425803
0.06047168 0.007074604 0.004688284 -0.0987003 -0.0173634 -0.018755153 0.008185382 0.076690935
-0.06669743 0.009910788 -0.02219058 -0.04266964 0.05261602 0.05217702 0.10650218 0.018003572
0.10956061 -0.087447025 0.06665599 -0.09393776 0.068855174 0.025680887 0.12631571 0.06937756
-8.087349e-05 -0.08906972 -0.069207676 0.083914384 0.013735525 0.007859248 0.02973599 0.067180015
-0.080943674 0.016454857 -0.042362776 -0.0150731355 -0.09067391 0.065072976 -0.06480461 0.0011557005
-0.0061581684 0.044108026 0.017166303 -0.03977234 0.008090712 -0.042955354 0.1038284 0.12426684
-0.1151474 -0.08004059 0.07486604 0.05269407 -0.11240944 -0.12623191 0.016712913 0.101220295
0.11961338 0.035031866 0.102885425 -0.092880234 -0.11631445 -0.1187157 0.09977373 -0.06276173
-0.045509614 -0.09536385 0.058346774 0.033881597 0.11167172 0.03411052 0.07626974 0.05169101
-0.012200106 -0.05472304 0.09806867 -0.04132446 0.10911484 -0.012828708 -0.044206325 0.06315575
0.02072252 -0.12377256 -0.06956684 -0.023766825 0.02668362 -0.07917362 0.012947631 -0.12701231
-0.009332576 0.01817974 -0.03534299 -0.107147604 0.081007205 -0.040829804 -0.08186848 -0.10615747
0.061702877 -0.072960146 -0.09761274 -0.08644642 0.097903624 -0.073764294 -0.10226244 -0.10133328
-0.037241496 -0.07687076 0.025591036 0.01767346 0.09275691 0.052164573 0.10415081 -0.09993763
-0.01731408 -0.04093846 -0.07226011 -0.108385 -0.043812174 0.0113665825 -0.056891978 0.03155634
0.10560578 -0.07994378 -0.08146904 -0.029422538 -0.11030693 -0.11247374 -0.061085746 0.009116029
-0.04699908 0.07366879 0.028897755 -0.090280674 0.04789488 0.050389916 0.054867532 -0.049615607
-0.07627997 0.05533253 -0.03532602 0.01493062 0.060613178 -0.052107763 -0.09458703 -0.10195839
0.0813559 0.007266511 0.107593015 -0.066932045 -0.12484683 -0.0073849335 -0.12294358 -0.07206743
0.12276375 -0.048531752 -0.055862278 -0.006879748 -0.056593936 -0.016764132 0.09810451 -0.060167413
-0.029385572 0.087664574 -0.05320665 0.056526817 -0.0041061635 -0.019761022 0.053903934 0.03618676

block1.2.weight f4 [64, 256]
00000000: b308 f23c 3767 f9bc 0c5e e939 0900 0abd
00000010: 16af 5f3d 826a 7ebd 8075 aa3c 2185 103d
00000020: f5b5 4fbd 0954 fb3b 8dbe c53c 491f 813d
00000030: 63e7 e1bb 9883 6bbd 52b0 07bd 4ab1 9dbb
00000040: 60fb 84bd 15a9 903c 461a 6bbb 4484 f93c
00000050: 5174 8b3b 0c09 783d 37e3 7b3d dcd1 703c
00000060: 17d7 d1bc 0555 21bd 4201 533c 9902 133d
00000070: b4c1 543d 3b10 13bd 7e6b 00bd b0b6 6bbd
00000080: 7a96 05bd 3515 8a3d 7a29 54bd c302 483c
00000090: 0d38 563d 41ec 03bd 332b 1bbc ea0a 88bd
000000a0: 5822 ff3c e9b5 02bc 7b9b 323d e2af a73b
000000b0: 393f 833d ceae 543c e629 19bd c64b 523d
000000c0: 0abf 4a3d a31d 87bd d6d6 4e3d 0e35 f7bc
000000d0: ba1c 943c e27a 92bc fe42 22bd 75cb f3bc
000000e0: a6de 33bd 28a8 13bd 5690 ef3c 744d 0cbd
000000f0: 4479 0f3c 9ff6 813d d66b cb3c ab39 203d
00000100: 9d42 0a3d 269f 933b 44a7 7fbc 036d ec3c
00000110: 6be6 46bd 4a15 483d 1ae9 01bc 425c 123d
00000120: 0468 c6bb 9d16 82bd 76d3 5fbb f925 393d
00000130: 9578 fd3c 7578 81bc 93a8 35bd a4d9 a83c
00000140: 8b29 353d cf2b 99bc 7ac8 d1bc 60c9 c73c
00000150: b0fc 583b 00ef 05bd 764d b6bc 85f1 273d
00000160: 2800 433d 0478 64bd d129 943c 6d35 5ebc
00000170: aa09 debc 9bd0 b3bb 4d00 453d 3995 4f3d
00000180: 2875 803d 153d fabc 715f 083c feee 353c
00000190: b73b 9c3b b92f 1ebb 2122 25bc 3649 f83c
000001a0: ec4b 0a3c 5a46 d33c c079 1a3d b56a 6d3b
000001b0: b215 983c eea4 5bbd b934 14bd 88a2 d33c
000001c0: 06b4 503d 40d2 7ebd a22b 9cbc e33d 2fbd
000001d0: dc27 7a3d 0d0a d93c 544c 7b3d 95a2 a0bc
000001e0: b9f8 993c bbc5 51bd 30c0 2d3d 1977 d4bc
000001f0: 00b9 dfbc ebc5 80bd 2ba7 303d c290 86bd
00000200: 74e2 2fbd 7595 0ebd c008 433c 6ae4 be3c
00000210: 1c66 b8bc db63 3b3d 71d2 73bd 7955 00bd
00000220: 00a1 833b dd87 eabc 95ed 2abd d44e 553d
00000230: 6004 2dbd 1470 153d 8fdb 0cbd d87c 86bc
00000240: 26d1 06bd 6461 153d 485d 0a3c 63e5 a93c
00000250: 0754 b43b a0d3 abbc b6eb 883d 0a9b 253d
00000260: d5e5 543d e250 44bd fa6d 6d3d 3c5c 57bd
00000270: 7769 963c 9502 a93c ed68 f5bb d7ff 61bd
00000280: d3d5 bc3b 3f92 953c 0961 413d b312 ab3c
00000290: 3331 a3b9 8d69 0b3d 2e22 00bd 9d4e 23bd
000002a0: 70e6 12bd 34cf 84bd 650c 9e3c 2de4 15bc
000002b0: 08d3 afbc 4125 a83c af50 463d fb7f 803d
000002c0: 16fd 18bd ca6d f53c fa52 463d 3220 19bd
000002d0: a5fe c9bc 9285 463d df84 63bd ea0f 14bd
000002e0: c080 e5bc 0c4b 08bd 5395 7abd 9007 503d
000002f0: f9f5 e9bc 8e0f 4bbd c665 82bd 31bc 46bd
00000300: eb2a efbc 0d27 b4bc c53c be3c 1bc7 133d
00000310: f801 ecbc 55e2 493d 00e8 3fbd e70f ffbc
00000320: 02e2 553c b712 92bd b0ee 16bd 5d52 3abd
00000330: 5913 e73c 974e 503d 85fb 8f3c 5d6c 1abd
00000340: 5be5 833c 4e28 9e3b 78ba adbb 727c 8cbd
00000350: 07e2 4f3d 58ef 99bb aca2 463d f5cf d63c
00000360: 8c72 54bc b791 2b3d 9efc 85bd b7f8 22bd
00000370: 03a1 a0bc 5bdf 673c c67b 66bc 4cc3 36bd
00000380: fdd0 02bd a1e6 8b3d 2ec4 b2bb 346c 6ebd
00000390: 491e 5d3d 94b4 443c 7012 87bc 0edc 013d
000003a0: 16e7 f3bc fb02 62bd b8d2 c63c ad82 273d
000003b0: d9f7 673d 8aa3 f8bc a211 2e3d fa08 b4bc
000003c0: 7c7f cabc d572 323d 6e44 113d 749c 04bd
000003d0: 68d4 293d 8c58 8fbb 9288 183c 5b8b b7bc
000003e0: 3d97 68bc 9417 813d 366f fabb e73f 743d
000003f0: 039e 21bd ac72 95bd 2db9 93bc 75b5 52bc
0.029545164 -0.030444724 0.00044511294 -0.03369144 0.054610334 -0.062113293 0.020807981 0.03528321
-0.050710637 0.00766993 0.024138713 0.06304795 -0.0068940385 -0.057498544 -0.033127137 -0.0048123943
-0.064932585 0.01765875 -0.0035873814 0.030458577 0.0042558094 0.060555503 0.061495986 0.014698472
-0.025615258 -0.03938772 0.012878718 0.03589115 0.051942542 -0.03590415 -0.031352513 -0.05754727
-0.03261421 0.06742326 -0.051797368 0.01220769 0.052299548 -0.03220773 -0.009470749 -0.06642707
0.031144306 -0.007977941 0.04360531 0.0051174024 0.06408543 0.01298113 -0.037393473 0.051341794
0.049498595 -0.0659745 0.050497852 -0.030176666 0.018080104 -0.01788086 -0.03961467 -0.029760102
-0.043913506 -0.03604904 0.02924363 -0.034253553 0.008756939 0.06345867 0.024831694 0.039117496
0.033754934 0.004505056 -0.015603844 0.028860575 -0.048559587 0.048848428 -0.007929111 0.035732515
-0.00605488 -0.063519694 -0.003415314 0.04520223 0.030941287 -0.015804509 -0.044350218 0.020611592
0.04422907 -0.018697647 -0.02560829 0.024388015 0.0033109598 -0.03269863 -0.022253733 0.041001815
0.04760757 -0.05577852 0.018086346 -0.013562542 -0.027104218 -0.005487514 0.04809599 0.05067942
0.06272346 -0.030546704 0.008323536 0.011104343 0.0047678608 -0.0024137332 -0.010078938 0.030308347
0.008440953 0.025790382 0.037713766 0.0036226932 0.018565033 -0.053624086 -0.036183093 0.025834337
0.050952934 -0.06221223 -0.019063774 -0.04278363 0.06107317 0.02649405 0.06135209 -0.019608775
0.018795358 -0.05121396 0.042419612 -0.025935696 -0.027309895 -0.0628775 0.043128174 -0.06570579
-0.042940572 -0.034810502 0.011903942 0.023302276 -0.022509627 0.045749526 -0.059526864 -0.031331513
0.0040169954 -0.028629238 -0.041730482 0.05207713 -0.0422405 0.03648384 -0.034389075 -0.016416952
-0.032914303 0.036469832 0.008445092 0.020739263 0.005503181 -0.020974934 0.06685583 0.04043106
0.051976997 -0.0479287 0.05796621 -0.052578196 0.018360836 0.020631114 -0.007489315 -0.05517563
0.0057627945 0.018258212 0.04721168 0.02088294 -0.0003112644 0.034036208 -0.031282596 -0.039869893
-0.035864294 -0.06484833 0.01929302 -0.00914864 -0.021462932 0.020525577 0.04841679 0.0627441
-0.037350737 0.029959578 0.048418976 -0.03738422 -0.024657557 0.048467226 -0.055546638 -0.03614799
-0.028015494 -0.033274695 -0.061177563 0.050788462 -0.028559672 -0.04957538 -0.06367068 -0.048519317
-0.02919527 -0.021991277 0.023222337 0.036078554 -0.028809533 0.049288113 -0.04685211 -0.031135513
0.013054373 -0.07132476 -0.036848724 -0.045488704 0.028207468 0.0508562 0.017575989 -0.037701
0.016100576 0.004826582 -0.00530177 -0.068596736 0.050752666 -0.0046977215 0.04849498 0.026222209
-0.012966763 0.04188701 -0.065423235 -0.039787974 -0.019608026 0.014152373 -0.014067596 -0.044619843
-0.031937588 0.06831098 -0.0054555153 -0.05820866 0.05398396 0.012005944 -0.016488284 0.031704
-0.029773276 -0.055178624 0.0242704 0.040896107 0.05663285 -0.030351419 0.042497285 -0.021976937
-0.024718992 0.043566544 0.03546565 -0.032375768 0.041462332 -0.0043745693 0.009309905 -0.022405317
-0.014196214 0.06303325 -0.007642652 0.059631255 -0.039457332 -0.072972625 -0.018032635 -0.012860646

block1.2.bias f4 [64]
00000000: f6c2 783d 9a71 2dbd 7534 023d 97fc 80bd
00000010: 3e97 473d 6b53 e9bc 495a 2c3c 89e3 803c
00000020: 4f1a fdbc b1a6 e6ba 5900 1cbd 628c bb3b
00000030: 11a6 06bc dadb 213d 4f5a 1c3d 1ff6 94bc
00000040: 12af 69ba 4f9e a43b 436a 8a3c 9e6d ac3c
00000050: 9464 023d 9a40 29bc c03f 423c f999 13bd
00000060: 3ec1 e3ba 32ae 8a3d 2a85 6d3c ecd4 10bd
00000070: b7fc 4c3d 3543 4cbc 5398 1b3c 1e11 82bd
00000080: 5e2f 44bd d15d 75bc 913c 76ba 1604 2dbd
00000090: 8098 243c 343f 8c3c 5a18 ff3c 0453 e73c
000000a0: 3eba f93b e196 b23c 1cea 10bd 95b2 993b
000000b0: 761f 26bd a425 2fbd 322b f9bc 5e92 743b
000000c0: f33b fb3c 3ad5 b73c c67e f63c c4f3 e6bb
000000d0: 6219 143d 165e fbbc 4f4e 70bc aaf5 29bd
000000e0: 9854 423d 6606 723d 9592 f8bc f67c 55bd
000000f0: b6fd f73c 6892 94bd 7e5b a4bc 3fa5 993c
0.060732804 -0.042344667 0.03178831 -0.06298178 0.04872822 -0.02848216 0.0105195725 0.015733497
-0.030896334 -0.0017597285 -0.03808627 0.005723522 -0.008218304 0.039516307 0.038172062 -0.018183766
-0.0008914332 0.0050237547 0.016896373 0.021048363 0.0318342 -0.010330344 0.0118560195 -0.03603551
-0.0017376316 0.06771506 0.014497081 -0.035359308 0.050045695 -0.012467195 0.009496766 -0.06350921
-0.047896735 -0.014975981 -0.00093931804 -0.042240225 0.010046124 0.017119981 0.031139541 0.028237827
0.0076210788 0.02180046 -0.035379514 0.004690478 -0.040557347 -0.042760506 -0.030416105 0.0037318687
0.030668234 0.022440542 0.030089747 -0.007048102 0.03615702 -0.030684512 -0.014667108 -0.04149405
0.047443956 0.059088133 -0.030343333 -0.052121125 0.030272346 -0.07254487 -0.020063158 0.018755553

block2.0.weight f4 [256, 64]
00000000: 96f2 a6bd 3054 423c 9cd6 8b3d 1c5b ddbd
00000010: 4eaf b63d 76e0 cabd 4801 afbc 1cb5 7ebd
00000020: 407d f13b c054 283b 204c b7bc ee3f eabd
00000030: a497 d83d 7a5d 97bd f0b4 31bd 2c25 43bd
00000040: d8ed 7fbd c4d4 e83d b849 f7bd ca24 de3d
00000050: d016 be3d e4b1 ca3d b839 0e3d a402 38bd
00000060: fad3 a6bd 7016 fcbc 5a22 febd 3860 d23c
00000070: 5021 bbbc f0e6 503c 2eca e4bd ae36 af3d
00000080: e002 dcbc 665b d43d 1ceb bfbd 4869 063d
00000090: 2a00 cc3d b607 99bd b814 b4bc 9838 1bbd
000000a0: 38d3 69bd 60db d73d 8c0c 25bd 6e66 dd3d
000000b0: d8f7 93bd 52bb e5bd 987b 92bd 5497 9c3d
000000c0: 78e0 fcbd 2a74 a03d 0672 953d 785f 823d
000000d0: c8a3 e63d f09b c33c f008 b13d 0080 cdba
000000e0: 00fb c43d 3a06 a83d 4624 b0bd 4c74 5dbd
000000f0: 18e3 ed3c a070 2ebc 74f5 b5bd d8d7 4fbd
00000100: 78ac c9bc a45a 8a3d 807c 663b 3032 1d3d
00000110: 5ea1 f33d 0815 98bd 80f8 de3b 5833 f4bd
00000120: a86d 4b3d 2843 dbbd c276 a83d 80b4 81bd
00000130: 5057 f23d 04cd 9a3d 94fc 523d 0434 d13d
00000140: ae35 df3d 58ff 863d 848c 70bd c4e3 39bd
00000150: 7004 fc3c 04ce d93d 9e13 9c3d ca0f a93d
00000160: f419 aebd 7a9d f5bd 40c4 f33b c26b ef3d
00000170: 5429 3bbd deda e6bd fcc5 99bd 3851 da3d
00000180: 800a a73b 06d3 df3d 04fc 1d3d 1c34 c4bd
00000190: 96b9 c93d 26cb a8bd 94d8 143d 687b c3bc
000001a0: 5467 34bd c435 aabd 8047 bb3a 5023 293c
000001b0: 98f6 d3bc 906d a3bd e8bd 133d 485a c33d
000001c0: a8fe bf3c b467 7dbd 2423 a73d 5849 3cbd
000001d0: be65 9abd 5a48 aabd 2e11 dbbd 58bc e7bc
000001e0: a624 ab3d 2c08 b4bd 18ef 1b3d 4ad9 ac3d
000001f0: 484b 7fbd f0ee babd e87b 43bd 44d2 d4bd
00000200: e85b d2bd 40ab ecbb 9065 d53c 82d6 8d3d
00000210: 1e86 d53d 16e6 fbbd 1e22 97bd 4036 443d
00000220: 80c7 bf3d e41b 1ebd fcf2 8fbd 246f 97bd
00000230: debc aebd 72ca 9ebd 7846 d53c c421 26bd
00000240: c0c7 3e3b 108b f7bc 6025 2ebc 2257 9dbd
00000250: 388d c43d 3047 0a3c 3439 90bd 048d 47bd
00000260: 1a26 c0bd e096 e1bd b830 a2bc 2c10 173d
00000270: 086f 97bc 0ce1 8d3d 9681 82bd 68bd 0bbd
00000280: 80e8 9bba 48db 29bd 8814 f9bc 2e91 f4bd
00000290: 4cf3 9bbd 20b1 63bc e095 083c c0b5 64bb
000002a0: 6820 aebd a889 f6bc da54 f33d fe67 d53d
000002b0: a07d 5ebd 1633 913d 54fd c2bd e298 df3d
000002c0: 60d8 15bc 780e 2bbd c6fd 94bd 54f8 50bd
000002d0: 40bb 02bb 503b f0bd 207c d6bd 2447 9abd
000002e0: f828 7b3d 688a 94bd 98b8 fabc 12da bfbd
000002f0: 0456 3e3d 903a a83c d210 ecbd 3a16 93bd
00000300: 700d 95bd 92c8 9c3d 6a95 c4bd e02e 293c
00000310: fa02 a9bd 9060 7fbd 1aed a6bd c86b fe3c
00000320: eaaf f2bd 748f 55bd 5a0e 98bd 6c82 d9bd
00000330: 12b9 803d c0d7 a0bc 5cf7 d8bd c887 0abd
00000340: e078 8e3b e8cd b03c 304b 0abc e8f4 fc3c
00000350: b8fb c2bd 727b 83bd 80c9 e13d b6b9 aabd
00000360: 70ed c03d 60f0 ccbb 9093 0bbd 869a debd
00000370: 94ce 1c3d d07a d2bd b8df febc 9469 c83d
00000380: aad5 a4bd c498 fd3d a030 3abd b8c7 ebbd
00000390: d89b 623d 4a67 cfbd dcb8 fdbd 50fb cfbd
000003a0: f481 85bd 38df 223d 8631 c5bd 3c63 ee3d
000003b0: c81e debd 3070 0b3c 14a9 bf3d bc89 40bd
000003c0: 0855 c5bd 00e5 883c 406d c83c 72de ed3d
000003d0: c09a e83b e8f9 9cbd 2624 d0bd 584f 3f3d
000003e0: 6c93 a6bd a453 513d 3eb3 e1bd d878 ce3d
000003f0: 2c8a dabd ceb4 e8bd 208f 863b 4099 28bb
-0.08151738 0.011860892 0.06828043 -0.10808393 0.089201555 -0.09906094 -0.021362916 -0.062184438
0.0073696673 0.002568528 -0.022375166 -0.11437975 0.10575798 -0.07390876 -0.043385446 -0.04764287
-0.062482685 0.11368707 -0.120746076 0.10846861 0.09281695 0.09897211 0.034723014 -0.044924393
-0.081459 -0.030772418 -0.12408896 0.025680646 -0.022843033 0.012750372 -0.11171375 0.08555351
-0.02685684 0.10368995 -0.093710154 0.032815248 0.09960969 -0.07472174 -0.021982536 -0.03789577
-0.0570862 0.10539889 -0.04029517 0.108105525 -0.07225007 -0.11217369 -0.0715248 0.07646051
-0.123475015 0.078346565 0.07297139 0.063658655 0.112617075 0.023878068 0.08644283 -0.0015678406
0.09618187 0.082043126 -0.086006686 -0.054065987 0.02903895 -0.010646969 -0.08884707 -0.050742954
-0.024618372 0.067555696 0.0035169423 0.03837794 0.11896013 -0.074258864 0.006804526 -0.119238555
0.049665123 -0.107061684 0.08225776 -0.06333256 0.1183306 0.07558635 0.05151041 0.10214999
0.108989105 0.06591672 -0.058727756 -0.04538323 0.030763835 0.106349975 0.07620929 0.08254965
-0.08501044 -0.11992927 0.0074391663 0.11690475 -0.04569371 -0.11272214 -0.07508466 0.106600225
0.0050976872 0.109289214 0.03857042 -0.095802516 0.09849851 -0.082418725 0.036339357 -0.023862556
-0.044043854 -0.08311036 0.0014288276 0.010323361 -0.025874421 -0.07979882 0.03606978 0.09538704
0.02343686 -0.061866477 0.081609994 -0.045968384 -0.07538937 -0.08314581 -0.10696636 -0.028288051
0.083565995 -0.08790621 0.038069814 0.08439882 -0.062327653 -0.09127605 -0.047725588 -0.103916675
-0.10271436 -0.007222563 0.026049405 0.0692568 0.104259714 -0.12299745 -0.07379554 0.0479033
0.093642235 -0.038600817 -0.070287675 -0.07394245 -0.08532117 -0.07753457 0.026034579 -0.040559545
0.002911076 -0.030217677 -0.010629028 -0.07682635 0.09597248 0.008439824 -0.07042161 -0.048718467
-0.09382267 -0.11015105 -0.019798622 0.036880657 -0.018485561 0.0692769 -0.06372373 -0.03411618
-0.0011894852 -0.04146889 -0.030405298 -0.11941753 -0.076147646 -0.01389721 0.008336514 -0.003489837
-0.08502275 -0.030094936 0.118814185 0.104202256 -0.054319024 0.07089822 -0.09520975 0.10917832
-0.009145826 -0.041761845 -0.07274966 -0.051018074 -0.0019948035 -0.11730063 -0.10472894 -0.075331
0.061318368 -0.072529614 -0.0306056 -0.093677655 0.04646875 0.020535737 -0.11526646 -0.07181974
-0.072779536 0.07655443 -0.09598811 0.010326117 -0.08252521 -0.06234795 -0.08150692 0.031057253
-0.11849959 -0.05213876 -0.07424612 -0.10620579 0.06285299 -0.019634128 -0.10594055 -0.033820897
0.0043479055 0.021582559 -0.008440778 0.0308785 -0.09520668 -0.0642003 0.11024761 -0.08336203
0.094202876 -0.006254241 -0.034076273 -0.10869317 0.038282946 -0.10277331 -0.031112537 0.097857624
-0.08048566 0.12382653 -0.04545653 -0.11512703 0.055324405 -0.10127123 -0.12388775 -0.10155356
-0.06518927 0.03976366 -0.096285865 0.11640021 -0.10845715 0.008510634 0.09358421 -0.047006354
-0.09635359 0.016710758 0.024466157 0.11614694 0.0070985258 -0.07664853 -0.10163145 0.046706527
-0.08133587 0.051105157 -0.11020516 0.10081643 -0.106708854 -0.11362611 0.0041064173 -0.002572611

block2.0.bias f4 [256]
00000000: 128f f5bd 442f 37bd 80de 33bb a006 bfbd
00000010: d6e9 ccbd f8af 89bc c234 d5bd c802 0a3d
00000020: 748c 0fbd a017 f5bc 568d f5bd c04b db3b
00000030: e28d a23d c6f4 e0bd 5082 0b3d 5490 6d3d
00000040: b4f6 54bd 062c f2bd d46c 9a3d b0bd 03bd
00000050: ea82 8abd 62d9 d7bd 9074 1a3c 3002 39bc
00000060: c430 1a3d 9e18 b1bd 4035 3dbc 3441 7bbd
00000070: 2898 debc 6a8f e03d 003a 773a 88ae 90bd
00000080: aaea 943d 3e4c e7bd f6a1 843d ccaa 4cbd
00000090: e2f3 9f3d 8cf0 6dbd f09b 93bc f872 53bd
000000a0: 9a29 8fbd 0093 85ba 9897 3bbd 7ea4 a0bd
000000b0: ecf3 cebd 180c f53c b06d b1bc c651 b53d
000000c0: 3c16 863d acf0 80bd 60d7 853d 2004 d7bc
000000d0: 6a91 fabd ba91 903d 5884 cdbc 945a c4bd
000000e0: 526e b23d 0c93 6f3d 1e3b ecbd f83e 28bd
000000f0: 1817 06bd 803d b7ba 5801 4c3d dcac 38bd
00000100: 801b ef3d 06fb dbbd 2ae7 c43d 3870 d9bc
00000110: 9014 0f3d 2854 903c 800a b83a 2cf2 7d3d
00000120: d0b2 fe3c 94ee 843d 1894 903c 38ee d1bd
00000130: 60a8 d8bb 4441 a83d e016 54bc 827a d43d
00000140: b2c5 9bbd 6a6d adbd 101c 82bd 182f ce3d
00000150: fe42 fb3d 7039 4e3d c68c cfbd 48e1 e5bc
00000160: 40fe b13b 74bc b83d c026 823d 6421 4ebd
00000170: 98fa e03d b8f8 cd3d 300d 31bd 60a6 c9bb
00000180: f041 aa3c fc0f 193d 127d 8ebd 9870 5ebd
00000190: 7e94 c5bd bcdf 313d d4b6 333d 403a db3d
000001a0: 8830 f53c 9262 f7bd b0ac e63c 48c2 2c3d
000001b0: 50a4 cfbc dcd0 10bd 28c7 96bd 008e c9bb
000001c0: b6eb 89bd 7442 ff3d e00d ea3d bc29 503d
000001d0: 2a98 c83d 64db fa3d ccb8 d23d b464 acbd
000001e0: 20ff 643c ea1c cdbd 7afc dc3d c0c2 ed3b
000001f0: 401a f83b 32a2 9ebd 8ead 8fbd d8bf e2bd
00000200: 8c13 423d 6cac 353d 38b9 86bc 28c3 6dbd
00000210: a0ce 99bc feff f9bd 9cce b5bd b064 51bd
00000220: 2217 fcbd 7618 ae3d 6032 21bc c06d 883c
00000230: c043 dc3c 30e5 c0bd e85e a33c 62b3 b3bd
00000240: be7e fdbd 907f 0abd 2861 1abd 2406 3abd
00000250: 20dd dbbd 6066 57bc f86d e9bc bc4b 293d
00000260: f6ab c63d 308d fd3c 989a 87bc b445 2bbd
00000270: c4df 0c3d a0b7 fdbc 006c 763c c8bb b0bd
00000280: a0ae 863c 34b5 173d 56ca babd dc73 84bd
00000290: d4b6 d03d c0b6 62bd f458 463d 2876 1fbd
000002a0: 18a5 b53c b67c ffbd 186a 83bd 0815 68bd
000002b0: 3e09 903d a872 e5bc d86b eabd c860 88bc
000002c0: cebb bbbd 0a00 843d de09 e33d e8a9 bcbd
000002d0: 08bf 8dbc 44d1 ef3d b0e4 c33c 08d3 0a3d
000002e0: ec05 c93d b41f be3d 5c70 373d 70fb 7f3c
000002f0: bc20 30bd 6867 97bd 3e44 88bd 4e39 bfbd
00000300: 1643 b03d 3070 033c 8a67 d3bd c02b cf3d
00000310: 4c72 5c3d 58fc b63c c0ad d53c e83c 0dbd
00000320: 1040 7e3d 064c f03d 8068 8dbc b2be cfbd
00000330: cc93 743d d809 fa3d a43a bc3d 000e fcb9
00000340: 7a69 f33d 3e1d e63d 223d f1bd 00cc 84b9
00000350: 3069 41bd 02e8 d6bd 44c3 043d fcc5 ac3d
00000360: 6e2c f4bd 40e3 3d3b b864 aabd a44e 463d
00000370: 724d c13d 002a 9dbb 9c75 823d e030 1abc
00000380: d86b b6bc 00f5 7c3c c212 883d 807c 8e3c
00000390: 2803 913c dc5e 18bd 30c3 23bd 8c16 21bd
000003a0: 2c87 21bd 0cb3 71bd 868b fdbd 0078 6dbc
000003b0: c86f a3bd dcd7 68bd 6cad 71bd 4c2d 473d
000003c0: 68dd b63c 346c b0bd 10c8 29bd c046 17bc
000003d0: 3ab1 e03d c0d1 133d a0d1 103d c4b2 6a3d
000003e0: 2c33 ec3d 4a03 993d 1e5a f2bd 30e7 2b3c
000003f0: dcc5 693d 7cf3 5fbd 265c c43d 08b0 52bd
-0.11990179 -0.04472281 -0.0027445853 -0.093274355 -0.10005538 -0.016807541 -0.104104534 0.03369406
-0.035046056 -0.029918492 -0.11989848 0.0066923797 0.07937218 -0.10984187 0.034059823 0.05799897
-0.051993087 -0.11824803 0.075402886 -0.032163322 -0.06763251 -0.10539509 0.009427205 -0.011292025
0.037644163 -0.086472735 -0.01154834 -0.06134148 -0.027172163 0.10964854 0.0009430945 -0.07064539
0.07271321 -0.11293839 0.06476204 -0.049967572 0.07810189 -0.05809073 -0.018018693 -0.051623315
-0.06990357 -0.0010190904 -0.045798868 -0.078438744 -0.10105118 0.029912993 -0.021658748 0.08853488
0.065472096 -0.062959045 0.0653522 -0.026247084 -0.12234767 0.07059045 -0.02508752 -0.09587589
0.08712448 0.058489844 -0.11534713 -0.041075677 -0.032736868 -0.001398012 0.04980597 -0.045086727
0.11675167 -0.10741238 0.096144035 -0.026542768 0.03493172 0.017618254 0.0014041215 0.06199853
0.031091124 0.06490818 0.017648742 -0.10250515 -0.0066118687 0.082155734 -0.012944907 0.10374929
-0.07606067 -0.08468135 -0.06353009 0.10067576 0.12268637 0.050347745 -0.10134272 -0.028061524
0.0054319203 0.090203196 0.06355047 -0.050324813 0.10985297 0.10057205 -0.043225467 -0.0061538666
0.020783395 0.03736876 -0.06957449 -0.054306597 -0.09647463 0.04342626 0.04387553 0.1070447
0.029930368 -0.12079348 0.028158516 0.04217747 -0.025346905 -0.035355434 -0.07362205 -0.006150961
-0.067344114 0.12463847 0.11428428 0.05082105 0.09794648 0.12248877 0.102891535 -0.08417645
0.013976842 -0.100152805 0.107903436 0.007255882 0.0075714886 -0.0774578 -0.07015525 -0.110717475
0.047381923 0.044353887 -0.016445741 -0.058047444 -0.018775284 -0.1220703 -0.08877298 -0.051121414
-0.123091 0.08500759 -0.0098386705 0.016653895 0.026887774 -0.09418714 0.019942716 -0.08774449
-0.1237769 -0.03381306 -0.03769031 -0.045416012 -0.107355356 -0.013146967 -0.02849482 0.04133199
0.09700768 0.030951113 -0.016553208 -0.04181452 0.034393087 -0.030971348 0.015040398 -0.086295664
0.01644069 0.037038043 -0.09120624 -0.06467411 0.10191122 -0.055350065 0.048424676 -0.038931042
0.02217345 -0.124749586 -0.0641672 -0.056660682 0.07033013 -0.028008774 -0.11446351 -0.016647711
-0.0916668 0.0644532 0.110858664 -0.092120945 -0.017303005 0.11709836 0.023912758 0.03389266
0.09815583 0.09283391 0.04478489 0.015623912 -0.042999968 -0.0739277 -0.06653641 -0.09337102
0.086065456 0.008022353 -0.10322483 0.101157665 0.05381994 0.022337124 0.026083827 -0.034481913
0.062072814 0.1173325 -0.017261744 -0.10143794 0.059711263 0.12208909 0.09190872 -0.00048075616
0.118853524 0.11236046 -0.11779238 -0.00025328994 -0.047219455 -0.10493471 0.032412782 0.084362
-0.11922537 0.0028974563 -0.08319992 0.04841484 0.094386 -0.0047962666 0.063700885 -0.009411067
-0.02226822 0.015439272 0.06644203 0.01739335 0.0177017 -0.03719984 -0.039981067 -0.039328143
-0.03943555 -0.059008643 -0.123801276 -0.014493942 -0.07980305 -0.056846485 -0.05900328 0.048627183
0.022322372 -0.08614388 -0.04145056 -0.009233177 0.10971303 0.036088705 0.035356164 0.05729939
0.11533198 0.074713305 -0.11833595 0.010492131 0.05707346 -0.054675564 0.095878884 -0.051437408

block2.2.weight f4 [64, 256]
00000000: b42f a63c 0886 993c e04f 05bb 589e 1fbc
00000010: 8a04 1dbd dc10 60bd 98df 983c c4d6 91bc
00000020: ca97 58bd b06f 47bd 203e 953c 9676 053d
00000030: 4637 79bd 28f6 24bc d2b5 423d 0867 a3bc
00000040: a4d0 3e3d 78ef 19bd 8872 8fbc c8ed 20bc
00000050: f83b 29bc 0cc9 103d c81b b0bc 7c38 39bd
00000060: b83c 38bc 1461 92bc b415 563d 80f9 7a3d
00000070: 2071 ba3b a0ef 88bb 002c cfbc 2455 213d
00000080: 184c 423d d8ae 4a3c 6088 6d3d 40cf 07bb
00000090: 189d c23c 84bf a43c 8448 92bc 8018 553d
000000a0: 8477 25bd 00d4 1f3d 3c8a 53bd 4811 84bc
000000b0: 1e04 6d3d 2e6e 0d3d 72f6 42bd ae80 213d
000000c0: a0ff 423d 000c 7cbb 8c09 84bc 50f4 dabb
000000d0: 10ab cabc 38ba 203c b091 0c3c 08de 6ebd
000000e0: a823 fbbc c049 9bbb fc4c 03bd a8f9 693d
000000f0: f628 1abd 4809 73bd 704a f73c 84ee 6d3d
00000100: 10be 523d a40d 1dbd c471 2abd 3ae5 023d
00000110: 2636 12bd 2653 1bbd 6c32 123d 6c21 5a3d
00000120: 888d 413d c02e e5ba 4803 503c 1ebf 6fbd
00000130: 28e0 163d f894 05bd 5cc8 01bd 0cce 38bd
00000140: d052 253d 223b 703d 9826 233c b805 1e3d
00000150: a00c 6cbc 4860 f3bc 303c 123d 2c14 9e3c
00000160: c65c 08bd 1a27 42bd 726b 73bd c8f9 743d
00000170: e865 1dbd 666a 04bd 3e03 34bd fce4 ba3c
00000180: 963e 323d 4257 1cbd 4c4f fc3c 20a5 8d3c
00000190: 30ee e3bb d4c1 8ebc e6d0 673d 2c9a c13c
000001a0: 00b4 e2bb bc87 c33c a80e 1fbc b4a2 ef3c
000001b0: 58f6 d53c 409a d5bc f41e a8bc 84a0 0bbd
000001c0: 4899 56bc 34ee 113d fa6b 7a3d e242 6d3d
000001d0: ae45 21bd c0b7 51bb 74e4 b7bc da69 1abd
000001e0: 0094 043b b00b 573c 5623 04bd 1c26 30bd
000001f0: 68c3 0f3d e8f5 8fbc 12e4 603d 56c1 7cbd
00000200: b0e5 3fbc 3003 483d 4e29 07bd b8b9 80bc
00000210: 0887 1cbd 3059 fcbc 48b3 27bc 485c a0bc
00000220: 24e2 47bd d079 6abc 7c29 63bd 7044 7fbd
00000230: a23c 6cbd 0c2b 37bd f0e5 76bc a86c 70bd
00000240: 369d 52bd c290 5fbd 34d4 62bd 74b6 cebc
00000250: ae31 61bd a058 88bb a6c6 4bbd 0460 013d
00000260: 84ff 653d 00c3 0e3a ce24 093d 9430 9f3c
00000270: b88a 6c3c 4681 023d 985b 9abc d8ae 4abd
00000280: b88c 3d3c a4bc b83c 6e11 7a3d 445b 2bbd
00000290: c84b 453d 207f a2bc 007a b83b b29c 613d
000002a0: 422f 71bd 68d7 1c3c 00b2 1639 1844 dbbc
000002b0: 429e 753d a22a 153d 18e6 573d b0db bb3c
000002c0: 8648 403d f6fa 703d c07b 26bc 443e dd3c
000002d0: 76eb 093d 280c 8dbc fcea bcbc 28ab b2bc
000002e0: fca2 e5bc 38ff 733c f6a4 3abd 963a 1abd
000002f0: 40df 893b 480c c5bc a014 d6bc 1858 d5bc
00000300: c079 ad3c fcf7 a8bc 564c 33bd 965f 153d
00000310: b0ac 2cbd 6a8b 2ebd 9ade 02bd 98e4 33bc
00000320: bc13 0d3d 74b8 203d 7cf8 24bd 5006 113c
00000330: b05a ee3c e4f9 f7bc 2855 b1bc 2ca1 3c3d
00000340: b095 523c 7ed2 433d 280b 22bd ea36 1d3d
00000350: 8c49 083d 9c3a 7dbd 0cc1 b63c 88c8 1cbd
00000360: 9093 aa3c 5c91 bbbc ae50 6ebd a4c2 ab3c
00000370: c831 033d 4c05 41bd 50e7 e3bc 1c92 79bd
00000380: dc07 a4bc fe59 54bd 340e a53c 8c8c 89bc
00000390: 40f5 f2bc b0dc 66bc 1291 223d 207f 423c
000003a0: 6862 4ebd 9e57 7fbd b083 a03c 3a0c 6fbd
000003b0: d05f c13c b008 083c c808 40bc 3e23 1dbd
000003c0: 8090 dcbc ec96 043d 5cae a7bc d0d8 ccbb
000003d0: 1404 3a3d 20d4 b03b b010 3a3d b046 e83b
000003e0: c466 323d 9ce0 c6bc dead 06bd 6012 d23c
000003f0: c85b 9b3c 121b 683d 7eae 72bd 20b7 193c
0.020286418 0.018740669 -0.0020341799 -0.009742342 -0.038334407 -0.05470358 0.018661305 -0.017802604
-0.052879132 -0.048690498 0.0182181 0.032583795 -0.06084373 -0.010068454 0.04753668 -0.01994659
0.046585694 -0.03758189 -0.017510667 -0.0098223165 -0.010329239 0.035347983 -0.021497622 -0.045219883
-0.011244945 -0.017868556 0.05226679 0.061273098 0.005689755 -0.004178956 -0.025289536 0.039387837
0.04743585 0.012370788 0.057991385 -0.0020722896 0.023756549 0.020110853 -0.017856844 0.05202532
-0.040397182 0.03902054 -0.051645502 -0.016121522 0.057865255 0.034528904 -0.04759831 0.03942936
0.047607064 -0.00384593 -0.016117834 -0.0066819564 -0.024739772 0.009810023 0.0085796565 -0.058317214
-0.03065665 -0.0047390163 -0.03205584 0.057122856 -0.03763672 -0.059335023 0.030186862 0.058088794
0.05145079 -0.038343087 -0.0416124 0.03195689 -0.03569617 -0.037921093 0.035692617 0.05325453
0.047254115 -0.0017485246 0.012696095 -0.058531873 0.036834866 -0.03261277 -0.03168522 -0.045118377
0.04036218 0.058650143 0.009957932 0.038579673 -0.014407307 -0.029708996 0.03570193 0.019296728
-0.0332916 -0.04740057 -0.05942864 0.059808522 -0.038427263 -0.032328032 -0.043948404 0.022814266
0.043516718 -0.038169153 0.03079953 0.017290652 -0.0069558844 -0.017426409 0.056595705 0.023633085
-0.0069184303 0.023868434 -0.009708084 0.029252388 0.026118442 -0.026074529 -0.020522572 -0.034088627
-0.013098069 0.03562756 0.06113813 0.057925113 -0.039373092 -0.0032000393 -0.022447802 -0.037698604
0.0020229816 0.013125345 -0.03226026 -0.043005094 0.035098463 -0.017573312 0.054905005 -0.061707817
-0.011712477 0.048831165 -0.032998376 -0.015713558 -0.038214713 -0.030804247 -0.010235615 -0.019575253
-0.04879965 -0.014311269 -0.055459484 -0.062321126 -0.05767501 -0.044718787 -0.01506947 -0.058697373
-0.05141946 -0.05458141 -0.055378154 -0.025233485 -0.05497902 -0.0041609555 -0.049749993 0.03158571
0.05615188 0.00054459274 0.033482365 0.019432344 0.01443737 0.031861566 -0.018842503 -0.04948315
0.0115691945 0.022550888 0.06105178 -0.041835085 0.048167974 -0.019836009 0.005629778 0.055081077
-0.05888296 0.009572841 0.00014371425 -0.026765868 0.05996538 0.03641761 0.05270967 0.022931904
0.046944164 0.058833085 -0.01016134 0.02700723 0.03367182 -0.01721771 -0.023061268 -0.02181013
-0.028031819 0.014892392 -0.045567475 -0.03765353 0.0042075217 -0.024053708 -0.026132882 -0.026042983
0.021176219 -0.02062606 -0.04377397 0.03646811 -0.042156875 -0.042613424 -0.03195057 -0.010979794
0.03444265 0.03923841 -0.040276036 0.008851603 0.029095978 -0.030270524 -0.021647051 0.046052143
0.012853071 0.047808163 -0.03956142 0.03838245 0.033273265 -0.061823472 0.022308849 -0.03827718
0.020822316 -0.022896461 -0.05818241 0.020966835 0.032029897 -0.047124192 -0.02782026 -0.060930356
-0.020023279 -0.051843636 0.020148374 -0.01679065 -0.02965796 -0.014090702 0.03968913 0.011871129
-0.050386816 -0.062339418 0.019594043 -0.05836127 0.023605257 0.0083028525 -0.011720844 -0.038363688
-0.026924372 0.032370493 -0.020468883 -0.006251432 0.045414045 0.005396381 0.04542607 0.0070885047
0.043555036 -0.024277024 -0.032880656 0.025643528 0.018964663 0.05666644 -0.05924844 0.009382039

block2.2.bias f4 [64]
00000000: 4c5f 7cbd ce0b 24bd ee2c 2cbd c002 353b
00000010: d062 44bd 3409 96bc 983c 74bd 5c29 513d
00000020: ee6c 17bd 3abf 263d e078 ba3b e8f3 633c
00000030: f030 db3b a801 ebbc e653 543d 101a 0d3d
00000040: 60d1 a93b a068 9c3c 9ef1 263d 30ef de3c
00000050: 9033 0cbc 3224 113d d868 a63c b44f 4a3d
00000060: 6083 5bbb 9ed0 283d c853 ddbc e00c 173d
00000070: 8c0b fd3c 702f 27bc 2479 d93c 24aa b03c
00000080: d8bc 4a3d 00cf 7fba 04e9 c33c b4f4 493d
00000090: 00eb 503d 525b 613d 4025 993b f427 98bc
000000a0: f889 26bc 9a90 32bd 082a cebc c4f2 0ebd
000000b0: 6e43 733d 4060 e9ba 682b 46bc da1e 4fbd
000000c0: feab 783d 6a6d 79bd 6e12 28bd 1805 73bd
000000d0: 400a dabb 1090 23bd fcb4 f8bc 3031 54bc
000000e0: e87c 833c 488c 3bbc 0805 2d3d 0007 ee3b
000000f0: 5696 07bd 8869 413c 409d d53c a0cd 933c
-0.06161432 -0.04005032 -0.042035036 0.0027620047 -0.047945797 -0.018314935 -0.0596281 0.051064834
-0.036969118 0.04070971 0.005690679 0.013913132 0.0066891834 -0.028687313 0.051837824 0.034448683
0.00518243 0.019092858 0.040757768 0.027213663 -0.008557215 0.03543491 0.020313665 0.049392417
-0.0033495054 0.041214578 -0.02701749 0.036877513 0.030889295 -0.010204181 0.026547022 0.021565504
0.0494965 -0.00097583234 0.023914821 0.049305633 0.051005363 0.05501873 0.00467363 -0.018573739
-0.01016473 -0.043594934 -0.025166526 -0.034899488 0.059390478 -0.0017805174 -0.01209531 -0.05056653
0.0607109 -0.06089536 -0.0410332 -0.05933103 -0.006654054 -0.03993231 -0.030359738 -0.01295118
0.01605077 -0.01144702 0.042241126 0.007264018 -0.033102356 0.011804946 0.02607596 0.018042386
