model_artifacts/naturally_trained_model.pt (torch, 273255 bytes, 14 tensors)

embedding.weight f4 [64, 10]
0	0x3beb576a	0.0071820514
1	0xbebdf986	-0.37104434
2	0x3e7a4d42	0.24443534
3	0x3e8b8fdd	0.27258196
4	0x3dd10ce7	0.10207539
5	0x3dd4e490	0.10395157
6	0x3f05f9b1	0.52334124
7	0xbef93f6f	-0.48681208
8	0xbe8c7479	-0.27432612
9	0xbe4adf92	-0.19811848
10	0x3e495018	0.1965946
11	0xbe93ea43	-0.28889665
12	0xbe1a8420	-0.15089464
13	0x3ec873ae	0.39150757
14	0x3f245bc1	0.64202505
15	0xbe349c14	-0.17637664
16	0xbeb40988	-0.35163522
17	0xbf4da781	-0.80333716
18	0xbe0b93c5	-0.13630588
19	0x3e2ab960	0.16672277
20	0x3e8b7e6c	0.2724489
21	0x3e243486	0.16035661
22	0xbf350418	-0.7070937
23	0xbdca0783	-0.09864714
24	0x3f155ee8	0.5834794
25	0xbe4ed248	-0.20197403
26	0x3e57733f	0.21040057
27	0x3dd4178f	0.10356056
28	0xbe8930e3	-0.2679511
29	0x3dd66f3b	0.10470434
30	0x3ee2cddf	0.44297692
31	0x3ebf88eb	0.37409148
32	0x3eb5cb06	0.35506457
33	0xbe0868b9	-0.13321199
34	0xbeaeb685	-0.34123626
35	0xbe8ffd7d	-0.28123084
36	0x3eba8f95	0.3643767
37	0x3e46edcf	0.19426654
38	0x3d85dd7e	0.06536387
39	0x3e9edf36	0.3102967
40	0xbf057584	-0.5213244
41	0xbe6c097a	-0.2305049
42	0xbe9c4dfd	-0.3052825
43	0x3eaf8bb7	0.3428628
44	0xbdcbea42	-0.099567905
45	0x3d4f83da	0.050662853
46	0xbf06a667	-0.5259766
47	0x3f0956eb	0.5364825
48	0x3e0fa8ca	0.14029232
49	0x3eab3054	0.3343531
50	0xbe9fc18d	-0.31202355
51	0x3ebefbad	0.37301388
52	0x3d817830	0.06321752
53	0x3dc88119	0.097902484
54	0xbea799b7	-0.32734463
55	0xbe4c1800	-0.1993103
56	0x3e4c6291	0.19959475
57	0x3f3769a3	0.71645564
58	0x3e0fcbd0	0.14042592
59	0xbe98fef4	-0.29882014
60	0x3eebb110	0.46033525
61	0x3e9e4808	0.3091433
62	0xbf61e947	-0.8824658
63	0x3e1b9e2a	0.15197054
64	0x3eb9faa3	0.36324033
65	0x3e4503e2	0.19239762
66	0x3da2c0b1	0.07946909
67	0xbf3c9e11	-0.7367869
68	0x3e2c62ed	0.16834612
69	0x3d0b5db4	0.03402491
70	0xbe6d134d	-0.23151894
71	0x3e41506e	0.18878338
72	0x3e288e06	0.16460428
73	0xbdcd8d0d	-0.10036669
74	0xbe88d028	-0.2672131
75	0xbe2a9053	-0.16656618
76	0xbf1a564d	-0.60287935
77	0x3eb5c7c5	0.35503975
78	0xbeb1754a	-0.34659797
79	0xbdc210fd	-0.094758965
80	0xbe925fa6	-0.285886
81	0x3f21ee98	0.6325469
82	0xbe8c9141	-0.2745457
83	0xbea7a41d	-0.32742396
84	0xbee1a8f1	-0.44074205
85	0xbd08b7b8	-0.033378333
86	0xbf18fcc0	-0.59760666
87	0x3f373c77	0.7157664
88	0xbf0765e8	-0.5288987
89	0xbe384ed4	-0.1799882
90	0xbee5e7c1	-0.44903377
91	0xbe6c71dd	-0.2309031
92	0xbf22034f	-0.632863
93	0xbe59d0f7	-0.2127112
94	0x3c63d459	0.013905608
95	0xbec0fdbc	-0.37693584
96	0xbf0938f1	-0.5360251
97	0xbef9291e	-0.48664182
98	0x3e50dd38	0.20396888
99	0xbd8bf53f	-0.06833886
100	0xbf12e6ad	-0.57383233
101	0xbec1d8c8	-0.37860703
102	0x3db6c235	0.08923761
103	0x3c41ac33	0.011820841
104	0x3f067e7e	0.5253676
105	0xbe269793	-0.16268758
106	0xbeaaaa77	-0.3333318
107	0xbe8ecbb4	-0.27889788
108	0x3de1c27d	0.11023424
109	0x3df5e6c8	0.12006909
110	0x3f200460	0.62506676
111	0x3ed97cc6	0.42478007
112	0xbd43f492	-0.047840662
113	0xbe936030	-0.28784323
114	0xbdb78ba3	-0.089621805
115	0xbd3677be	-0.04454779
116	0x3d590dba	0.052991606
117	0x3dca11ad	0.09866653
118	0x3e03796d	0.12839289
119	0xbdabfd07	-0.083978705
120	0x3ed1447c	0.40872562
121	0x3e589132	0.21149138
122	0xbe8e9f41	-0.27855876
123	0x3e1802ae	0.14844772
124	0x3e883cbf	0.26608846
125	0x3f00e256	0.5034536
126	0x3e6ecf30	0.23321223
127	0x3f3d7122	0.7400075
128	0xbccbb4fa	-0.02486657
129	0x3e4c52c5	0.19953449
130	0xbd06b004	-0.032882705
131	0xbe8f5845	-0.27997032
132	0xbe8754c2	-0.26431853
133	0xbd1eb04c	-0.03874235
134	0x3efab163	0.4896346
135	0x3c1a853a	0.009431178
136	0x3f18d150	0.59694386
137	0xbe4fdcbb	-0.20299046
138	0xbdc23d74	-0.094843775
139	0x3e8df15b	0.27723202
140	0x3df5a5d5	0.119945206
141	0xbe6d396f	-0.2316644
142	0x3e46702e	0.1937873
143	0xbe3bdd76	-0.183462
144	0x3ef4ac01	0.4778748
145	0xbeba83b7	-0.36428615
146	0xbe923204	-0.28553784
147	0x3e0f47df	0.1399226
148	0xbea647c8	-0.3247664
149	0xbe31d779	-0.17367353
150	0x3f11a24f	0.5688829
151	0xbe8752ad	-0.26430264
152	0x3d3b9517	0.04579648
153	0xbe998d97	-0.29990837
154	0x3d392ce9	0.045208845
155	0x3e711ccd	0.23546143
156	0x3f01a484	0.50641656
157	0xbea3c685	-0.31987396
158	0x3e4c2059	0.19934215
159	0xbd24b441	-0.040210966
160	0x3ec8b703	0.39202127
161	0xbdfc1857	-0.1230933
162	0x3e963a2e	0.29341263
163	0xbed74634	-0.42045748
164	0x3e34e150	0.17664075
165	0xbe923cc1	-0.28561977
166	0xbd030a65	-0.031992335
167	0x3f504eef	0.81370443
168	0xbe673b9a	-0.2258133
169	0xbe93cdab	-0.2886785
170	0x3ef41e24	0.47679245
171	0xbc48096d	-0.0122092785
172	0x3ec63dfb	0.38719162
173	0xbd31949d	-0.04335462
174	0x3e7147ab	0.23562495
175	0xbe9a43f8	-0.3012998
176	0xbf07267e	-0.5279311
177	0x3f191aab	0.5980632
178	0x3bb22375	0.0054363557
179	0x3df16144	0.1178613
180	0x3f5faf39	0.87376744
181	0x3e32386a	0.17404333
182	0x3e5d5965	0.21616133
183	0x3ec1d47f	0.37857434
184	0xbeb03dec	-0.34422243
185	0xbe9bfcfd	-0.30466452
186	0xbf41889d	-0.7559908
187	0x3eb1b912	0.3471151
188	0xbea01b3f	-0.31270787
189	0x3e28905d	0.1646132
190	0x3e2bf5c9	0.16792978
191	0xbdfd4b62	-0.12367894
192	0x3f0c7de2	0.5487958
193	0xbe559815	-0.20858796
194	0xbe5ca65a	-0.21547833
195	0xbd6cb954	-0.05779393
196	0x3d2291b5	0.03968974
197	0x3f4b42d3	0.7939884
198	0x3e49a965	0.19693525
199	0x3e33f9d5	0.17575772
200	0xbef1980e	-0.4718632
201	0x3eaf27df	0.34210107
202	0xbccfbbfa	-0.025358189
203	0x3ea3dd3e	0.32004732
204	0x3d7944cd	0.06085663
205	0x3da0a360	0.07843661
206	0x3d86501c	0.065582484
207	0xbebea0c5	-0.37232032
208	0xbea08626	-0.31352347
209	0xbea1f11e	-0.3162927
210	0x3f0276eb	0.50962704
211	0xbefbdc0b	-0.49191317
212	0x3f348b58	0.7052512
213	0x3e6eaece	0.2330887
214	0x3e61e997	0.22061764
215	0xbe24340a	-0.16035476
216	0xbed6e37e	-0.41970438
217	0xbe7908c7	-0.24319755
218	0x3eab6995	0.3347899
219	0xbe121b6e	-0.14268276
220	0xbecc0b2b	-0.3985227
221	0xbdf77c02	-0.120841995
222	0xbec9eb3d	-0.39437285
223	0xbe4c61fa	-0.1995925
224	0x3ec030f6	0.37537354
225	0x3ed98e34	0.42491305
226	0x3dbe7fcc	0.09301719
227	0xbf3b08da	-0.7306038
228	0xbcd915b9	-0.026499616
229	0x3e37b9c1	0.17941953
230	0xbef13de9	-0.47117546
231	0x3e0c6b79	0.13712873
232	0x3e4ad5a5	0.19808061
233	0x3cab9977	0.020947201
234	0x3e119ac8	0.142192
235	0xbd1545ac	-0.036443397
236	0x3ec35063	0.38147268
237	0x3f062477	0.5239939
238	0xbe59c03e	-0.21264741
239	0xbdc2b673	-0.09507456
240	0x3daf0b94	0.0854713
241	0x3d925ad2	0.07146229
242	0x3e94557c	0.2897147
243	0x3ecdbd8f	0.40183684
244	0x3e7dc0de	0.24780604
245	0xbcaf9784	-0.021434553
246	0x3ee9ab12	0.4563833
247	0xbf4bd73e	-0.7962531
248	0x3ea2218c	0.3166622
249	0xbd868bb1	-0.06569613
250	0x3f420c87	0.75800365
251	0x3dd558f6	0.104173586
252	0x3f0b32c6	0.5437435
253	0x3e1a6d05	0.1508065
254	0xbcb33470	-0.02187559
255	0x3eb36c11	0.35043386

embedding.bias f4 [64]
0	0xbdd960dd	-0.10614178
1	0xbe52aec8	-0.20574486
2	0xbc8f8d61	-0.01752347
3	0x3ddea817	0.10871904
4	0x3e55bae3	0.20872073
5	0xbf164137	-0.5869326
6	0x3f66e850	0.9019823
7	0x3e1cd0df	0.15314053
8	0xbf13a16a	-0.57668173
9	0xbef8a84c	-0.485659
10	0xbec4dc00	-0.38449097
11	0xbd8b9206	-0.06814961
12	0x3dbb5e69	0.09148867
13	0x3f14283d	0.578739
14	0x3e159d58	0.14610803
15	0x3f5ca926	0.861956
16	0xbe8f96c7	-0.2804472
17	0xbf836a1b	-1.0266756
18	0x3cefaf85	0.029258499
19	0x3ecb67f7	0.39727756
20	0xbe0622e5	-0.13099249
21	0xbdeeafa4	-0.116545945
22	0x3cca5037	0.024696453
23	0xbe2c3096	-0.16815409
24	0x3ede3c30	0.43405294
25	0xbf0552a4	-0.52079225
26	0xbd0aaa03	-0.033853542
27	0xbf0933cc	-0.5359466
28	0xbe8122b9	-0.25221804
29	0xbf01d30d	-0.5071266
30	0x3ef309b4	0.4746834
31	0x3e28e670	0.16494155
32	0x3f365d27	0.7123589
33	0x3e713288	0.23554432
34	0x3da0084b	0.07814082
35	0x3de1c3ee	0.11023699
36	0x3eb62923	0.3557826
37	0x3ec41224	0.3829509
38	0xbe14f764	-0.14547497
39	0xbdb4c74b	-0.088270746
40	0x3e43582b	0.19076602
41	0x3ea1d68a	0.31608993
42	0xbe08bdf5	-0.13353713
43	0x3d43a0ac	0.04776065
44	0xbb02b8e5	-0.0019946632
45	0x3f4621df	0.77395433
46	0x3e855e44	0.2604848
47	0x3ed37903	0.41303262
48	0xbe53ed85	-0.20696075
49	0x3f160763	0.5860502
50	0x3f0fda7d	0.5619276
51	0xbea94595	-0.330609
52	0x3e9ee792	0.3103605
53	0x3ea6e590	0.32597017
54	0xbf579299	-0.84208065
55	0xbecd8b4a	-0.40145332
56	0x3eca733e	0.39541048
57	0x3d885251	0.066563256
58	0x3f4fbff2	0.8115226
59	0xbe534196	-0.20630488
60	0xbf13232f	-0.5747556
61	0x3e5bd8bd	0.21469398
62	0x3eb04f3c	0.3443545
63	0x3e040381	0.12891962

block1.0.weight f4 [256, 64]
0	0x3df209c5	0.1181827
1	0x3e87899f	0.26472184
2	0x3da3457e	0.07972239
3	0xbe8a4475	-0.27005354
4	0x3e223a12	0.15842465
5	0xbe646e4a	-0.22307697
6	0x3e374d47	0.17900573
7	0x3d321e12	0.04348571
8	0xbe971ec3	-0.29515657
9	0x3c676255	0.014122565
10	0x3e8b73d2	0.272368
11	0xbddf2ba8	-0.10896999
12	0x3e16316e	0.14667293
13	0x3e4f4744	0.2024203
14	0x3ead84c5	0.33890358
15	0x3d83066f	0.063977115
16	0x3de23b31	0.11046446
17	0x3da93b8a	0.08263309
18	0xbc863e27	-0.016387058
19	0xbe06546f	-0.13118146
20	0x3d5eb7f1	0.05437464
21	0x3deded2e	0.11617504
22	0x3e2924fc	0.16518015
23	0xbcb776a5	-0.022395441
24	0xbde2ff3c	-0.11083838
25	0x3d181236	0.037126742
26	0xbe1328c5	-0.14371021
27	0xbcd1000b	-0.025512716
28	0x3d5b2915	0.053505976
29	0xbe41b007	-0.18914805
30	0x3e775967	0.24155198
31	0xbd8c808a	-0.068604544
32	0x3d50f733	0.051016998
33	0x3dbec319	0.09314556
34	0x3c8e3011	0.017356904
35	0x3d35e4c9	0.04440764
36	0x3e85d9db	0.26142773
37	0xbdc971a5	-0.09836129
38	0xbda9a307	-0.08283048
39	0xbe4009a4	-0.18753678
40	0xbe701d39	-0.23448648
41	0x3e571c0d	0.21006794
42	0x3cc871b8	0.024468288
43	0xbb9ca4ee	-0.0047804033
44	0xbea756b9	-0.32683352
45	0xbe3fe0c4	-0.18738085
46	0x3e074d59	0.132131
47	0x3eb6cb49	0.3570197
48	0x3c23e2e3	0.0100028245
49	0x3dd481d4	0.10376325
50	0xbc26f2c7	-0.010189719
51	0x3d4169a2	0.04721988
52	0xbdda53ac	-0.106604904
53	0x3e4b0e69	0.19829716
54	0xbe317dd2	-0.17333153
55	0x3b95670e	0.004559404
56	0x3dbf3e7f	0.09338092
57	0x3e78ad62	0.2428489
58	0x3e2383f0	0.15968299
59	0xbe30311c	-0.17206234
60	0xbd5f252f	-0.05447882
61	0xbdae53e6	-0.08512096
62	0xbda06cc3	-0.07833245
63	0x3cb234b2	0.021753643
64	0xbd93239f	-0.071845286
65	0x3d79380d	0.06084447
66	0x3e1a7e76	0.15087304
67	0x3e1795d2	0.14803246
68	0xbe1a871c	-0.15090603
69	0xbb4e14a1	-0.0031445401
70	0x3e7358b7	0.23764311
71	0xbe321945	-0.17392452
72	0xbdec35e6	-0.11533718
73	0x3e447dbd	0.1918859
74	0x3e42d4aa	0.19026437
75	0x3e338a2c	0.17533177
76	0x3dfe6370	0.1242131
77	0x3d8d0143	0.06885006
78	0xbce48706	-0.027896415
79	0xbcc4a8b8	-0.024006233
80	0x3d5d4749	0.05402306
81	0x3e8413b4	0.25796282
82	0xbe2979e7	-0.16550408
83	0xbd0929fd	-0.03348731
84	0x3dded8b4	0.108811766
85	0xbda3d15d	-0.07998917
86	0x3e28c2a3	0.16480498
87	0xbdedb249	-0.11606271
88	0x3db107c1	0.08644057
89	0x3d84d004	0.06484988
90	0x3dc689e6	0.09694271
91	0x3d29d039	0.041458342
92	0xbd806892	-0.06269945
93	0xbe178cc2	-0.14799789
94	0xbda55441	-0.08072711
95	0x3ce1d9ba	0.02756964
96	0x3e3fa50d	0.18715306
97	0x3ea34564	0.31888878
98	0x3e3e2297	0.18567882
99	0x3de80582	0.113291755
100	0xbd093410	-0.033496916
101	0x3e21142f	0.15730356
102	0xbaa0fa90	-0.0012281705
103	0x3d7dbf87	0.061950233
104	0x3c87979c	0.016551785
105	0xbe5d1377	-0.21589456
106	0xbe0cd698	-0.13753736
107	0xbde03cc3	-0.109490894
108	0x3d06b888	0.032890826
109	0xbd33d9c3	-0.043908846
110	0x3e225658	0.1585325
111	0xbd8126a6	-0.063062
112	0xbe43fa2d	-0.19138403
113	0x3de75dac	0.11297163
114	0xbcbc3dc4	-0.02297867
115	0x3e2ade69	0.16686405
116	0xbe151de5	-0.14562185
117	0x3d6e29f7	0.05814549
118	0x3e132338	0.14368904
119	0x3da008da	0.07814188
120	0xbe4d5098	-0.20050275
121	0x3df39fe2	0.118957296
122	0x3dd2a244	0.10284856
123	0x3e3ab8da	0.18234578
124	0x3db193ee	0.086707935
125	0x3e08270b	0.13296144
126	0xbe6dc427	-0.23219357
127	0xbe46fc9c	-0.194323
128	0x3d43267f	0.047644135
129	0xbda31689	-0.079632826
130	0xbd2facea	-0.042889513
131	0xbe0e17c1	-0.13876249
132	0x3d9dd8f6	0.07707398
133	0x3da60229	0.08105881
134	0xbd802bd6	-0.06258361
135	0xbd94d9ca	-0.072681025
136	0xbd8323da	-0.064033225
137	0x3cc31aee	0.023816552
138	0x3d74c495	0.059757788
139	0xbcaefba0	-0.021360219
140	0xbdd1b7a2	-0.10240103
141	0x3cf37f3f	0.029723762
142	0x3db61196	0.08890073
143	0x3d987da3	0.07445838
144	0xbdca994e	-0.09892522
145	0x3d8ae612	0.06782164
146	0x3da7116b	0.08157619
147	0xbd3218f1	-0.043480817
148	0xbdf04667	-0.11732178
149	0x3dd6e934	0.10493699
150	0x3d4fd0c2	0.050736196
151	0xbda7db6e	-0.0819615
152	0x3ce252e2	0.027627412
153	0xbdfad266	-0.122471616
154	0x3d8536fc	0.06504628
155	0x3dd0566e	0.10172735
156	0xbd736e84	-0.059431568
157	0xbe0297e5	-0.12753256
158	0xbd08f088	-0.033432513
159	0x3d9f4b60	0.077780485
160	0xbce9172a	-0.028453428
161	0x3e15faa0	0.14646387
162	0x3d54663c	0.05185531
163	0x3d9a3511	0.07529653
164	0xbcfff677	-0.031245453
165	0xbdca2f4e	-0.09872304
166	0xbd293e4f	-0.041319188
167	0xbd365d8e	-0.044522814
168	0xbd86ca1b	-0.06581517
169	0x3da22c78	0.07918638
170	0x3d1d5d4d	0.038419057
171	0xbc1d43bd	-0.00959867
172	0x3c9e439a	0.019319344
173	0xbe11ab56	-0.14225516
174	0x3d183174	0.037156537
175	0xbc7dcd41	-0.015490831
176	0x3dbbc0fb	0.091676675
177	0xbd49b734	-0.04924698
178	0x3da35eb4	0.079770476
179	0x3d44fdfd	0.048093785
180	0x3e27b09e	0.16375968
181	0xbdc672c7	-0.09689861
182	0x3df0c999	0.11757202
183	0x3e0051cc	0.12531203
184	0x3d58e381	0.05295134
185	0xbc967406	-0.018365871
186	0x3d1ee557	0.038792934
187	0x3e558fa5	0.20855577
188	0x3dd31ed5	0.10308615
189	0xbd236a7f	-0.039896484
190	0x3d72480c	0.05915074
191	0xbd3410b6	-0.04396125
192	0xbd50734b	-0.050891202
193	0x3d439571	0.04774994
194	0x3dd2dbf6	0.102958605
195	0xbdd575ed	-0.10422883
196	0x3da41bf3	0.080131434
197	0x3e6a5584	0.22884184
198	0xbd27a573	-0.04092927
199	0xbd97167f	-0.07377338
200	0x3e1b7df2	0.15184763
201	0xbd893d07	-0.06701093
202	0xbdd79af4	-0.10527602
203	0xbde0d2cc	-0.10977706
204	0x3d8d6dd4	0.06905714
205	0xbe28204f	-0.16418575
206	0x3d808d59	0.0627696
207	0xbd6f85a7	-0.05847707
208	0xbcf54343	-0.0299393
209	0x3e05031a	0.12989464
210	0x3d1049bd	0.035226572
211	0xbd9dc10f	-0.07702839
212	0xbd99a96e	-0.07503019
213	0x3d9dee83	0.07711508
214	0x3cddb12e	0.027062025
215	0x3de6da84	0.11272147
216	0xbe2cbb83	-0.16868405
217	0x3dfa5fc8	0.122253
218	0xbdbb57a2	-0.09147574
219	0xbd58ad06	-0.052899383
220	0x3de106e7	0.10987645
221	0x3c109690	0.008824959
222	0x3de1453b	0.10999533
223	0x3e0eb977	0.13937937
224	0xbd11a691	-0.03555924
225	0x3bfb446c	0.0076680686
226	0x3dcca6db	0.09992763
227	0xbda5d760	-0.0809772
228	0xbdaeb050	-0.08529723
229	0xbe595d68	-0.21227038
230	0x3d2cb1a7	0.04216161
231	0xbd42eddd	-0.047590125
232	0xbe40afc5	-0.18817051
233	0xbcc17434	-0.02361498
234	0x3e4b96bb	0.19881718
235	0x3e030f52	0.12798813
236	0xbdce10df	-0.10061812
237	0x3d085505	0.033284206
238	0xbe309708	-0.17245114
239	0x3d2c989f	0.04213774
240	0x3d4bc6ea	0.049750246
241	0x3d5dc504	0.054142967
242	0x3e0189a7	0.12650166
243	0x3dbd1e7c	0.0923433
244	0xbe0b843d	-0.13624664
245	0xbe00e753	-0.12588243
246	0x3dba6691	0.09101594
247	0x3e2120b7	0.15735136
248	0xbd91cada	-0.07118769
249	0xbc25524a	-0.01009042
250	0x3b3aa52d	0.00284798
251	0xbd59c244	-0.05316378
252	0xbb110183	-0.0022126145
253	0xbdf045a5	-0.11732034
254	0xba35f2d6	-0.00069407874
255	0x3d47204f	0.048614796

block1.0.bias f4 [256]
0	0x3e8da78c	0.2766689
1	0xbe1cd827	-0.1531683
2	0xbd5125b1	-0.051061336
3	0xbe81a99a	-0.25324708
4	0x3dd71492	0.1050197
5	0xbdf440ad	-0.119263984
6	0xbde5faba	-0.11229463
7	0x3e3ac976	0.18240914
8	0xbe25b646	-0.16182813
9	0x3e04791b	0.12936823
10	0xbe2f4619	-0.17116584
11	0xbe07a63a	-0.13247004
12	0xbdd7a456	-0.105293915
13	0x3e13cbe0	0.14433241
14	0x3d178b4c	0.03699808
15	0x3df67861	0.12034679
16	0x3e3f6e68	0.1869446
17	0x3e3b27f7	0.18276964
18	0x3d815d6f	0.06316649
19	0x3d5d2cc6	0.053997777
20	0x3e4f43be	0.20240685
21	0x3d293a13	0.04131515
22	0x3e1dd635	0.15413745
23	0x3e41c4a1	0.18922664
24	0xbe50bcde	-0.20384547
25	0x3f093441	0.5359536
26	0xbe168254	-0.14698154
27	0xbe286ce9	-0.16447796
28	0xbe220f51	-0.15826155
29	0xbda97096	-0.08273427
30	0x3e301fa2	0.17199567
31	0x3df16f39	0.11788792
32	0x3d49fcfb	0.049313527
33	0x3daf680c	0.08564767
34	0xbddef6e4	-0.108869344
35	0x3df11e7d	0.11773393
36	0xbe9dc85c	-0.30816925
37	0xbefba113	-0.49146327
38	0x3d1ff040	0.03904748
39	0x3de34386	0.110968634
40	0x3e722ae9	0.23649181
41	0x3c323c7d	0.010878679
42	0xbe021cf9	-0.12706365
43	0xbd891d38	-0.06695026
44	0xbe24ee86	-0.16106614
45	0xbd82be4b	-0.06383952
46	0x3db2bf44	0.08727887
47	0x3e2b3579	0.16719617
48	0xbcdfc05d	-0.027313406
49	0x3d05dd63	0.032681834
50	0xbe0578bf	-0.13034342
51	0xbe0d12cc	-0.13776702
52	0xbd391b93	-0.045192312
53	0x3e77fda7	0.24217854
54	0x3e14c278	0.14527309
55	0xbe34e7ff	-0.17666624
56	0xbda506dd	-0.0805795
57	0xbc9ddb9a	-0.019269753
58	0x3e0ed347	0.13947783
59	0x3e2ef600	0.17086029
60	0xbd8e2afd	-0.06941793
61	0x3de2bdb6	0.11071341
62	0x3e83c38b	0.25735125
63	0x3b8f6277	0.0043757516
64	0x3e0d7597	0.13814388
65	0xbe7e4d8f	-0.24834274
66	0xbe28271e	-0.16421172
67	0xbed94798	-0.42437434
68	0x3e78e9a9	0.24307884
69	0x3eb4aeb6	0.35289544
70	0xbc718232	-0.014740514
71	0x3e7c3fa4	0.24633652
72	0xbb7069ed	-0.003668423
73	0x3e396a72	0.18107012
74	0xbce8b54e	-0.028406765
75	0xbbcb9fff	-0.0062141414
76	0x3e170342	0.14747337
77	0xbe4d0134	-0.2001999
78	0x3d5347fe	0.05158233
79	0x3e585e84	0.21129805
80	0xbceff7e8	-0.029293016
81	0xbe111989	-0.14169897
82	0x3c7eedcf	0.015559628
83	0xbca80506	-0.020510208
84	0x3eeaeea8	0.45885205
85	0xbdb5be88	-0.088742316
86	0xbe229376	-0.15876564
87	0x3d8a516f	0.067538135
88	0xbdaadbb3	-0.083426856
89	0xbe164f06	-0.14678583
90	0x3ea3895f	0.31940743
91	0xbc043349	-0.008068868
92	0xbdc7bf08	-0.09753233
93	0xbd9fb680	-0.07798481
94	0xbd703952	-0.058648415
95	0xbe6eb5dc	-0.23311561
96	0xbe402837	-0.18765341
97	0xbd33c04e	-0.043884568
98	0xbeae45c0	-0.3403759
99	0xbe0b615a	-0.13611355
100	0xbd6d9077	-0.0579991
101	0x3c5f0b07	0.013613469
102	0xbdb78d94	-0.08962551
103	0x3dcd2058	0.10015935
104	0x3e89aeb1	0.2689109
105	0x3e3af281	0.1825657
106	0xbd8647e5	-0.065566815
107	0xbd627a3e	-0.05529236
108	0x3e04bf96	0.12963709
109	0xbd7e35cc	-0.062063023
110	0x3ddd277f	0.10798549
111	0x3c24dde1	0.010062666
112	0x3da7a51d	0.0818579
113	0x3d275ee7	0.04086199
114	0x3d5ddbcb	0.05416469
115	0xbd2c00a0	-0.041992784
116	0x3e383ac7	0.17991172
117	0xbdd65b2a	-0.10466607
118	0x3e4bc42b	0.19899051
119	0xbe6d8e15	-0.23198731
120	0xbdead3c3	-0.114661716
121	0xbe9f68c5	-0.3113462
122	0xbd1588f4	-0.03650756
123	0xbdc66121	-0.096864946
124	0xbcb6af48	-0.022300377
125	0x3dab826c	0.083744854
126	0x3db8287e	0.08992098
127	0xbe8a5d25	-0.2702419
128	0xbc8ba13b	-0.017044654
129	0x3e47257f	0.19447897
130	0xba62f015	-0.0008656991
131	0x3da5dd1a	0.080988124
132	0xbda38f7c	-0.07986352
133	0xbde0ddae	-0.10979782
134	0xbe1c64d1	-0.15272833
135	0xbe804542	-0.2505284
136	0x3df7b8d9	0.12095804
137	0xbd8d1bed	-0.06890092
138	0xbeab1f1e	-0.33422178
139	0xbd21cabb	-0.03949998
140	0xbe021f90	-0.12707353
141	0xbe6373ba	-0.22212115
142	0xbc60dae1	-0.01372406
143	0x3c897a4a	0.016781945
144	0xbc150801	-0.009096147
145	0x3e4f45d5	0.20241483
146	0xbd837f8c	-0.06420812
147	0x3da8655d	0.082224585
148	0x3de03533	0.10947647
149	0xbd8aa5d3	-0.0676991
150	0xbd402760	-0.04691255
151	0xbc5a94e9	-0.013341167
152	0x3d351288	0.044207126
153	0x3ce7a177	0.028275235
154	0x3c701313	0.014652985
155	0xbe094893	-0.13406591
156	0x3dc54be6	0.09633617
157	0x3d0b4800	0.03400421
158	0xbdfce2f1	-0.12347973
159	0x3d6c80f0	0.057740152
160	0xbe338180	-0.17529869
161	0x3ebc0b1e	0.36727232
162	0xbdbe4782	-0.09290983
163	0xbeb528cb	-0.35382685
164	0xbd1b63e7	-0.03793707
165	0xbe2eceb2	-0.17071036
166	0x3df71000	0.12063599
167	0xbd808338	-0.06275028
168	0xbdfc3e37	-0.12316554
169	0x3d94b713	0.07261481
170	0x3e795bc1	0.24351408
171	0x3d6349fa	0.05549047
172	0xbd177e48	-0.036985666
173	0x3d031751	0.032004658
174	0xbd2043e3	-0.03912724
175	0x3d2fbec8	0.042906553
176	0xbe0304ad	-0.12794752
177	0xbdec1464	-0.11527327
178	0xbe4ad554	-0.1980794
179	0xbe11233c	-0.14173597
180	0x3d36dbd5	0.044643242
181	0x3d9a08eb	0.07521232
182	0x3dcdef95	0.10055462
183	0xbd57137d	-0.05250882
184	0xbe083cc4	-0.1330443
185	0xbd1c6e22	-0.03819097
186	0xbdb9cb23	-0.090719484
187	0xbe1be9d4	-0.15225917
188	0xbd9eb444	-0.07749227
189	0xbd606906	-0.05478766
190	0x3e35c1ad	0.17749663
191	0xbb8e3604	-0.0043399353
192	0xbcd33106	-0.025780212
193	0xbdcaba80	-0.09898853
194	0x3e00cba5	0.12577684
195	0x3e108d2d	0.14116354
196	0x3db9b66c	0.09067997
197	0xbeccd7f5	-0.40008512
198	0x3e2a3560	0.16621923
199	0x3e4cd24e	0.200021
200	0x3da416cc	0.08012161
201	0xbe0de77d	-0.13857837
202	0xbddba23c	-0.10724303
203	0x3e4b2b09	0.19840635
204	0x3e9420b7	0.2893121
205	0xbe0d3f40	-0.13793659
206	0x3e382d5d	0.17986055
207	0x3e693309	0.22773375
208	0xbd0c9182	-0.034318455
209	0x3ede4e0d	0.43418923
210	0xbdb85cb2	-0.09002055
211	0xbe0555b7	-0.13020979
212	0xbe561041	-0.20904638
213	0x3d569e4b	0.052397054
214	0x3da17390	0.0788337
215	0xbd46e5e3	-0.04855908
216	0xbd7e2279	-0.062044594
217	0xbdd314ba	-0.10306688
218	0xbe9cdd90	-0.3063779
219	0x3d50de34	0.05099316
220	0x3e332e44	0.17498118
221	0xbdaf11a4	-0.085482866
222	0xbdb7891e	-0.089617
223	0x3b93de34	0.0045125727
224	0x3dfc0ae7	0.12306767
225	0x3d12a60d	0.03580289
226	0x3e9226e4	0.28545296
227	0xbcf73f53	-0.030181563
228	0x3e223387	0.15839969
229	0xbdcfac16	-0.10140245
230	0xbdb1e93a	-0.086870626
231	0x3ded6809	0.11592109
232	0xbeaa764c	-0.33293378
233	0xbd6e82b1	-0.058230106
234	0xbd1c7b71	-0.03820366
235	0xbd871103	-0.065950416
236	0xbe9afbaa	-0.3027013
237	0x3e4757b8	0.19467056
238	0xbe3f4a27	-0.1868063
239	0x3e3e7434	0.18599015
240	0x3d807652	0.06272568
241	0xbe01704a	-0.12640491
242	0x3e09ead6	0.13468489
243	0x3dd2f55f	0.10300707
244	0x3dde9fd4	0.108703285
245	0xbd0c47d4	-0.03424819
246	0xbbcddc73	-0.006282383
247	0xbdbd8451	-0.09253753
248	0x3b5d1f6e	0.0033740657
249	0x3dbb7d1c	0.09154722
250	0xbd710611	-0.058843676
251	0x3eaad217	0.3336341
252	0x3f0ecd96	0.5578245
253	0xbe019949	-0.1265613
254	0x3e2d6f1a	0.16936913
255	0x3db414c7	0.087930255

block1.2.weight f4 [64, 256]
0	0x3cccc70f	0.024997262
1	0xbcee7ef1	-0.029113265
2	0xbd444d9c	-0.047925577
3	0xbc9a2635	-0.018817047
4	0xbc7865f3	-0.015161025
5	0xbd6f7281	-0.05845881
6	0xbd84fade	-0.064931616
7	0x3b0377d2	0.0020060432
8	0x3d49747d	0.049183358
9	0x3cc787c4	0.02435673
10	0xbccd6310	-0.02507165
11	0xbbc8db02	-0.0061296234
12	0x3cf68be4	0.030096002
13	0x3d08f184	0.033433452
14	0xbd50801f	-0.050903436
15	0xbcd17e03	-0.025572782
16	0xb9860500	-0.00025562197
17	0x3d714583	0.058904182
18	0xbd6a8317	-0.057253923
19	0xbd682011	-0.056671206
20	0xbc985b0c	-0.018598102
21	0xba870bfa	-0.0010303252
22	0xbd7e8bd6	-0.062145077
23	0x3d3ac127	0.04559436
24	0xbd3fe053	-0.04684479
25	0xbb9c9177	-0.004778083
26	0xbd720fb8	-0.05909702
27	0x3d745423	0.05965055
28	0x3d3ddbb2	0.046352096
29	0xbd11ec9c	-0.03562604
30	0x3d42c2c8	0.04754904
31	0xbd2b1b5e	-0.041774146
32	0x3d163d69	0.03667966
33	0xbbf6c9bf	-0.007531374
34	0x3d5155a4	0.051107064
35	0x3ce13e8c	0.027495645
36	0xbca45790	-0.020061284
37	0x3c79031f	0.015198498
38	0xbc7346c6	-0.014848417
39	0x3c842049	0.016128676
40	0xbcc97244	-0.024590619
41	0xbd687e32	-0.056760974
42	0xbc981782	-0.018565897
43	0x3d2c0e58	0.042005867
44	0x3d04d0ec	0.032425806
45	0xbd8c1c9a	-0.06841393
46	0xbcb2bb6e	-0.021817889
47	0xbd13cdfb	-0.03608511
48	0xbc414a88	-0.011797555
49	0xbd7014b5	-0.058613498
50	0x3cd3d821	0.025859894
51	0xbd656478	-0.056004018
52	0xbd044eda	-0.03230176
53	0x3d06f601	0.03294945
54	0xbc5a76de	-0.013334004
55	0xbca28716	-0.019839805
56	0xbd10e9bc	-0.035379156
57	0x3c940051	0.018066557
58	0xbcaa4609	-0.020785348
59	0xbcd2e068	-0.02574177
60	0xbd0012ec	-0.031268045
61	0x3c238257	0.009979806
62	0xbbec82aa	-0.007217725
63	0x3cb59f8b	0.022170803
64	0x3b1b2692	0.0023674113
65	0x3c5ae248	0.013359614
66	0x3d8115b8	0.06302971
67	0x3c4797aa	0.012182156
68	0x3ba38fd6	0.004991512
69	0xbc7d691e	-0.015466956
70	0x3d8c44e8	0.0684908
71	0x3d2b6624	0.041845456
72	0x3c735179	0.014850968
73	0x3d69ecc0	0.057110548
74	0x3d0d8edd	0.034560073
75	0xbc90fae8	-0.017697766
76	0x3d3580ee	0.04431241
77	0x3b294af5	0.0025832031
78	0x3d176d1b	0.036969285
79	0x3b8e6bd9	0.0043463525
80	0xbbd08dc8	-0.006364558
81	0x3d47777e	0.04869794
82	0x3d14eb41	0.036357168
83	0x3c144c86	0.009051448
84	0x3c806c4f	0.015676646
85	0x3c6b0231	0.014343784
86	0x3cf834ce	0.030298617
87	0xbd419baf	-0.047267612
88	0x3d572d60	0.052533507
89	0x3d63d89a	0.05562649
90	0xbca53c48	-0.020170346
91	0x3d10b0ac	0.035324737
92	0x3b69f8e7	0.0035701336
93	0x3ce9d6e1	0.028544845
94	0x3d4eb04a	0.05046109
95	0xbc0e332d	-0.008679193
96	0x3cc91379	0.024545418
97	0xbb54f2fa	-0.0032493458
98	0xbd1f892b	-0.038949173
99	0x3d71428e	0.058901362
100	0xbc8450ad	-0.01615175
101	0xbcc17eef	-0.023620097
102	0x3ce6bcce	0.028166201
103	0x3d27e15f	0.040986415
104	0xbc9c3836	-0.019069772
105	0x3d1b99a3	0.037988316
106	0xbd092034	-0.033477977
107	0x3d4b355f	0.049611446
108	0x3cb88f6b	0.022529325
109	0xbd5884ed	-0.052861143
110	0x3d32e54f	0.043675717
111	0xbd922682	-0.07136251
112	0xbd011b2b	-0.03152005
113	0xbd1cbedb	-0.03826795
114	0xbd29bb4f	-0.041438397
115	0xbd5262ef	-0.05136388
116	0x3d370d07	0.04469016
117	0x3d3b96a8	0.045797974
118	0xbc800f68	-0.015632346
119	0x3cecd35d	0.02890938
120	0x3d45e00b	0.048309367
121	0x3d7eb2d0	0.062182248
122	0xbccc2595	-0.024920264
123	0xbd25d55d	-0.040486682
124	0x3c6993d4	0.014256436
125	0xbd34a3e9	-0.04410163
126	0xbd004b55	-0.031321842
127	0x3c91ba26	0.017788958
128	0xbc345ec1	-0.011008919
129	0x3d34ee51	0.04417259
130	0x3ade119f	0.0016942507
131	0x3bda48d3	0.0066615134
132	0xbd1f4480	-0.038883686
133	0xbd345cee	-0.044033937
134	0x3d32977a	0.04360149
135	0x3c9f4d90	0.019446164
136	0x3d1abc5f	0.0377773
137	0x3cf995cd	0.030466938
138	0xbc9ee80f	-0.019397764
139	0xbd110a0e	-0.03540998
140	0x3c491a4f	0.012274339
141	0xbcc07829	-0.023494797
142	0x3d22629a	0.039644815
143	0x3d413534	0.04716988
144	0xbd1d31f0	-0.038377702
145	0xbca680b3	-0.02032504
146	0xbd5f1623	-0.05446447
147	0xbd68f331	-0.05687255
148	0xbd657e23	-0.056028496
149	0xbd4f9b80	-0.050685406
150	0x391a49fe	0.00014714149
151	0x3d843278	0.06454939
152	0x3c31826a	0.010834316
153	0xbd1cca78	-0.038279027
154	0xbc1005a1	-0.008790405
155	0xbd50502f	-0.05085772
156	0xbdb2fc6b	-0.08739551
157	0xbd9182f3	-0.07105055
158	0xbd80bced	-0.06286035
159	0xbb132667	-0.002245331
160	0x3d592084	0.053009525
161	0x3c4cbac4	0.0124957
162	0xbd15a2d6	-0.036532246
163	0xbbf0b2bc	-0.0073455255
164	0x3ce006a4	0.027346916
165	0xbd32a709	-0.04361633
166	0x3d8eb6cc	0.069684595
167	0x3d86b359	0.065771766
168	0x3d06f8db	0.03295217
169	0xbccf737b	-0.02532362
170	0xbd42e233	-0.047579
171	0xbcae52b7	-0.021279676
172	0xbda14b8f	-0.0787574
173	0xbb172b98	-0.0023066755
174	0xbd0b861d	-0.034063447
175	0xbd398bc9	-0.045299325
176	0xbbcd07ac	-0.006257018
177	0x3c154d28	0.009112634
178	0x3ba729bb	0.00510141
179	0x3c11d6a4	0.008901272
180	0x3cbfa1d4	0.023392595
181	0xbc370ac5	-0.011172001
182	0xbd6d7205	-0.057970066
183	0xbd0c24bf	-0.03421473
184	0xbd383d7b	-0.044980507
185	0xbb3320af	-0.0027332713
186	0x3cf2978c	0.029613279
187	0xbcc21fee	-0.023696866
188	0x3cd13c7b	0.025541535
189	0xbb46446d	-0.0030253187
190	0xbd54c955	-0.051949818
191	0x3c553334	0.013012696
192	0x3d1e52b6	0.038653098
193	0x3bc2ba68	0.0059426315
194	0xbd72231a	-0.059115507
195	0xbd31ba72	-0.0433907
196	0x3d4534da	0.048146106
197	0x3d790399	0.060794447
198	0x3cb7a578	0.022417769
199	0xbbfb97da	-0.007678014
200	0x3a8aefc1	0.0010600017
201	0x3d24d5d7	0.040242996
202	0xbc41b76e	-0.011823518
203	0x3d07639f	0.03305399
204	0x3ca3c6e6	0.019992303
205	0x3d056b30	0.032572925
206	0xbd8fa0c3	-0.07013085
207	0xbce58ff4	-0.028022744
208	0x3bb56639	0.0055358675
209	0xbd28aad0	-0.041178524
210	0x39802fb7	0.00024449613
211	0x3c8fd772	0.017558787
212	0x3cacee85	0.021109829
213	0x3cec0ff0	0.028816193
214	0xbd38bf63	-0.045104396
215	0xbd146291	-0.036226813
216	0x3d6318ff	0.05544376
217	0xbd1e7994	-0.038690165
218	0xbd35a2cd	-0.044344712
219	0x3d514303	0.051089298
220	0x3d36ae6e	0.044599943
221	0x3d0c08f6	0.034188233
222	0x3d5a65d6	0.053319775
223	0x3cd1596a	0.025555331
224	0x3d49a54e	0.049229912
225	0xbd118563	-0.035527598
226	0xbc24def0	-0.010062918
227	0x3c8cbeeb	0.01718088
228	0xbd167be1	-0.036739234
229	0x3c21cce3	0.009875509
230	0x3cb7a757	0.022418661
231	0x3d2e1528	0.042500645
232	0x3cc8d4af	0.024515478
233	0x3bc1641e	0.0059018275
234	0xbc149f9d	-0.009071258
235	0x3c7a7067	0.015285588
236	0xbd913eda	-0.07092066
237	0x3b0dcdff	0.0021637676
238	0x3c89e10e	0.016830947
239	0x3b07571d	0.0020651289
240	0xbcfd9c8e	-0.03095844
241	0xbc94c6e7	-0.01816125
242	0xbd76741c	-0.060169324
243	0x3d1c411f	0.03814804
244	0x3cfe90e3	0.031074947
245	0xbca2f3b8	-0.019891605
246	0xbd1507e5	-0.036384482
247	0xbd25f67e	-0.040518276
248	0xbd0bd48a	-0.03413824
249	0xbc81e6fd	-0.015857214
250	0xba2c2163	-0.00065662543
251	0xbd4b8328	-0.049685627
252	0xbd097363	-0.033557307
253	0x3d1c7afd	0.03820323
254	0x3d7c5401	0.06160355
255	0x3d6c7b28	0.05773464

block1.2.bias f4 [64]
0	0xbc2a971e	-0.010412006
1	0x3e55cced	0.20878954
2	0x3f7d8dd9	0.9904457
3	0xbdc57146	-0.09640746
4	0xbe1e9453	-0.15486269
5	0xbd845477	-0.06461423
6	0x3d78ad6e	0.06071227
7	0xbbc54b14	-0.006020913
8	0xbe14ef9e	-0.14544532
9	0x3ebffb7d	0.37496558
10	0xbe0d38f9	-0.13791265
11	0xbe1e90fb	-0.15484993
12	0xbdd0fb3f	-0.102041714
13	0x3f4d163d	0.8011206
14	0x3d355efe	0.044280045
15	0xbd638a3c	-0.055551752
16	0xbdb4a250	-0.08820021
17	0x3d4b3edb	0.04962049
18	0x3b7be2af	0.0038434674
19	0x3ddf0d98	0.10891265
20	0xbe901bee	-0.2814631
21	0xbdfe2646	-0.12409644
22	0x3e482df9	0.19548787
23	0x3d852029	0.06500275
24	0xbd3b9fab	-0.045806568
25	0x3e23b133	0.15985565
26	0x3e2f00b7	0.17090116
27	0x3e1df11c	0.15424007
28	0x3f5c5779	0.8607097
29	0x3d156b9d	0.03647958
30	0xbe6929cf	-0.22769855
31	0xbe12b784	-0.14327818
32	0xbf8d1048	-1.1020594
33	0x3e8c8472	0.27444798
34	0xbd81fac9	-0.063466616
35	0x3e3d9eb8	0.18517578
36	0xbdb00c2c	-0.085960716
37	0x3b620453	0.003448744
38	0xbf2ce399	-0.67534786
39	0xbf50a9b5	-0.8150895
40	0x3dcbb9b0	0.099475265
41	0xbe2920fd	-0.1651649
42	0xbd8c8ba6	-0.06862573
43	0xbb3b0db0	-0.0028542094
44	0x3d28155c	0.041035995
45	0x3d95bd79	0.0731153
46	0x3d1134f9	0.03545091
47	0x3d01ce86	0.031691097
48	0xbeb2df8d	-0.3493618
49	0x3e25a8d0	0.16177678
50	0xbe9c7870	-0.30560637
51	0x3e098344	0.1342898
52	0xbe69e4a9	-0.22841133
53	0xbe3798b9	-0.17929353
54	0x3b92a1fe	0.0044748774
55	0x3df4904b	0.11941584
56	0xbe6537ac	-0.22384518
57	0x3e2d4a4a	0.1692287
58	0xbe91aded	-0.28453007
59	0xbe59707f	-0.2123432
60	0x3e9a98cd	0.30194703
61	0x3e5987dc	0.21243232
62	0xbe64e0a8	-0.22351325
63	0xbc29c3df	-0.010361641

block2.0.weight f4 [256, 64]
0	0x3dfdf3a6	0.12399988
1	0x3d0b10f0	0.0339517
2	0xbdfb537c	-0.12271783
3	0xbdfab3a0	-0.12241292
4	0xbcfaf7f0	-0.030635804
5	0xbd71e914	-0.05906017
6	0xbd76a888	-0.060219318
7	0xbcc69b80	-0.02424407
8	0xbdd02eb0	-0.10165155
9	0xbcabf118	-0.020988986
10	0xbd9f9cde	-0.07793592
11	0xbb985de0	-0.0046498626
12	0xbcfaf6a8	-0.030635193
13	0x3dfd5270	0.12369239
14	0x3ded13fc	0.11576077
15	0xbddb6d60	-0.10714221
16	0x3df94070	0.121704936
17	0x3d53e8f4	0.051735833
18	0xbde28670	-0.11060798
19	0x3da45808	0.08024603
20	0xbd60f7c0	-0.054923773
21	0xbc23d980	-0.0100005865
22	0xbc2ab800	-0.010419846
23	0x3daf7604	0.085674316
24	0x3dc7837c	0.097418755
25	0x3d8b3928	0.06798011
26	0xbdbbf02e	-0.0917667
27	0xbdde6376	-0.108588144
28	0x3d96c5c6	0.07361941
29	0x3d64530c	0.055743262
30	0xbcf507e8	-0.029910997
31	0x3d6c1518	0.057637304
32	0x3d4f6220	0.05063069
33	0xbce446a0	-0.027865708
34	0x3deea99e	0.11653446
35	0xbd8b13ce	-0.06790887
36	0xbd8b8042	-0.068115726
37	0x3d88748a	0.06662853
38	0xbd9a6ca4	-0.07540253
39	0x3da18e04	0.078884155
40	0xbda6642e	-0.081245765
41	0xbdfb8162	-0.12280537
42	0xbc1c0d10	-0.009524599
43	0x3cec33d0	0.0288333
44	0xbabcf080	-0.0014414936
45	0xbc01baa0	-0.00791803
46	0xbdc8b5aa	-0.09800275
47	0x3da372ca	0.07980879
48	0x3d57e06c	0.05270426
49	0xbb692200	-0.0035573244
50	0x3d07a51c	0.033116445
51	0xbd3c1ff8	-0.045928925
52	0x3d9d4eac	0.07681021
53	0xbc8d2b20	-0.017232478
54	0x3d377c90	0.044796526
55	0xbd954dbe	-0.07290219
56	0x3da728d2	0.08162083
57	0xbb9dcc60	-0.004815623
58	0xba8a1580	-0.0010534972
59	0x3d9566d4	0.072950035
60	0xbd9c4d9a	-0.07631989
61	0x3db3f33a	0.08786626
62	0x3dffec24	0.12496212
63	0x3c10b970	0.008833274
64	0xbd96895c	-0.07350418
65	0x3d697c2c	0.057003185
66	0xbdf90962	-0.12159993
67	0x3da6bd5a	0.08141585
68	0x3d9884a4	0.07447174
69	0xbd2d1664	-0.04225768
70	0x3c58d6d0	0.013234809
71	0x3dc73ce2	0.09728409
72	0xbd8a4a2a	-0.06752427
73	0xbd4f1ea0	-0.050566316
74	0x3dcf323c	0.10117003
75	0x3dd9d52c	0.106363624
76	0x3cea5bc8	0.028608218
77	0xbdfea68c	-0.1243411
78	0xbdb1bcf8	-0.08678621
79	0xbdcfa7d6	-0.10139434
80	0x3d66b9f0	0.056329668
81	0xbc8df1f0	-0.017327279
82	0xbcf275b0	-0.029597133
83	0x3d0a1328	0.033709675
84	0x3daf7884	0.085679084
85	0xbda9dad8	-0.08293694
86	0x3de4fa76	0.11180584
87	0x3ddbd6f0	0.107343554
88	0xbd9c4e8a	-0.07632168
89	0xbd836156	-0.0641505
90	0xbd90b082	-0.07064916
91	0xbdcf0862	-0.10109021
92	0xbdc4e526	-0.09614019
93	0x3bc4b040	0.006002456
94	0x3bc9fc60	0.0061641186
95	0x3cc6e278	0.02427791
96	0x3c8ba2b0	0.017045349
97	0xbdd7cc98	-0.1053707
98	0xbc7adb40	-0.015311062
99	0x3d7508bc	0.059822783
100	0xbdc0c662	-0.094128385
101	0x3c3f77b0	0.011686251
102	0xbdd56ed4	-0.104215294
103	0x3d88e38e	0.066840276
104	0xbd2e0b80	-0.042491436
105	0xbd79ee54	-0.061018303
106	0xbde0ddd8	-0.10979813
107	0xbdfe8016	-0.12426774
108	0x3c8124e8	0.015764669
109	0xbdd4aa5c	-0.10384056
110	0xbad68600	-0.0016366839
111	0xbc20c0a0	-0.00981155
112	0xbd39b9cc	-0.045343205
113	0x3dfde608	0.123973906
114	0xbd3203cc	-0.043460652
115	0x3ce0ac50	0.027425915
116	0x3de99eca	0.1140724
117	0xbcf6b550	-0.030115753
118	0x3d9f9e66	0.07793884
119	0xbdffa108	-0.12481886
120	0x3dc2d6c4	0.095136195
121	0x3d60f090	0.05491692
122	0x3dac798a	0.08421619
123	0xbd42ad9c	-0.047528848
124	0xbd29f7c4	-0.041496053
125	0x3db5f4ea	0.08884604
126	0xbd92140a	-0.071327284
127	0x3dea6af2	0.114461794
128	0x3c20a2b0	0.009804413
129	0x3db8a244	0.09015325
130	0xbaf9a180	-0.0019045323
131	0x3d39d06c	0.045364782
132	0xbd862d66	-0.06551628
133	0x3d9eb66e	0.077496395
134	0x3dc8d286	0.09805779
135	0xbd58e698	-0.052954286
136	0xbd9e7294	-0.07736698
137	0xbd034bb4	-0.032054618
138	0x3dfea248	0.124332964
139	0xbdd67368	-0.10471231
140	0x3defe106	0.11712842
141	0xbd4f7fd0	-0.050659
142	0x3dba0322	0.09082629
143	0x3d25d588	0.040486842
144	0x3cfe4080	0.031036615
145	0xbda28a20	-0.079365015
146	0xbca6fb00	-0.020383358
147	0x3d7ee4cc	0.062229916
148	0x3d570900	0.052498817
149	0x3daa7512	0.08323111
150	0x3ca55180	0.020180464
151	0xbd8e580a	-0.06950386
152	0xbde26600	-0.11054611
153	0x3d80dc08	0.06291968
154	0x3d6f5940	0.058434725
155	0x3d944428	0.07239562
156	0xbde997b6	-0.1140589
157	0xbd45636c	-0.04819052
158	0x3b8ae620	0.004238859
159	0xbcad68f0	-0.021168202
160	0xbdf1d584	-0.11808303
161	0x3da45206	0.08023457
162	0xbc244930	-0.010027215
163	0xbc84a508	-0.016191974
164	0x3d4f6c60	0.050640464
165	0xbd9df8d6	-0.07713477
166	0xbde2bdce	-0.110713586
167	0xbda6e1ba	-0.08148523
168	0x3d9e3d06	0.07726483
169	0xbddea600	-0.10871506
170	0x3dd77c66	0.10521774
171	0x3dadf8b6	0.084947035
172	0xbd8f9372	-0.07010545
173	0x3defd4dc	0.117105216
174	0x3ce1ecf8	0.027578816
175	0x3c2df2e0	0.010616988
176	0x3d43d464	0.047809973
177	0xbddf0e50	-0.10891402
178	0x3dbb06da	0.09132166
179	0xbd761b28	-0.060084492
180	0xbd953cac	-0.07286963
181	0xbd752cf0	-0.05985731
182	0xbdd7f550	-0.105448365
183	0xbddbb750	-0.107283235
184	0x3da43934	0.08018723
185	0xbce177b0	-0.027522892
186	0xbccc7da8	-0.024962261
187	0xbdebba7c	-0.115101784
188	0x3c65b590	0.014020339
189	0x3df0d94e	0.117601976
190	0xbd7c43e8	-0.061588198
191	0xbcded240	-0.027199864
192	0xbd24a5f4	-0.040197328
193	0xbd7dc4e4	-0.061955348
194	0xbd3333dc	-0.04375063
195	0xbd4e70c0	-0.050400496
196	0xbd88afd0	-0.066741586
197	0x3dac3f9e	0.084105715
198	0x3de6e2f2	0.11273755
199	0xbd943896	-0.072373554
200	0x3d4c77a8	0.0499188
201	0x3db2bb8e	0.087271795
202	0x3d671b08	0.056422263
203	0xbdc607b2	-0.096694365
204	0xbd1cb804	-0.03826143
205	0x3dacbf5c	0.084349364
206	0xbcd2a4b8	-0.02571331
207	0x3d30cc88	0.043163806
208	0x3debb628	0.11509353
209	0x3d7bb604	0.06145288
210	0x3be55980	0.0069991946
211	0x3dc282c0	0.09497595
212	0xbd607b7c	-0.054805264
213	0x3ca3e0c0	0.02000463
214	0x3d50113c	0.050797686
215	0xbddd98d4	-0.10820165
216	0xbd8e6e36	-0.06954615
217	0x3ced3a70	0.02895853
218	0x3d664330	0.05621642
219	0x3cb9a718	0.022662684
220	0xbd603f40	-0.05474782
221	0xbdd0c560	-0.10193896
222	0x3d166484	0.036716953
223	0x3b029e80	0.00199309
224	0xbd187360	-0.037219405
225	0xbdb814ea	-0.08988364
226	0xbc1a1080	-0.009403348
227	0xbc0b12c0	-0.008488357
228	0x3d741ef8	0.059599847
229	0xbdefd69c	-0.11710855
230	0x3ddb299a	0.10701294
231	0x3cc77670	0.024348468
232	0xbde84080	-0.113404274
233	0xbd8fa63e	-0.0701413
234	0xbdd8dc14	-0.105888516
235	0xbdef653c	-0.11689231
236	0x3d8e4332	0.0694641
237	0x3c9c1fa8	0.019058064
238	0x3a0d3700	0.0005386919
239	0xbd01c88c	-0.031685397
240	0xbdf42b28	-0.11922294
241	0xbd733a5c	-0.059381828
242	0xbdd10476	-0.10205929
243	0xbd2fbfe0	-0.042907596
244	0xbdaa6922	-0.08320834
245	0x3d916800	0.070999146
246	0x3d0a61ac	0.033784553
247	0xbc024810	-0.007951751
248	0x3dfc85c8	0.12330204
249	0x3cc2ec48	0.023794308
250	0x3c575cd0	0.013144687
251	0x3dd73e86	0.10509972
252	0xbdf9aea6	-0.12191515
253	0x3dddf800	0.10838318
254	0xbbb16bc0	-0.005414456
255	0xbcaf8c40	-0.021429181

block2.0.bias f4 [256]
0	0xbdcfc2bc	-0.101445645
1	0xbd9ffcea	-0.078119114
2	0x3de77700	0.11301994
3	0x3ccee5e8	0.025256112
4	0x3df33d20	0.11876893
5	0x3d9bebf0	0.07613361
6	0x3d841ec2	0.06451179
7	0x3db6a556	0.08918254
8	0xbd36f730	-0.04466933
9	0x3cb9f848	0.022701398
10	0x3d7e3244	0.062059656
11	0x3d322ddc	0.043500766
12	0xbd8d6210	-0.069034696
13	0xbb3ea400	-0.002908945
14	0xbd5922b0	-0.053011596
15	0xbdc8a8f6	-0.09797852
16	0x3df76b00	0.120809555
17	0xbdc3beba	-0.095578626
18	0x3d6fbbe8	0.05852881
19	0x3db47072	0.0881051
20	0x3db09734	0.0862259
21	0xbdddd71e	-0.10832046
22	0x3d25797c	0.04039906
23	0xbde6ab24	-0.11263111
24	0xbcbe5eb0	-0.02323851
25	0xbdfa9bfc	-0.12236783
26	0x3df77fc2	0.12084915
27	0x3d7fb860	0.062431693
28	0x3c3c45e0	0.011491269
29	0x3de49112	0.111604825
30	0x3cef37a8	0.029201344
31	0xbc76bfc0	-0.015060365
32	0xbd7b2f7c	-0.06132458
33	0x3da7650e	0.081735715
34	0xbd4a1d7c	-0.049344525
35	0xbce1fb18	-0.027585551
36	0x3d48b75c	0.04900299
37	0xbd82a938	-0.06379932
38	0xbd9352ae	-0.07193504
39	0xbcb91a40	-0.022595525
40	0x3da57c80	0.08080387
41	0xbd9f40b0	-0.0777601
42	0x3d764ef8	0.060133904
43	0x3d847ca4	0.06469086
44	0xbdb9bf50	-0.09069693
45	0x3dd13aaa	0.102162674
46	0xbd67d56c	-0.05660002
47	0xbd836dba	-0.06417413
48	0xbd013164	-0.031541243
49	0xbd70f59c	-0.05882798
50	0x3cbed930	0.023296922
51	0xbcaa3bf8	-0.020780548
52	0x3df07164	0.117403775
53	0x3d67de4c	0.056608483
54	0xbce43878	-0.027858958
55	0xbdeffa3e	-0.11717652
56	0xbdc98742	-0.098402515
57	0x3debf36c	0.115210384
58	0x3d8fa4dc	0.07013866
59	0x3def3b78	0.11681265
60	0x3d90fcd4	0.07079473
61	0xbdc1c74e	-0.094618425
62	0xbd26f300	-0.040759087
63	0x3d0299d4	0.031884983
64	0x3d384b38	0.04499361
65	0x3dfde882	0.12397863
66	0x3b1b4980	0.0023694932
67	0xba131c00	-0.00056117773
68	0x3d0d1964	0.034448043
69	0xbd861250	-0.065464616
70	0x3de4c0b4	0.11169568
71	0xbcbac300	-0.022798061
72	0x3d8d3034	0.0689396
73	0x3c958000	0.018249512
74	0xbc494400	-0.012284279
75	0x3d2bbec4	0.041929975
76	0x3d1f8838	0.038948268
77	0xbda8c0f0	-0.08239925
78	0xbd3cf424	-0.04613127
79	0xbdf938c8	-0.12169033
80	0xbd51eff0	-0.051254213
81	0x3d9289de	0.07155202
82	0xbdbdf89a	-0.092759326
83	0x3d2e4a10	0.0425511
84	0x3d8eff80	0.069823265
85	0xbde3057e	-0.11085032
86	0xbd947496	-0.072487995
87	0xbd3e2468	-0.04642144
88	0x3da1c924	0.07899693
89	0xbd58884c	-0.052864358
90	0xbdcce3c4	-0.1000438
91	0x3dbd01ca	0.09228857
92	0x3d325da4	0.043546334
93	0x3d565610	0.05232817
94	0x3dee29b8	0.11629051
95	0x3db5b380	0.088721275
96	0xbcdbb428	-0.026819304
97	0x3d8289ae	0.063739166
98	0x3c93ef38	0.018058404
99	0x3d89baae	0.067250594
100	0x3dd618da	0.10453959
101	0xbd2b3c28	-0.041805416
102	0x3d888a0e	0.06666957
103	0x3d242ac8	0.040079862
104	0xbcbc4a80	-0.022984743
105	0x3d4aac24	0.049480572
106	0x3dd3afd8	0.10336274
107	0xbdce7b56	-0.10082118
108	0xbc3cc4a0	-0.011521488
109	0xbda5519a	-0.08072205
110	0xbda13e92	-0.078732625
111	0xbca005b8	-0.019533977
112	0x3d676728	0.05649486
113	0xbc1e3040	-0.009655058
114	0x3dccf4ca	0.10007627
115	0x3dce9b9a	0.100882724
116	0x3dd65e1c	0.10467169
117	0xbd25dbf0	-0.040492952
118	0xbdff18ee	-0.12455927
119	0x3d3dad28	0.046307713
120	0x3ddb5eb0	0.107114196
121	0x3dcb92c0	0.099401
122	0x3cecc100	0.028900623
123	0x3cbd54b8	0.023111686
124	0x3dae1bb6	0.08501379
125	0xbcebda88	-0.028790727
126	0x3befa4e0	0.007313356
127	0xbd845396	-0.06461255
128	0x3d5a2e28	0.053266674
129	0x3d931d2a	0.07183297
130	0xbde98e8a	-0.1140414
131	0x3d88259e	0.066478
132	0xbdb84440	-0.08997393
133	0x3d863184	0.06552413
134	0x3d1e3d04	0.038632408
135	0xbd938418	-0.07202929
136	0xbc8796a0	-0.016551316
137	0x3dff62c6	0.124700114
138	0xbdb9d414	-0.09073654
139	0xbd76d2f8	-0.06025979
140	0xbd83562a	-0.06412919
141	0x3dbca1e2	0.09210564
142	0x3d8b85ac	0.06812605
143	0x3d7eb3a4	0.062183037
144	0x3cbea198	0.023270413
145	0xbdd4666e	-0.103710994
146	0x3d8e461a	0.069469646
147	0x3dafb402	0.08579256
148	0x3de7be64	0.11315611
149	0x3d9a918a	0.075472906
150	0xbdc6fa18	-0.0971567
151	0xbdf25016	-0.118316814
152	0xbd920014	-0.07128921
153	0x3db1cd9c	0.08681795
154	0xbc191fb0	-0.009345934
155	0x3d3c727c	0.04600762
156	0x3d9ec42e	0.07752262
157	0x3c9751a0	0.018471539
158	0xbd0778b0	-0.03307408
159	0x3d47e98c	0.048806712
160	0x3b82d360	0.003992483
161	0xbd4bf054	-0.04978974
162	0x3dea67fa	0.11445613
163	0x3de22cb6	0.11043684
164	0xbca5fb60	-0.020261467
165	0x3c519f80	0.012794375
166	0xbd512c58	-0.05106768
167	0x3d833544	0.06406644
168	0x3dee8858	0.11647099
169	0x3de132a2	0.109959856
170	0x3dbfd798	0.09367293
171	0x3bd4dd20	0.0064960867
172	0x3d18e9cc	0.03733234
173	0xbdaf2512	-0.085519925
174	0x3de3886a	0.11110003
175	0xbd2b3ed0	-0.04180795
176	0xbd8e2690	-0.06940949
177	0xbc450490	-0.012025014
178	0x3d04d858	0.032432884
179	0xbde4b4be	-0.11167286
180	0x3db3c210	0.08777249
181	0xbda30824	-0.07960537
182	0xbdeac3ee	-0.11463152
183	0x3d27df54	0.040984467
184	0xbdd6cefe	-0.104886994
185	0x3cae0120	0.02124077
186	0x3d45a54c	0.048253343
187	0x3cef9900	0.02924776
188	0xbdf20650	-0.1181761
189	0x3d9c9ab0	0.07646692
190	0x3dd69934	0.1047844
191	0x3d822ab0	0.06355798
192	0x3d80c4ea	0.062875584
193	0xbcc2eed8	-0.02379553
194	0x3d49bdb8	0.049253196
195	0xbd3b168c	-0.0456758
196	0xbda4f484	-0.0805445
197	0xbd443b34	-0.047908023
198	0xbdda6e62	-0.10665585
199	0x3d5363a8	0.05160871
200	0xbdcd0f28	-0.100126565
201	0xbd06a280	-0.032869816
202	0x3df7ed54	0.121058136
203	0x3abe4100	0.0014515221
204	0x3df9a38a	0.12189396
205	0xbc1aaec0	-0.009441078
206	0xbccbeac0	-0.024892211
207	0x3da326a2	0.07966353
208	0x3d88eeec	0.06686196
209	0xbc27b330	-0.010235593
210	0x3daee4e6	0.08539753
211	0xbddf8816	-0.10914628
212	0x3d80b7ee	0.06285082
213	0x3da0ba3c	0.078480214
214	0xbcbdac98	-0.023153588
215	0xbd488348	-0.048953325
216	0x3bd5fe20	0.006530538
217	0x3dab78b4	0.08372632
218	0xbcfdf758	-0.031001732
219	0x3d346724	0.044043675
220	0x3df8a87a	0.12141509
221	0xbdbf8a06	-0.09352498
222	0xbdf81852	-0.12114014
223	0xbd475060	-0.048660636
224	0x3d613250	0.054979622
225	0x3daabdf2	0.083370104
226	0x3cc149a0	0.023594677
227	0xbcb7e370	-0.022447318
228	0xbda62360	-0.08112216
229	0xbcd8b9f8	-0.026455864
230	0x3d9f904e	0.07791196
231	0xbdd2340c	-0.102638334
232	0xbbbdbfa0	-0.0057906657
233	0x3dd3c10e	0.10339557
234	0xbd9739ec	-0.073840946
235	0xbde33ad6	-0.110952064
236	0x3d0289a8	0.03186956
237	0x3dc8f330	0.09812009
238	0xbdc0c516	-0.09412591
239	0xbbdcfb60	-0.0067438334
240	0x3a805b00	0.0009792745
241	0xbdd15ed4	-0.10223165
242	0xbdf34e84	-0.1188021
243	0xbd9ad4f4	-0.07560149
244	0x3dde568a	0.1085635
245	0x3cd75f88	0.02629067
246	0x3d4cbc60	0.049984336
247	0x3d0e43f4	0.034732774
248	0x3b81caa0	0.0039609224
249	0xbde11250	-0.10989821
250	0x3c901d30	0.017592043
251	0x3d13dcec	0.03609936
252	0x3dfe204a	0.124085024
253	0xbca727e8	-0.020404771
254	0xbb4a3180	-0.0030852258
255	0x3dd1a0fc	0.102357835
