model_artifacts/naturally_trained_model_mnist.pt (torch, 286331 bytes, 14 tensors)

embedding.weight f4 [64, 64]
0	0x3dd24260	0.10266566
1	0x3ddda742	0.108229175
2	0xbc3d1331	-0.01154022
3	0x3cf4ee67	0.029898835
4	0xbda0b367	-0.07846718
5	0xbdd4afe8	-0.10385114
6	0x3d12feb4	0.035887435
7	0x3d996b1c	0.074911326
8	0xbdda7d5e	-0.10668443
9	0xbd5c1b61	-0.053737048
10	0x3d69c86b	0.0570759
11	0x3d1c0e8c	0.03809981
12	0xbd620b8a	-0.055186786
13	0xbdcbd845	-0.099533595
14	0x3dc4654d	0.09589634
15	0x3d28f75c	0.041251525
16	0x3d7c2d32	0.06156654
17	0x3dc7c6c3	0.09754708
18	0xbca75565	-0.020426461
19	0x3d140002	0.03613282
20	0xbd5e0398	-0.054202646
21	0x3d9698f8	0.07353395
22	0xbcd994f4	-0.026560284
23	0xbc6496c0	-0.013951957
24	0xbcbd7aa6	-0.023129772
25	0xbd925ead	-0.07146964
26	0xbdfea7f0	-0.12434375
27	0x3d71de90	0.059050143
28	0xbd891f1e	-0.06695388
29	0xbc86841f	-0.016420422
30	0x3de19d3c	0.11016318
31	0x3d4d6aec	0.050150797
32	0x3d2618ac	0.040550873
33	0xbcf474ac	-0.02984079
34	0x3d2f5d48	0.04281357
35	0x3cc5951e	0.024118956
36	0xbc5f2771	-0.013620243
37	0xbc97c32b	-0.01852568
38	0x3d025bf8	0.03182599
39	0x3d84abb8	0.06478065
40	0xbddbffb0	-0.10742128
41	0x3df62560	0.120188475
42	0xbd9fd74f	-0.07804739
43	0xbd17241c	-0.03689967
44	0x3dc40f30	0.09573209
45	0xbc5004d6	-0.0126964655
46	0x3d7b5877	0.061363664
47	0xbd9e510a	-0.07730301
48	0x3d5054bc	0.05086206
49	0xbd934105	-0.07190136
50	0x3dd08afa	0.10182758
51	0x3ce6f0db	0.02819102
52	0xbdff4265	-0.124638356
53	0xbdd5b127	-0.1043418
54	0x3d56e0b7	0.0524604
55	0xbd8de6d0	-0.069287896
56	0x3cce50a8	0.025184944
57	0xbd0e2ab9	-0.034708712
58	0x3d5be932	0.05368919
59	0x3df5362c	0.11973223
60	0xbdf88dec	-0.121364444
61	0x3d9e8136	0.07739489
62	0xbdcd5998	-0.10026854
63	0xbdb57eea	-0.088620976
64	0x3df8263e	0.12116669
65	0xbc66395e	-0.014051763
66	0xbd9ca44d	-0.076485254
67	0x3d4c380b	0.049858134
68	0x3c996b2f	0.018727867
69	0x3c124824	0.0089283325
70	0x3e396de5	0.18108328
71	0xbd8e30a6	-0.06942873
72	0x3d651898	0.055931658
73	0xbc18eceb	-0.009333829
74	0x3db436e2	0.087995306
75	0x3dd0a7ab	0.1018823
76	0x3cfe6855	0.031055609
77	0x3d7c2e4e	0.061567597
78	0xbd3181cc	-0.043336675
79	0x3db4c3ba	0.088263944
80	0xbcf1be3c	-0.029509656
81	0xbd87909c	-0.06619379
82	0xbd925265	-0.07144622
83	0x3da465bf	0.08027219
84	0x3e42b86a	0.19015661
85	0xbd8db09f	-0.069184534
86	0xbbe239e2	-0.006903873
87	0x3dab23d0	0.0835644
88	0x3d3ef338	0.04661867
89	0x3d9d7229	0.0768779
90	0x3c8f7024	0.017509528
91	0x3d47f811	0.04882056
92	0x3d39b859	0.045341823
93	0x3da24a6c	0.07924351
94	0x3cbe7e56	0.023253601
95	0x3c7b2050	0.015327528
96	0x3ddf5a24	0.10905865
97	0xbe0f4900	-0.13992691
98	0xbe1024a5	-0.14076479
99	0x3dc14dde	0.0943868
100	0x3e194c7b	0.14970581
101	0x3d8a9380	0.06766415
102	0xbdbfbc78	-0.093621194
103	0xbc531f70	-0.012885913
104	0x3da80f28	0.08206016
105	0xbd962bb3	-0.07332554
106	0x3c167351	0.009182767
107	0x3e1ba956	0.15201315
108	0xbd22a098	-0.039703935
109	0x3d30f5cb	0.043203156
110	0x3d372d38	0.04472086
111	0x3de531fe	0.11191176
112	0xbdb796ee	-0.089643344
113	0xbde162d3	-0.11005177
114	0xbdc7fb7d	-0.097647645
115	0xbc9d403a	-0.019195665
116	0xbcf78031	-0.030212494
117	0xbccc66a6	-0.02495129
118	0xbca979d8	-0.020687982
119	0x3a3a35de	0.0007103364
120	0xbcd7f008	-0.026359573
121	0x3d054787	0.032538917
122	0xbd5a137b	-0.053241234
123	0x3d9ea4d2	0.07746281
124	0xbb6afdfa	-0.0035856948
125	0x3d36c71d	0.044623483
126	0x3e060add	0.13090082
127	0x3df287d7	0.11842316
128	0xbcc76510	-0.024340183
129	0x3c600d98	0.013675116
130	0x3d830167	0.06396752
131	0xbd950a74	-0.072773844
132	0x3de7c4c1	0.11316825
133	0xbdec40d0	-0.115357995
134	0xbe359075	-0.17730887
135	0xbdee2924	-0.11628941
136	0x3c6e42b0	0.014542267
137	0x397eadcf	0.00024288076
138	0x3d77c5e4	0.060491458
139	0x3d505498	0.050861925
140	0xbd0a3bae	-0.03374832
141	0x3dd3a980	0.10335064
142	0xbe28de8e	-0.16491148
143	0x3ce85118	0.028358981
144	0x3daf02e1	0.08545471
145	0x3d1664b6	0.03671714
146	0xbd18a327	-0.03726497
147	0xbd3053bc	-0.043048605
148	0x3c3eb2ca	0.011639306
149	0x3de3f6cf	0.111310594
150	0x3d4edd65	0.050504107
151	0xbd3a12b0	-0.045427978
152	0x3d9fb171	0.07797516
153	0x3d992025	0.07476834
154	0xbd98e670	-0.074658275
155	0xbdac0729	-0.08399803
156	0xbdc521b7	-0.09625571
157	0x3e0099e6	0.12558708
158	0x3d93caf2	0.07216443
159	0x3c186240	0.009300768
160	0x3dd4bb08	0.10387236
161	0x3d4e535f	0.050372478
162	0x3d1e5f10	0.038664877
163	0xbe308c80	-0.17241096
164	0xbdb3a124	-0.087709695
165	0x3e1d580d	0.1536562
166	0x3d012973	0.03153367
167	0xbc6c87e0	-0.014436692
168	0x3d79c158	0.060975403
169	0x3c155c02	0.009116175
170	0x3dc0c8e6	0.09413318
171	0x3bf923b1	0.0076031317
172	0xbbe0f1c4	-0.006864758
173	0x3db93e69	0.09045107
174	0x3dcfd185	0.101473846
175	0xbde0b180	-0.109713554
176	0xbda2edfe	-0.0795555
177	0xbd3828fb	-0.044960957
178	0x3d27a3cb	0.04092769
179	0x3d9ed12d	0.07754741
180	0x3d474d8c	0.04865794
181	0x3db22238	0.08697933
182	0xbd568413	-0.05237205
183	0xbd1346e1	-0.035956267
184	0xbdef17b0	-0.1167444
185	0xbd3bbb25	-0.04583277
186	0xbd402fa5	-0.046920437
187	0x3c46bd8d	0.012130153
188	0x3d807551	0.06272376
189	0xbe185880	-0.1487751
190	0xbdf4a22c	-0.11944994
191	0x3dc00668	0.09376222
192	0xbd35edf4	-0.044416383
193	0x3c8f3dcc	0.017485522
194	0xbccdd9f6	-0.025128346
195	0xbd8ab7af	-0.06773316
196	0x3cc85916	0.024456542
197	0x3e4ab47e	0.19795415
198	0x3c849eb8	0.016188964
199	0xbd0096b4	-0.03139372
200	0xbdaf90aa	-0.08572514
201	0xbdd7916b	-0.10525783
202	0xbca9b4e8	-0.020716146
203	0xbd5e1b1f	-0.054225083
204	0x3da4515d	0.08023331
205	0xbc70aee2	-0.014690133
206	0x3dfb9c38	0.12285656
207	0xbd6b4908	-0.057442695
208	0x3d4d9d24	0.05019869
209	0xbcf40394	-0.029786862
210	0xbe2fc25b	-0.17163984
211	0x3dd8e934	0.10591355
212	0x3c6361e0	0.013878316
213	0xbd8ac199	-0.06775207
214	0xbd7983b7	-0.06091663
215	0xbde0179a	-0.10942002
216	0xbca207b6	-0.019779067
217	0xbd940bfe	-0.0722885
218	0x3d940bbc	0.07228801
219	0x3e4c5a4c	0.1995632
220	0x3e77f31b	0.24213831
221	0xbdea7289	-0.11447627
222	0xbd985065	-0.07437209
223	0x3db62bfe	0.088951096
224	0xbb0ff980	-0.0021968782
225	0x3d1e91a0	0.038713098
226	0x3d2310c1	0.0398109
227	0x3d5d1016	0.05397042
228	0x3e0d1338	0.13776863
229	0xbd8ddc61	-0.069267996
230	0x3d1ddff6	0.038543664
231	0x3cac1c48	0.02100958
232	0x3dd863ac	0.10565886
233	0xbe391532	-0.18074492
234	0xbe157764	-0.14596325
235	0x3d9b78d5	0.07591406
236	0x3d48d65e	0.04903256
237	0xbd3a7b3a	-0.045527674
238	0xbe040442	-0.12892249
239	0xbda54904	-0.08070567
240	0xbdb1debe	-0.08685063
241	0x3d8f6aff	0.0700283
242	0xbcb44e96	-0.022010129
243	0xbc5044ce	-0.012711717
244	0xbdb95ca4	-0.09050873
245	0x3d9f94e1	0.07792068
246	0x3ddb4aa7	0.10707598
247	0x3d4eb354	0.05046399
248	0x3cdca620	0.026934683
249	0xbd29ebd8	-0.041484684
250	0xbe0ddbad	-0.13853331
251	0x3d785a04	0.06063272
252	0xbdb15dda	-0.08660479
253	0x3e1d3ede	0.15356013
254	0x3d9f035e	0.07764314
255	0xbcf33ad6	-0.029691141

embedding.bias f4 [64]
0	0x3db6a03c	0.08917281
1	0xbd9c8cdc	-0.07644054
2	0xbe4a0e95	-0.19732125
3	0xbcd8e2d5	-0.02647535
4	0xbcbb5608	-0.022868171
5	0xbced74a1	-0.028986277
6	0x3da3a54e	0.07990514
7	0x3dcce3dd	0.10004399
8	0x3e5b5ede	0.21422908
9	0x3c701c22	0.014655145
10	0x3d79e969	0.061013613
11	0xbcb28e2f	-0.021796314
12	0x3d897526	0.067117974
13	0xbd8611cc	-0.06546363
14	0xbcc74279	-0.024323689
15	0x3d11ef76	0.03562876
16	0x3d98c83a	0.07460065
17	0x3dc098da	0.09404154
18	0xbdf15b3c	-0.1178498
19	0x3ba62665	0.005070495
20	0x3d0739db	0.03301416
21	0x3cdc4a00	0.026890755
22	0xbd1d7a91	-0.038446967
23	0x3d82e691	0.06391633
24	0xbc701b9b	-0.014655019
25	0x3cd15aea	0.025556047
26	0xbd541703	-0.05177976
27	0x3de4c6c4	0.11170724
28	0x3e0b1320	0.13581514
29	0xbdf35bde	-0.11882757
30	0x3d3d16c3	0.046164285
31	0x3c98b077	0.018638832
32	0xbcc16cb9	-0.023611413
33	0xbd1a394f	-0.03765231
34	0x3da9fd6c	0.083002895
35	0x3bed6826	0.0072450815
36	0xbd8934a9	-0.06699497
37	0xbc901202	-0.017586712
38	0xbd194c63	-0.037426364
39	0xbd5ac625	-0.05341162
40	0xbdaeded0	-0.08538592
41	0x3d728e79	0.059217904
42	0xbbe451d5	-0.006967763
43	0x3d2ac591	0.04169232
44	0xbc9c9be7	-0.019117309
45	0xbcd623c4	-0.026140101
46	0xbb05cdbc	-0.0020416817
47	0x3d76293c	0.060097918
48	0x3db133cb	0.08652457
49	0x3c132696	0.008981368
50	0xbc8b80b4	-0.017029144
51	0xbc07d685	-0.008290892
52	0x3c3b37dd	0.011426893
53	0xbd885df6	-0.066585466
54	0x3d81844a	0.0632406
55	0xbcb97e9a	-0.022643376
56	0xbc80f497	-0.01574163
57	0xbd3508e6	-0.04419794
58	0xbd09dc1d	-0.033657182
59	0x3c04e8a4	0.0081121065
60	0xbd4a1711	-0.049338404
61	0xbdef3202	-0.1167946
62	0x3d0369f0	0.03208345
63	0xbdaa67ac	-0.08320555

block1.0.weight f4 [256, 64]
0	0x3d82fb88	0.06395632
1	0xbcede513	-0.029039895
2	0x3cbe7843	0.023250705
3	0x3dd7a702	0.10529901
4	0x3ddbe882	0.10737707
5	0x3d679671	0.056539956
6	0x3d684534	0.056706622
7	0xbdafcd16	-0.08584039
8	0xbe0a3944	-0.13498408
9	0xbdb2a280	-0.08722401
10	0x387c286e	6.0119135e-05
11	0xb9a5cb69	-0.00031622805
12	0x3d959e13	0.07305541
13	0xbdadc388	-0.0848456
14	0xbcd045e0	-0.025423944
15	0xbe2f5450	-0.17122006
16	0xbd36ef99	-0.044662092
17	0xbda9022a	-0.08252366
18	0xbd753688	-0.05986646
19	0xbbef34c5	-0.007299992
20	0x3dd47bb6	0.103751585
21	0x3dab9af6	0.08379166
22	0xbe0b0856	-0.13577399
23	0x3de9065f	0.11378168
24	0xbba9787c	-0.0051718336
25	0xbd3312a5	-0.043718953
26	0xbcedc6ec	-0.029025517
27	0x3d5d4950	0.054024994
28	0x3e0888c5	0.13333423
29	0xbd032d52	-0.032025643
30	0x3dc0955d	0.09403489
31	0x3d92927f	0.07156848
32	0xbdd3dc9b	-0.103448115
33	0x3d84e8e2	0.06489731
34	0xbc8b4a86	-0.017003309
35	0xbd75bb05	-0.05999281
36	0xbb720b72	-0.0036933091
37	0x3d341e9f	0.043974515
38	0xbd76ec58	-0.06028399
39	0xbcff3aab	-0.031155905
40	0x3d30b950	0.043145478
41	0xbd99d04b	-0.07510432
42	0xbd830e55	-0.06399218
43	0xbc7ba469	-0.015359023
44	0xbd4ef952	-0.05053074
45	0x3e0a4be3	0.13505511
46	0x3a8047d0	0.0009787027
47	0x3d56bbf2	0.052425332
48	0x3d627ece	0.05529671
49	0x3df8652a	0.121286705
50	0x3da9920f	0.082798116
51	0x3d684509	0.056706462
52	0xbdd11cb4	-0.10210553
53	0xbd997413	-0.074928425
54	0xbd13fe38	-0.036131114
55	0x3d171983	0.036889564
56	0xbe01860d	-0.12648793
57	0xbdf1cb67	-0.11806374
58	0x3da94e3b	0.082668744
59	0x3cdf8ab9	0.027287828
60	0x3db5e601	0.088817604
61	0xbd4f999d	-0.050683606
62	0x3c1999b9	0.009375029
63	0xbdd37ca3	-0.10326507
64	0xbe0d022d	-0.13770361
65	0xbcf073d8	-0.029352114
66	0xbd4d0328	-0.05005184
67	0x3d8ba76b	0.06819042
68	0xbc71d5cd	-0.014760447
69	0x3e097bc0	0.13426113
70	0x3da418df	0.08012556
71	0x3c01a0ce	0.007911874
72	0x3d58e53c	0.05295299
73	0x3dc18d3e	0.09450768
74	0x3dcb3579	0.099223085
75	0xbd9950bd	-0.07486103
76	0x3d1dbb91	0.038508955
77	0x3d05e149	0.03268555
78	0x3c9160f1	0.01774642
79	0x3e10747a	0.14106932
80	0xbdd7a0e7	-0.105287366
81	0xbbde2f5e	-0.006780549
82	0x3dda6e3e	0.10665558
83	0x3db2783c	0.08714339
84	0xbd50518f	-0.05085903
85	0x3e01bd2a	0.12669817
86	0xbdade169	-0.08490259
87	0xbdb0c1db	-0.08630725
88	0xba876373	-0.0010329321
89	0x3d8ce7ef	0.06880175
90	0x3cfdfc80	0.03100419
91	0x3d70109a	0.058609582
92	0xbdab1032	-0.083526984
93	0x3de00ff0	0.1094054
94	0x3d993b68	0.07482034
95	0x3e0c4802	0.13699344
96	0xbda5b447	-0.08091026
97	0x3c6516eb	0.013982515
98	0x3d281f6f	0.041045602
99	0xbcc4d0ac	-0.024025284
100	0x3db767e0	0.089553595
101	0x3dc2f895	0.095200695
102	0x3d5b966d	0.053610254
103	0x3d08925b	0.0333427
104	0xbdb1f4b0	-0.086892486
105	0x3dbfdd6b	0.09368404
106	0x3c853ff2	0.016265843
107	0xbcac1271	-0.021004887
108	0x3dd0db50	0.101980805
109	0x3cf1de08	0.029524818
110	0xbdab6c5d	-0.08370278
111	0xbdb153c1	-0.08658553
112	0xbda35acb	-0.07976302
113	0x3d3b6cdf	0.045758124
114	0x39af2359	0.00033404937
115	0xbd976d74	-0.073939234
116	0xbde95056	-0.11392276
117	0x3d7b6074	0.06137128
118	0xbd22db8e	-0.039760165
119	0x3c23457e	0.009965299
120	0xbd99aaf7	-0.07503312
121	0x3e0fa40c	0.14027423
122	0xbd090f49	-0.033461843
123	0x3cd54233	0.026032543
124	0x3dd1bf99	0.102416225
125	0xbdbe262d	-0.09284625
126	0xbd1edc0f	-0.038784083
127	0x3ded0138	0.11572498
128	0xbd1c7bf0	-0.038204134
129	0x3c1f7fbf	0.009735047
130	0xbe093a56	-0.1340116
131	0xbccf25c8	-0.02528657
132	0x3cef8115	0.029236356
133	0xbc808714	-0.01568941
134	0x3c02621d	0.007957962
135	0xbd83a678	-0.06428236
136	0xbd35f2e2	-0.044421084
137	0x3d153e39	0.036436293
138	0x3da3974f	0.07987844
139	0xbdafec3d	-0.08589981
140	0x3cfd0db2	0.03089032
141	0x3c9239df	0.01784986
142	0xbc9efb62	-0.019406978
143	0x3d18c0a0	0.037293077
144	0x3dedfc17	0.11620348
145	0x3c994584	0.018709905
146	0xbce487b3	-0.027896738
147	0xbd9f3ecf	-0.07775652
148	0x3db47e09	0.08813102
149	0xbc8a22bd	-0.016862268
150	0x3d902753	0.070387505
151	0x3db5fa07	0.088855796
152	0x3dbd82a5	0.09253434
153	0x3d07f518	0.033192724
154	0xbdf8d052	-0.12149109
155	0x3dacee0a	0.0844384
156	0x3d8cc8a4	0.06874207
157	0xbcf96b76	-0.03044675
158	0x3cd9ac1e	0.02657133
159	0x3dc296e9	0.0950144
160	0x3dd6471b	0.10462781
161	0xbdf9d9cd	-0.12199745
162	0xbd9c7a6b	-0.07640537
163	0x3dab58af	0.083665244
164	0x3dce17e5	0.10063151
165	0xbd52a0fa	-0.05142305
166	0x3d9868b3	0.07441845
167	0xbb1b4ac2	-0.0023695682
168	0xbd9bb66e	-0.07603155
169	0xbddae150	-0.10687506
170	0x3de47828	0.111557305
171	0x3d909566	0.070597455
172	0xbd919d52	-0.071100846
173	0xbdf3d03c	-0.11904952
174	0x3c49227a	0.012276286
175	0x3e0c8f3e	0.13726518
176	0x3be891a1	0.0070974384
177	0x3e112063	0.14172511
178	0xbd815b43	-0.06316235
179	0x3de0979c	0.10966417
180	0x3d412434	0.047153667
181	0x3de3d3c5	0.11124376
182	0xbdd887b9	-0.10572762
183	0xbc47a91f	-0.012186318
184	0x3e05a32d	0.13050528
185	0xbdc84371	-0.097784884
186	0xbca13b19	-0.0196815
187	0x3e0e4bcc	0.13896102
188	0x3d0cce7d	0.03437661
189	0x3de2cb75	0.110739626
190	0x3d6e4140	0.058167696
191	0xbe0bb66c	-0.13643807
192	0xbd94ebaa	-0.07271512
193	0x3d802d61	0.06258655
194	0x3a8e29e9	0.001084623
195	0xbcc0d515	-0.023539105
196	0xbb20349e	-0.0024445425
197	0xbdae615a	-0.08514662
198	0xbd51a051	-0.05117828
199	0xbcf7fc8f	-0.030271797
200	0xbccb7c0e	-0.024839427
201	0x3c8c4f85	0.017127762
202	0x3d7a7f3f	0.061156508
203	0x3c5af82a	0.013364831
204	0xbe0a30ee	-0.13495228
205	0x3d504980	0.050851345
206	0x3d34a07e	0.04409837
207	0x3c17410b	0.009231816
208	0x3de07ccd	0.10961304
209	0xbdd59a6c	-0.10429844
210	0xbda9f133	-0.08297958
211	0x3c974a75	0.018468121
212	0x3cc2a6dd	0.023761207
213	0xbd8a4761	-0.06751896
214	0x3da69eb9	0.08135743
215	0xbd96d53a	-0.073648885
216	0x3c6db814	0.01450922
217	0xbd8fb9a0	-0.07017827
218	0xbd87719e	-0.06613468
219	0xbd98ada7	-0.074549966
220	0xbdee3471	-0.11631096
221	0xbd703ca8	-0.058651596
222	0x3d6d0407	0.05786517
223	0xbe0f37e3	-0.13986163
224	0xbd9a2efe	-0.07528494
225	0x3e0ae7ce	0.13564989
226	0x3dab6bf7	0.08370202
227	0x3dc97fb5	0.09838811
228	0x3dafc2aa	0.08582051
229	0xbd82b9e0	-0.06383109
230	0x3dba374b	0.090925775
231	0xbdcba8ef	-0.09944331
232	0x3d8db93b	0.069200955
233	0x3dc81083	0.09768774
234	0xbd0f85c6	-0.035039686
235	0x3d386541	0.04501844
236	0x3de54e11	0.111965306
237	0xbdd7330b	-0.105077825
238	0x3ce27cfa	0.027647484
239	0x3d6b5b3c	0.057460055
240	0x3db4caef	0.08827769
241	0xbdd2078b	-0.10255345
242	0x3dc0f5fa	0.09421916
243	0xbdb85ebe	-0.09002446
244	0xbda984a7	-0.082772546
245	0xbad88bb8	-0.0016521132
246	0xbccea827	-0.025226666
247	0x3ce28020	0.027648985
248	0x3da484e4	0.080331594
249	0x3d46d960	0.04854715
250	0xbd166f99	-0.03672752
251	0xbdedc8a2	-0.11610533
252	0xbcc66c8d	-0.024221683
253	0xbe048b2a	-0.12943712
254	0x3d852824	0.06501797
255	0x3d573d15	0.052548487

block1.0.bias f4 [256]
0	0x3e421c20	0.18956041
1	0xbe312b22	-0.1730161
2	0x3cb1ff4f	0.021728186
3	0xbc45bc90	-0.012068883
4	0x3e108621	0.14113666
5	0x3e0c9a52	0.13730744
6	0xbc93754e	-0.018000271
7	0xbdd8f665	-0.10593871
8	0xbd99f2e8	-0.07517034
9	0xbcd212b9	-0.025643693
10	0x3d642b46	0.05570533
11	0xbc873927	-0.016506745
12	0x3e1ca950	0.15298963
13	0xbe36e6bc	-0.17861456
14	0x385c2e3a	5.249514e-05
15	0x3dedcd90	0.116114736
16	0xbc867229	-0.016411858
17	0x3d40d2c2	0.047075994
18	0x3d1a88fe	0.037728302
19	0xbd114ed9	-0.035475586
20	0xbdc5ce61	-0.09658504
21	0xbd68a80c	-0.056800887
22	0xbcf4aa9d	-0.029866511
23	0x3e15c9d3	0.14627771
24	0x3d357046	0.044296525
25	0x3c3f1c35	0.01166444
26	0x3dbfb632	0.09360923
27	0x3e308bcb	0.17240827
28	0xbcfe5db7	-0.031050546
29	0xbc314e11	-0.010821835
30	0xbe1b2817	-0.15152012
31	0xbc3f7e75	-0.011687865
32	0xbd5c5d5e	-0.05379998
33	0x3dbfded2	0.093686715
34	0xbba9411a	-0.0051652314
35	0xbc4283fa	-0.011872286
36	0xbd881c28	-0.066459954
37	0x3df594ab	0.11991247
38	0x3d46baca	0.04851798
39	0xbaf279ff	-0.0018499492
40	0x3c87f24a	0.016595025
41	0xbde45c56	-0.11150424
42	0xbe2dabd4	-0.16960078
43	0x3dc50d97	0.09621733
44	0x3b48e39f	0.003065325
45	0xbd9a9529	-0.07547981
46	0x3e187f0e	0.14892218
47	0x3dec540b	0.115394674
48	0xbd894ef2	-0.06704511
49	0x3d88fac1	0.066884525
50	0x3deca6dc	0.115552634
51	0xbda028f8	-0.07820314
52	0x3d9c92da	0.07645197
53	0x3cf8f653	0.030390894
54	0x3d051300	0.032488823
55	0x3d997808	0.07493597
56	0x3c01310d	0.00788523
57	0x3e10f94c	0.14157599
58	0x3d0e2b32	0.034709163
59	0x3dd0fbe6	0.10204296
60	0xbcac439b	-0.02102833
61	0xbde356f3	-0.111005686
62	0xbdf94854	-0.121719986
63	0x3ca934e6	0.020655107
64	0x3e26ed0a	0.1630136
65	0x3da678d0	0.08128512
66	0x3e1bd243	0.15216927
67	0xbd4c6e8b	-0.04991011
68	0x3dafc6c6	0.08582835
69	0xbd6d7c4e	-0.057979874
70	0x3c89519a	0.016762543
71	0x3da29ac3	0.07939675
72	0xbe5eaacf	-0.21744846
73	0xbc2bf5c9	-0.0104956115
74	0x3c320640	0.010865748
75	0x3d80a12b	0.0628074
76	0xbd9b26ca	-0.07575758
77	0xbcc3da4d	-0.023907805
78	0x3ce3b4e0	0.027796209
79	0x3db79003	0.08963015
80	0x3e29227c	0.16517061
81	0x3d86f18f	0.065890424
82	0x3e35bffb	0.17749016
83	0x3dddcbcc	0.10829887
84	0x3d34f279	0.044176552
85	0xbcd07bf5	-0.025449732
86	0xbd03479d	-0.032050718
87	0x3e41308e	0.18866178
88	0x3c36c66b	0.011155705
89	0x3d254fa7	0.040359166
90	0x3d8282a8	0.06372577
91	0xbda2c9b5	-0.07948629
92	0x3d647820	0.055778623
93	0xbcb619c6	-0.022229087
94	0xbc4c1a10	-0.012457386
95	0x3cc1f6f8	0.023677334
96	0xbe2f7206	-0.1713334
97	0xbdc463cd	-0.09589348
98	0xbdb188b3	-0.086686514
99	0x3e1d242b	0.15345828
100	0xbdad6ba2	-0.08467795
101	0xbda2b75f	-0.079451315
102	0xbd919822	-0.07109095
103	0x3d242d3b	0.040082198
104	0x3daa84c2	0.08326103
105	0xbd828027	-0.06372099
106	0xbc8037bb	-0.015651574
107	0x3cb13f9b	0.021636775
108	0x3df3bbd1	0.119010575
109	0x3d94b421	0.07260919
110	0x3d05a4b1	0.032627765
111	0xbd137000	-0.035995483
112	0x3d82cfb1	0.0638727
113	0x3e3553b8	0.17707717
114	0x3ddbb1dc	0.10727283
115	0xbc974f80	-0.018470526
116	0xbdb7d96c	-0.08977017
117	0xbc3abc9e	-0.011397509
118	0xbd38d7c8	-0.04512766
119	0x3ca7de87	0.020491851
120	0x3d0a20cc	0.033722684
121	0x3caa76c5	0.020808587
122	0x3d214d7d	0.03938054
123	0xbd0060d9	-0.03134236
124	0xbd109560	-0.035298705
125	0x3d76c520	0.060246587
126	0x3da04a62	0.078266874
127	0xbde131da	-0.109958366
128	0xbc3c8366	-0.011505937
129	0xbc6c144d	-0.014409137
130	0xbda9a65e	-0.08283685
131	0x3dfb582b	0.12272676
132	0x3dfa3609	0.12217338
133	0xbdc19671	-0.094525225
134	0xbd7389cb	-0.05945758
135	0x3e8335ff	0.25627133
136	0x3c3c4c81	0.011492849
137	0x3db02bec	0.086021274
138	0xbd5ab5de	-0.0533961
139	0x3d5c6661	0.053808574
140	0xbd4d71bf	-0.050157305
141	0xbd68eacb	-0.05686454
142	0x3cf39a6f	0.029736726
143	0xbe684cec	-0.22685593
144	0x3d1b3a6b	0.03789751
145	0x3e1cf75d	0.15328737
146	0x3d265266	0.040605925
147	0x3db8636f	0.090033405
148	0xbd46e3f7	-0.048557248
149	0x3dcc8536	0.099863455
150	0xbd037d77	-0.032102074
151	0x3e1fd1e8	0.15607417
152	0x3d8f8916	0.07008569
153	0x3d95a7e5	0.07307414
154	0xbda4d4d5	-0.08048407
155	0xbcbc8c23	-0.023016041
156	0x3cc67484	0.02422548
157	0x3ddf342e	0.10898624
158	0xbd31ac6b	-0.04337732
159	0x3beb9359	0.007189196
160	0x3e2883eb	0.16456573
161	0x3d18f7b9	0.03734562
162	0x3cb76bf7	0.022390349
163	0x3c0c9e20	0.008582622
164	0x3d7259b6	0.059167586
165	0x3e4f466d	0.20241709
166	0xbd986f5d	-0.07443116
167	0x3d03dc75	0.032192666
168	0xbe1fcb2d	-0.15604849
169	0xbe2892cb	-0.16462247
170	0x3ddf5870	0.1090554
171	0xbd8eeb50	-0.06978476
172	0xbdd63def	-0.10461032
173	0xbda368a0	-0.0797894
174	0xbc52fc34	-0.012877513
175	0xbd7b00cd	-0.06128006
176	0xbdef8b46	-0.11696486
177	0xbe907892	-0.28216988
178	0x3d1a36df	0.037649985
179	0x3d5d9727	0.05409923
180	0x3c069349	0.008213826
181	0xbd87cb9f	-0.066306345
182	0x3d8a5f26	0.067564294
183	0x3e0c2dcb	0.13689344
184	0x3d92b181	0.071627624
185	0x3ae49f11	0.0017442425
186	0xbd297f5d	-0.04138123
187	0xbcff7b37	-0.031186683
188	0xbd9fc52b	-0.07801279
189	0xbbab7a92	-0.0052331174
190	0x3ca88606	0.02057172
191	0xbd06ad9d	-0.032880414
192	0x3d16127a	0.036638714
193	0x3e0fa909	0.14029326
194	0x3d9566ec	0.072950214
195	0x3da6534d	0.08121357
196	0x3e4c740c	0.19966143
197	0xbe0aa177	-0.13538156
198	0xbc80d6d6	-0.015727442
199	0xbdbaf593	-0.09128871
200	0xbd16d866	-0.036827467
201	0xbd9fd4c2	-0.07804252
202	0xbbdf923b	-0.006822852
203	0xbd788b04	-0.06067945
204	0x3e384825	0.17996271
205	0xbb65f096	-0.0035086027
206	0xbd1e5e0c	-0.03866391
207	0x3d1b1f6d	0.037871767
208	0x3e202bde	0.15641734
209	0x3d7c3d12	0.06158168
210	0x3d9373ca	0.071998194
211	0x3de76de7	0.11300259
212	0x3d325938	0.043542117
213	0xbe289fb1	-0.16467167
214	0x3e193d06	0.14964685
215	0xbe5fd0de	-0.2185702
216	0xbe112a55	-0.14176305
217	0xbc022cc9	-0.007945248
218	0x3c63786e	0.013883693
219	0x3be3b744	0.006949337
220	0x3d4a6c8f	0.049419936
221	0x3d73548b	0.0594068
222	0xbd1dd3fc	-0.038532242
223	0x3c14ea05	0.009088998
224	0x3ce38e6d	0.027777875
225	0xbe06a13f	-0.13147448
226	0xbd8ecd38	-0.06972736
227	0x3e205640	0.15657902
228	0x3c9eb827	0.01937492
229	0xbd1e17a2	-0.038596757
230	0x3d11abfa	0.0355644
231	0x3e1f55ca	0.1556007
232	0xbc9e7f88	-0.019347921
233	0x3e180fc1	0.1484976
234	0xbdda18fe	-0.10649298
235	0xbe0f73b0	-0.14008975
236	0x3dd0b75c	0.10191223
237	0xbccae9d8	-0.024769709
238	0x3d3ff413	0.046863627
239	0xba9ea5b6	-0.0012103829
240	0x3e16cf08	0.14727414
241	0xbdad6db8	-0.08468193
242	0xbbb2a046	-0.005451235
243	0xbad7f8e8	-0.0016477378
244	0xbb502284	-0.0031758854
245	0x3afa9247	0.001911708
246	0x3a1e08b6	0.000602852
247	0x3d019172	0.031632848
248	0x3dd6f24c	0.10495433
249	0x3da96898	0.08271903
250	0x3d3158ec	0.043297693
251	0xbc01a0c0	-0.007911861
252	0xbde32666	-0.11091308
253	0xbe81ec37	-0.2537553
254	0x3c63501e	0.013874082
255	0xbdd22d0d	-0.10262499

block1.2.weight f4 [64, 256]
0	0x3d5c8583	0.053838264
1	0xbcc6a57f	-0.024248837
2	0xbcae183d	-0.021251792
3	0xbc52d1f3	-0.012867439
4	0x3d50999a	0.050927736
5	0x3c8663b4	0.016404964
6	0x3d43ec0c	0.047832534
7	0xbcd8c6a3	-0.026461905
8	0xbbd45147	-0.0064794156
9	0xbcf44796	-0.029819291
10	0x3ce8ead8	0.028432295
11	0xbdc39f28	-0.09551841
12	0xbd83634a	-0.06415422
13	0xbd2c30d6	-0.04203876
14	0xbb4f8b96	-0.0031668893
15	0xbd53d424	-0.051715985
16	0x3add3d4d	0.0016879231
17	0x3d22cab5	0.039744098
18	0x3c59f646	0.013303345
19	0x3d3bbe45	0.045835752
20	0xbd2100e8	-0.039307505
21	0x3dbf3a18	0.093372524
22	0x3c6c0659	0.01440581
23	0xbd666470	-0.05624813
24	0xbdbba5b1	-0.091624625
25	0xbc832ada	-0.016011644
26	0x3d2b9151	0.04188663
27	0x3e12cb37	0.14335333
28	0xbdb65a86	-0.08903985
29	0xbd6d9994	-0.05800779
30	0x3d809602	0.06278612
31	0x3d50a48b	0.05093817
32	0x3d9de153	0.07708993
33	0x3d92a686	0.07160668
34	0xbd238de4	-0.03993024
35	0xbd8a9643	-0.067669414
36	0x3c98db73	0.018659329
37	0xbc9e6b35	-0.01933823
38	0x3d3ed026	0.046585225
39	0xbd72cb29	-0.05927578
40	0x3c0331a8	0.008007444
41	0x3d32e04f	0.04367095
42	0x3d5852d6	0.052813374
43	0xbd3850ba	-0.04499886
44	0x3c5893c6	0.013218826
45	0xbdac50e6	-0.08413868
46	0xbd87f62e	-0.06638752
47	0x3cf60f9c	0.03003674
48	0xbce0e025	-0.02745063
49	0x3dbbbb8b	0.0916663
50	0xbcfb849c	-0.030702882
51	0xbd6843a5	-0.056705136
52	0xbc58e9ca	-0.013239333
53	0xbd59c1b3	-0.05316324
54	0xbd804a14	-0.06264129
55	0xbcf910a3	-0.03040344
56	0x3cf7b972	0.030239794
57	0x3d488755	0.048957188
58	0xbc9e015b	-0.019287756
59	0xbcbbce4e	-0.022925522
60	0x3c437fdf	0.011932342
61	0x3d811e5d	0.063046195
62	0x3d6c3ba2	0.057674058
63	0xbd043307	-0.032275226
64	0xbd4c1a43	-0.049829733
65	0x3a4acd18	0.000773625
66	0x3dfc49a4	0.12318733
67	0x3c94a2eb	0.018144092
68	0x3dd0a15e	0.10187028
69	0x3d8889d6	0.06666915
70	0x3c82f32c	0.015985094
71	0x3d0ffb81	0.035151962
72	0xbc768fb5	-0.015048911
73	0xbcb6278c	-0.022235654
74	0xbd48388e	-0.04888206
75	0x3c881ab4	0.016614296
76	0x3d357a4d	0.04430609
77	0x3c017069	0.007900336
78	0xbb2ca53d	-0.0026343607
79	0x3c11a4dd	0.008889404
80	0x3c6d4e67	0.014484025
81	0x3c0f4d7b	0.0087465
82	0x3d80a0c5	0.06280664
83	0xbd583539	-0.052785132
84	0xbc44ff37	-0.012023739
85	0xbceb04b3	-0.028688764
86	0x3cf97a06	0.030453693
87	0x3b571715	0.0032820154
88	0x3d4966e6	0.049170397
89	0x3b98f267	0.0046675685
90	0x3cf90409	0.030397432
91	0x3cf6d1a7	0.030129267
92	0xbd4ff095	-0.050766546
93	0x3cf91475	0.030405262
94	0x3cb75a1e	0.022381838
95	0x3d078d78	0.0330939
96	0xbd5970a7	-0.05308595
97	0x3d4f011f	0.05053818
98	0xbb2fbd6e	-0.002681579
99	0xbd41962b	-0.047262352
100	0x3cb37730	0.021907419
101	0x3c227e4a	0.009917805
102	0xbd54ee1a	-0.051984884
103	0xbd9bc091	-0.076050885
104	0x3d1378a4	0.036003724
105	0x3d667363	0.056262385
106	0x3bce4f24	0.0062960554
107	0xbd85435b	-0.06506988
108	0x3d2ff7a4	0.042960778
109	0xbdb7ee92	-0.089810506
110	0xbd6274e4	-0.055287257
111	0xbc2257aa	-0.009908596
112	0x3d392bcc	0.045207784
113	0x3d930b52	0.071798936
114	0xbd29afdc	-0.04142748
115	0xbcb2aa52	-0.02180973
116	0x3cec6fc0	0.02886188
117	0x3a29ea11	0.0006481717
118	0xbd5b9c40	-0.05361581
119	0x3bb7d6ad	0.005610308
120	0xbd073cb7	-0.033016887
121	0xbd7e0c7d	-0.06202363
122	0x3ce9b6e1	0.028529586
123	0xbd7899ca	-0.06069354
124	0xbdb2a0b6	-0.087220594
125	0xbc47ec0b	-0.012202273
126	0xbd01c04d	-0.031677533
127	0x3c9fd8fe	0.01951265
128	0x3d8fd2f4	0.07022658
129	0x3d2867b2	0.041114517
130	0x3dacbb2c	0.08434138
131	0xbd76ee0b	-0.06028561
132	0xbd7697bc	-0.0602033
133	0x3d4a7adf	0.049433585
134	0xbd346fd0	-0.044051945
135	0x3c1fe9a0	0.00976029
136	0x3c78a975	0.01517712
137	0xbc0729a5	-0.008249675
138	0xbd032b7b	-0.032023888
139	0xbd316ed1	-0.043318573
140	0x3c988326	0.018617224
141	0xbc2f57d8	-0.010702096
142	0xbc7a7ed5	-0.015289028
143	0x3d0999e4	0.033594027
144	0x3c3e3c7c	0.0116111
145	0xbbe1f254	-0.006895343
146	0xbca53b4a	-0.020169873
147	0xbceaf0de	-0.028679308
148	0x3d69818f	0.057008322
149	0xbc953f31	-0.018218609
150	0xbcb1ce18	-0.021704718
151	0xbd95ac52	-0.07308258
152	0x3a4f5542	0.0007909128
153	0x3ad54ba0	0.0016273148
154	0x3c83b8ea	0.016079385
155	0x3d21e98b	0.039529365
156	0xbd5d6fd6	-0.054061733
157	0x3ccba03e	0.024856683
158	0x3da5e251	0.08099807
159	0x3ca1ced3	0.019751942
160	0xbdfa088f	-0.12208664
161	0xbc47f6af	-0.01220481
162	0xbca9a3a0	-0.020707905
163	0x3d2b919b	0.041886907
164	0xbd0fb746	-0.035086893
165	0xbd02b2bb	-0.031908732
166	0xbd1054e2	-0.0352372
167	0x3d86b24f	0.065769784
168	0x3b761165	0.003754699
169	0xbd00e789	-0.03147081
170	0xbd403c78	-0.046932667
171	0x3d53e4e0	0.051731944
172	0xbcfbd416	-0.030740779
173	0x3db6d7cc	0.08927879
174	0xbd45ac77	-0.04826018
175	0x3d602ebc	0.05473207
176	0xbc904c56	-0.017614525
177	0x3dc19182	0.094515815
178	0x3c17e411	0.009270684
179	0x3cb41e4f	0.021987109
180	0x3db32b58	0.087485015
181	0x3d3b6382	0.045749195
182	0xbda43eae	-0.08019768
183	0xbda89401	-0.082313545
184	0xbd2f53db	-0.04280458
185	0xbd9ba7c9	-0.07600362
186	0xbd4fd962	-0.05074442
187	0x3d1b4bd6	0.03791412
188	0x3ce4d3c6	0.027933013
189	0x3d494972	0.04914231
190	0x3cb50661	0.022097768
191	0xbdbfa56c	-0.093577236
192	0xbd57fc3f	-0.052730795
193	0xbc797e07	-0.015227801
194	0xbbf25873	-0.007395798
195	0xbd56348f	-0.052296218
196	0xbb517de8	-0.0031965915
197	0x3ca88249	0.020569937
198	0xbda647b9	-0.08119149
199	0x3caddfce	0.021224882
200	0x3b841963	0.0040313466
201	0xbd78f81e	-0.060783498
202	0x3d1de786	0.038550876
203	0x3d80703d	0.06271408
204	0x3dc7c161	0.09753681
205	0xbdbcef8a	-0.09225376
206	0xbcdf1b31	-0.027234646
207	0xbbdee8e1	-0.0068026637
208	0x3d1890f7	0.037247624
209	0xbd5cd8ae	-0.05391758
210	0xbdf65710	-0.120283246
211	0xbc339fe3	-0.010963413
212	0xbc51ec75	-0.012812723
213	0x3daa8395	0.083258785
214	0x3db7a0a8	0.089661896
215	0xbd3da804	-0.04630281
216	0xbd608803	-0.05481721
217	0xbd30b6ed	-0.0431432
218	0x3c8441a4	0.016144581
219	0x3d00a1b6	0.03140422
220	0xbc81b174	-0.015831687
221	0xbc78243d	-0.015145359
222	0xbc8b4a1b	-0.01700311
223	0xbcbc6903	-0.022999292
224	0x3c7036db	0.014661516
225	0xbcd8499a	-0.026402283
226	0x3d6f94e0	0.058491588
227	0xbd91c1df	-0.07117056
228	0xbd31110a	-0.04322914
229	0x3d22863b	0.039678793
230	0xbd9a0e50	-0.07522261
231	0x3d047a08	0.03234294
232	0x3c9ee98f	0.019398479
233	0x3c18eb25	0.009333407
234	0x3d0ab50d	0.03386407
235	0x3d55df60	0.05221498
236	0x3d682a1f	0.056680795
237	0xbd62d8b5	-0.05538245
238	0x3d869969	0.065722294
239	0xbc5d6c67	-0.013514615
240	0x3d3623f4	0.04446788
241	0x3d455674	0.04817815
242	0x3bdd1042	0.006746323
243	0xbd49dc8b	-0.04928259
244	0xbd82ab9a	-0.06380387
245	0x3b98fa72	0.0046685273
246	0x3cd18b2d	0.02557906
247	0xbcafd0df	-0.021461902
248	0xbcea668c	-0.028613351
249	0x3cb8e13b	0.022568336
250	0xbd964e11	-0.07339109
251	0xbc8d0ab0	-0.01721701
252	0x3d9d6efd	0.07687185
253	0x3da2d54c	0.079508394
254	0xbd0647a3	-0.03278316
255	0x3ca2309e	0.019798573

block1.2.bias f4 [64]
0	0xbf13d555	-0.57747394
1	0x3c448028	0.011993445
2	0xbf81c7f0	-1.0139141
3	0xbd58aa1d	-0.052896608
4	0xbe96a1ef	-0.2942042
5	0xbddb6432	-0.1071247
6	0x3f5c5ba6	0.86077344
7	0x3d6de8ee	0.058083467
8	0x3ea2c38a	0.3178981
9	0x3ee84fe6	0.45373458
10	0xbf8d827b	-1.1055444
11	0x3e74c0bd	0.23901649
12	0xbdc2e1ad	-0.095157005
13	0x3e1c99db	0.15293066
14	0xbc891bb6	-0.016736846
15	0xbc1fd88d	-0.00975622
16	0x3d2bf82b	0.04198472
17	0xbf148ac0	-0.58024216
18	0xbfd27735	-1.6442629
19	0xbe9c85fe	-0.30570978
20	0x3db1a15f	0.08673357
21	0x3f16b09a	0.5886322
22	0x3ff8fc3c	1.9451976
23	0x3d33c238	0.043886393
24	0x3e66b87b	0.22531311
25	0x3f49756a	0.78694785
26	0xbe4eaa88	-0.2018224
27	0x3e6ff33e	0.23432633
28	0x3d15589b	0.036461454
29	0x3e1e2e60	0.15447378
30	0xbe2d8d2c	-0.16948384
31	0x3e9c17cd	0.3048691
32	0xbefd5ce3	-0.4948493
33	0x3e37676c	0.17910546
34	0xbe557287	-0.2084447
35	0x3f0fa6af	0.56113714
36	0x3dc49e58	0.09600514
37	0xbe4f7dff	-0.20262907
38	0xbf91c42a	-1.138799
39	0xbd84a030	-0.06475866
40	0x3ed82698	0.42216945
41	0x3abf4d70	0.0014595222
42	0xbe8f1301	-0.27944186
43	0x3e770688	0.24123585
44	0x3ddc6d0f	0.10762989
45	0x3e9140ea	0.28369838
46	0x3f7e3c69	0.9931093
47	0x3e6d3340	0.23164082
48	0x3eee860f	0.46586654
49	0x3ee1b385	0.44082275
50	0xbff984bc	-1.9493632
51	0x3f5029b9	0.81313664
52	0xbf3a2af8	-0.72721815
53	0x3fcfcc11	1.6234151
54	0x3c9901de	0.018677648
55	0xbe646c14	-0.22306854
56	0xbe416d2f	-0.18889306
57	0xbf3b4358	-0.73149633
58	0xbf7e72f6	-0.99394166
59	0x3ec08739	0.37603167
60	0xbdd8dee8	-0.10589391
61	0xbcbdfdf8	-0.02319239
62	0x3c0c019e	0.008545307
63	0xbdabf45a	-0.08396216

block2.0.weight f4 [256, 64]
0	0xbc46e330	-0.012139127
1	0xbdaa8d32	-0.08327712
2	0xbde4031c	-0.111334056
3	0x3d8dd6e2	0.06925751
4	0xbdb4c374	-0.08826342
5	0x3da6e4c2	0.08149101
6	0x3d3fade0	0.04679668
7	0xbdc8581e	-0.09782432
8	0xbc795b10	-0.015219465
9	0x3d592584	0.053014293
10	0xbc5aeb10	-0.013361707
11	0xbd013a10	-0.031549513
12	0xbddfc65e	-0.109265074
13	0xbd9ae5fa	-0.07563396
14	0x3d8ec3b2	0.0697092
15	0xbde7f23e	-0.11325501
16	0xbdea0fb6	-0.11428778
17	0x3a9c3580	0.00119178
18	0xbc26c350	-0.010178402
19	0xbd46d2cc	-0.048540875
20	0xbd345708	-0.044028312
21	0xbc7812a0	-0.015141159
22	0xbcf02188	-0.029312864
23	0x3d85ccee	0.06533228
24	0xbdd7f74c	-0.10545215
25	0xbdc1247c	-0.09430787
26	0xbd4f9708	-0.050681144
27	0x3d95a5f4	0.07307044
28	0xbc15e290	-0.009148255
29	0x3caeb980	0.021328688
30	0xbda2423c	-0.079227895
31	0xbb7656c0	-0.0037588328
32	0x3cf58d58	0.029974625
33	0xbdc461a6	-0.095889375
34	0x3d04548c	0.032307193
35	0x3b790fc0	0.0038003772
36	0x3dde3a36	0.108509466
37	0x3db574cc	0.08860168
38	0xbde1068c	-0.10987577
39	0xbd906a4e	-0.07051526
40	0x3db01e72	0.08599557
41	0x3d9c96b6	0.07645933
42	0xbdddba7c	-0.10826585
43	0xbc419bd0	-0.011816934
44	0xbc82ed68	-0.015982345
45	0xbc76db60	-0.0150669515
46	0xbdd45382	-0.1036749
47	0xbd0cb2d8	-0.034350246
48	0x3dfc23ec	0.12311539
49	0xbd51a83c	-0.05118583
50	0x3cb9a8a8	0.02266343
51	0x3be601a0	0.0070192367
52	0xbc4596d0	-0.012059882
53	0x3de0375a	0.109480575
54	0xbc9d8488	-0.019228235
55	0x3d97690a	0.073930815
56	0xba367f00	-0.00069616735
57	0x3d879512	0.0662023
58	0xbd4d2078	-0.050079793
59	0x3d8ece24	0.06972912
60	0x3d6ef8fc	0.05834292
61	0x3c8bbd48	0.01705803
62	0xbc2f5480	-0.010701299
63	0xbdb6e1e6	-0.089298055
64	0x3c885060	0.016639888
65	0xbd89bb42	-0.0672517
66	0xbdfb30d4	-0.122651726
67	0xbc835c18	-0.016035125
68	0xbd3b08fc	-0.045662865
69	0xbc9e5fc8	-0.019332781
70	0x3879c000	5.954504e-05
71	0x3d39ee40	0.04539323
72	0x3da54bfe	0.08071135
73	0xbd677714	-0.056510046
74	0x3d94455a	0.0723979
75	0xbd7940f4	-0.06085296
76	0x3de5cb2a	0.11220391
77	0xbd500824	-0.050789014
78	0x3dfbd8f8	0.12297243
79	0x3d36b6c0	0.044607878
80	0xbdc49b8c	-0.09599981
81	0x3de051f6	0.10953133
82	0xbcd6da18	-0.026227042
83	0xbdd8cf36	-0.10586397
84	0x3d56d288	0.052446872
85	0x3d5e80a8	0.054321915
86	0x3dfd96d0	0.12382281
87	0xbce393b0	-0.027780384
88	0x3d994a88	0.07484919
89	0x3c9292c8	0.017892256
90	0xbb770900	-0.0037694573
91	0x3c116fc0	0.008876741
92	0x3da320aa	0.079652146
93	0xbaabdc80	-0.0013111979
94	0x393a8c00	0.00017790496
95	0x3d986836	0.07441752
96	0x3dd9e4dc	0.106393546
97	0x3cd4f5c0	0.025996089
98	0xbdb26632	-0.087108985
99	0x3db680f4	0.089113146
100	0xbd904b4e	-0.07045613
101	0xbd502144	-0.050812975
102	0xbdbbaefe	-0.091642365
103	0x3d97c30c	0.07410249
104	0x3dbe51e8	0.09292966
105	0xbdcf3836	-0.10118143
106	0xbdc609d2	-0.09669842
107	0x3dd2f426	0.10300474
108	0x3d689250	0.05678016
109	0x3d28e220	0.041231275
110	0x3c84e410	0.01622203
111	0x3dd63806	0.104599044
112	0x3dfbd9ac	0.12297377
113	0xbd1f0acc	-0.038828656
114	0xbdf45542	-0.11930324
115	0xbda8ff70	-0.08251846
116	0x3cdb35a0	0.026758969
117	0xb8901800	-6.8709254e-05
118	0x3d86607e	0.06561373
119	0xbdc88d38	-0.0979256
120	0x3d02458c	0.031804606
121	0x3c166c80	0.009181142
122	0xbd5de4ec	-0.054173395
123	0x3d589000	0.052871704
124	0xbd564250	-0.052309334
125	0xbc806ae0	-0.015675962
126	0xbdeb2264	-0.11481169
127	0x3d38418c	0.044984385
128	0xbde2cd0c	-0.11074266
129	0xbb9b4340	-0.0047382414
130	0xbde342c2	-0.110967174
131	0xbd99886c	-0.074967235
132	0xbcdc2890	-0.02687481
133	0x3d3bb0c8	0.04582289
134	0xbd1cb6c8	-0.03826025
135	0xbd9ec3ca	-0.077521876
136	0xbd76778c	-0.060172603
137	0x3cadc710	0.021213084
138	0x3d879d90	0.066218495
139	0xbca65048	-0.020301953
140	0xbd81bce2	-0.06334855
141	0xbb90b700	-0.0044163465
142	0xbde8c988	-0.11366564
143	0x3d6190e4	0.05506982
144	0x3db267dc	0.08711216
145	0x3de4f66e	0.11179815
146	0xbc262170	-0.010139808
147	0x3ddb78c8	0.107163966
148	0x3da00c0a	0.07814796
149	0xbc19a4a0	-0.009377629
150	0x3cbe9038	0.023262128
151	0x3bcf98c0	0.006335348
152	0x3d1521c0	0.03640914
153	0xbdf33462	-0.118752256
154	0xbd73e1e0	-0.059541583
155	0xbc251ff0	-0.010078415
156	0x3d50a544	0.05093886
157	0x3cb362c8	0.021897689
158	0x3db12dea	0.086513355
159	0xbd9c8110	-0.07641804
160	0x3db1a908	0.08674818
161	0xbd029ebc	-0.031889662
162	0xbd792610	-0.060827315
163	0x3dfc6ca8	0.12325412
164	0x3dd360dc	0.10321209
165	0x3df689d0	0.120380044
166	0xbb9a5560	-0.0047098845
167	0xbdd1497a	-0.10219093
168	0x3d19a0a0	0.0375067
169	0xbd957478	-0.07297605
170	0xbcefd8b0	-0.02927813
171	0xbdbc1710	-0.09184086
172	0xbcbb0490	-0.022829324
173	0xbbe97dc0	-0.0071255863
174	0xbddce096	-0.10785024
175	0xbdc20e8a	-0.09475429
176	0xbc811a90	-0.015759736
177	0x3c4eb270	0.012615785
178	0x3ddd66da	0.10810633
179	0x3c63f280	0.013912797
180	0xbdd951dc	-0.106113166
181	0x3cf35500	0.029703617
182	0xbd2034cc	-0.03911285
183	0xbdf51f7e	-0.11968897
184	0x3dae055a	0.084971145
185	0x3df1b2de	0.11801694
186	0xbb338ac0	-0.0027395934
187	0x3d7e4f3c	0.062087283
188	0xbcd74e90	-0.026282579
189	0xbc2620e0	-0.010139674
190	0x3d328244	0.043581262
191	0xbca7d948	-0.02048935
192	0x38cad800	9.672344e-05
193	0xbd24e414	-0.040256575
194	0x3d555418	0.05208215
195	0xbd41c7d0	-0.047309697
196	0xbdae22cc	-0.08502731
197	0xbd7a1bec	-0.061061785
198	0x3daac1ba	0.08337732
199	0x3db166f6	0.08662216
200	0x3b9bb180	0.0047513843
201	0xbd7e12d0	-0.06202966
202	0x3d13c0b8	0.036072463
203	0xbd2970e4	-0.041367427
204	0x3ce844e8	0.02835317
205	0x3dfb56e6	0.12272434
206	0x3cef41b0	0.029206127
207	0x3d972ff8	0.07382196
208	0x3da57d6e	0.080805644
209	0xbd09b830	-0.03362292
210	0xbdddc612	-0.108287945
211	0xbcbd08e8	-0.023075536
212	0x3dedacf0	0.11605251
213	0xbd208610	-0.039190352
214	0x3d44cf98	0.04804954
215	0x3d965cbc	0.073419064
216	0x3dd7dde4	0.10540369
217	0xbc9633d8	-0.018335268
218	0xbd3b8208	-0.045778304
219	0xbc95e938	-0.018299684
220	0x3df93bde	0.12169622
221	0x3d848298	0.06470221
222	0xbcb8cbe8	-0.022558168
223	0xbdeec6f4	-0.11659041
224	0xbd6f60f0	-0.058442056
225	0x3d4a0d14	0.04932888
226	0x3d718c24	0.05897154
227	0xbc7cc860	-0.0154286325
228	0xbd89946c	-0.06717762
229	0xbd4b4028	-0.04962173
230	0xbd2f6b14	-0.042826727
231	0x3dfd78da	0.12376566
232	0xbd5678b8	-0.05236122
233	0xbcdee7a0	-0.027210057
234	0x3df86b52	0.12129845
235	0xbba731a0	-0.0051023513
236	0x3dff1702	0.1245556
237	0x3d2510bc	0.040299162
238	0xbdf16b62	-0.1178806
239	0x3dc7af4c	0.09750232
240	0xbcabb1c0	-0.020958781
241	0xbdc99620	-0.09843087
242	0xbd391ac8	-0.045191556
243	0x3d9ba3fa	0.075996354
244	0x3b54cb40	0.003246978
245	0xbdfcebf6	-0.123496935
246	0xbd31f2ac	-0.04344432
247	0x3dc801e8	0.097659886
248	0x3d0003b4	0.03125353
249	0xbb729c00	-0.0037019253
250	0x3d01f380	0.03172636
251	0x3d97c27c	0.07410142
252	0xbc2a9ff0	-0.010414109
253	0x3d20f0b4	0.039292052
254	0x3df10902	0.11769296
255	0xbdbc9e24	-0.092098504

block2.0.bias f4 [256]
0	0x3dd21146	0.10257201
1	0xbdda1436	-0.10648386
2	0x3de0a02c	0.1096805
3	0xbc7552e0	-0.014973372
4	0x3db3cfda	0.08779879
5	0xbdeafe66	-0.11474304
6	0xbcbd3f38	-0.023101434
7	0xbd8ce866	-0.06880264
8	0x3de7d894	0.11320606
9	0xbda65b80	-0.08122921
10	0xbdeedfb0	-0.11663759
11	0xbdbde2c4	-0.09271768
12	0x3d892c16	0.06697862
13	0xbdc52adc	-0.096273154
14	0xbd5d4360	-0.054019332
15	0x3dfbffa4	0.12304619
16	0xbc159b70	-0.0091312975
17	0x3da1ecd0	0.079064965
18	0xbbbd5b00	-0.0057786703
19	0x3d85e154	0.065371186
20	0xbdcac8b8	-0.09901565
21	0x3d87cae0	0.06630492
22	0x3d78aa04	0.060709015
23	0xbdc66be2	-0.09688546
24	0xbd836356	-0.06415431
25	0x3d00a440	0.03140664
26	0x3dad5b60	0.08464694
27	0x3d170838	0.036873072
28	0xbbd81180	-0.006593883
29	0x3dda0876	0.10646145
30	0xbdf16f02	-0.11788751
31	0x3da69ff2	0.08135976
32	0x3ddf976c	0.10917553
33	0xbd06baf8	-0.03289315
34	0x3bc93920	0.006140843
35	0x3d8f85ce	0.07007943
36	0xbd6f9e80	-0.058500767
37	0xbdb1b1cc	-0.0867649
38	0xbcea0db0	-0.02857098
39	0x3d7a4564	0.061101332
40	0x3cb07228	0.021538809
41	0x3df65652	0.12028183
42	0xbd79fac0	-0.06103015
43	0xbdb42aa0	-0.087971926
44	0x3b589ac0	0.0033051223
45	0x3dd57244	0.10422185
46	0xbdb137c4	-0.086532146
47	0x3d73fbe4	0.059566393
48	0xbda00442	-0.07813312
49	0xbd97d902	-0.07414438
50	0xbd2729f0	-0.04081148
51	0x3dcd396e	0.100207195
52	0xbdee06b0	-0.11622369
53	0x3dace9e0	0.084430456
54	0x3df0c838	0.11756939
55	0xbdf6defc	-0.1205425
56	0xbdb7a1b6	-0.08966391
57	0xbd1b6a88	-0.037943393
58	0xbd97c436	-0.07410471
59	0xbc799b30	-0.0152347535
60	0x3d3f5310	0.046710074
61	0xbdb1e88e	-0.086869344
62	0x3dacd48c	0.084389776
63	0x3dff4468	0.12464219
64	0x3d1d1ea4	0.0383593
65	0x3bc8e740	0.006131083
66	0x3dcb1338	0.09915775
67	0xbdba9cc2	-0.091119304
68	0x3ddad558	0.10685223
69	0x3d49d5d4	0.049276188
70	0xbdc14144	-0.094362766
71	0x3d47b268	0.048754126
72	0x3de7bfec	0.11315903
73	0xbdc09f2a	-0.09405358
74	0xbd0da700	-0.03458309
75	0xbd804e22	-0.06264903
76	0x3c24e550	0.010064438
77	0xbd430b70	-0.04761833
78	0x3d33027c	0.04370354
79	0xbcb68fe0	-0.022285402
80	0x3d97c93e	0.07411431
81	0x3d1156f0	0.0354833
82	0x3d9dff58	0.077147186
83	0x3d4b9d44	0.049710527
84	0x3dd3009c	0.103028506
85	0xbdc7bde4	-0.09753016
86	0xbd545e24	-0.051847592
87	0xbd0b9d54	-0.034085587
88	0x3cd95420	0.026529372
89	0x3c17d550	0.009267166
90	0xbdbaeeb6	-0.09127562
91	0xbdfaa02a	-0.1223758
92	0xbd9f2e4c	-0.07772502
93	0xbdaf03e4	-0.08545664
94	0xbd843440	-0.064552784
95	0x3d70b730	0.05876845
96	0x3c279660	0.010228723
97	0x3dcba02a	0.09942658
98	0xbdb95fb4	-0.09051457
99	0x3d2cc01c	0.042175397
100	0xbde00da8	-0.10940105
101	0x3de3275c	0.110914916
102	0x3dabb56c	0.08384213
103	0x3db7f16c	0.089815944
104	0xbd856572	-0.0651349
105	0xbdf30a9a	-0.118672565
106	0xbd8f5160	-0.06997943
107	0x3dec2cce	0.11531983
108	0xbdf98f3c	-0.12185523
109	0x3dabf3ee	0.08396135
110	0xbdd0fd36	-0.10204546
111	0x3da94f6a	0.082671
112	0xbd83c1be	-0.06433438
113	0x3c8e7d28	0.017393664
114	0x3d9d53de	0.07682012
115	0xbd99f914	-0.07518211
116	0x3aba9f00	0.001423806
117	0xbd344180	-0.04400778
118	0x3c9dede8	0.019278482
119	0xbde8194a	-0.113329485
120	0xbc76f2a0	-0.015072495
121	0xbd6bacd0	-0.057537854
122	0x3ca8f710	0.020625621
123	0x3c94a078	0.018142924
124	0xbc630140	-0.0138552785
125	0x3d661a7c	0.0561776
126	0x3d85f5c6	0.06541018
127	0x3d0c296c	0.03421919
128	0xbd09b7d0	-0.033622563
129	0x3d22aaa0	0.039713502
130	0x3d85daa2	0.065358415
131	0x3c7904a0	0.015198857
132	0xbd1f723c	-0.0389273
133	0xbc590c60	-0.013247579
134	0xbd22e350	-0.039767563
135	0xbdb3bb46	-0.08775954
136	0xbd4c5dc8	-0.049894124
137	0x3dcc268c	0.0996829
138	0xbd54d798	-0.05196342
139	0x3c932150	0.01796022
140	0x3ddc99d0	0.10771525
141	0x3da0b864	0.0784767
142	0xbd9c5658	-0.07633656
143	0x3d25ad50	0.040448487
144	0x3dff72d8	0.124730766
145	0xbd99a8dc	-0.075029105
146	0xbd323e3c	-0.043516383
147	0x3dadbc9e	0.084832415
148	0x3dcba196	0.099429294
149	0x3d57cfac	0.052688286
150	0x3da1f142	0.079073444
151	0xbd332034	-0.043731883
152	0xbcae80f8	-0.021301731
153	0xbdb6b1f6	-0.08920662
154	0xbd177d90	-0.03698498
155	0xbd52504c	-0.05134611
156	0x3c687000	0.014186859
157	0x3d51fda0	0.051267266
158	0x3d919d5c	0.07110092
159	0x3dd8d438	0.105873525
160	0xbdfcffb8	-0.12353462
161	0x3dc2ba76	0.09508221
162	0xbd0b4eb4	-0.034010604
163	0xbdfb22a0	-0.122624636
164	0xbdb66d88	-0.0890761
165	0x3dc51f0a	0.09625061
166	0xbde9574a	-0.11393602
167	0xbdc17c18	-0.09447497
168	0xbd95129e	-0.072789416
169	0xbce6a068	-0.02815266
170	0x3c4029e0	0.011728734
171	0x3b9ce520	0.004788056
172	0xbdf61186	-0.12015061
173	0x3dd6db8a	0.104910925
174	0xbdcd171e	-0.10014175
175	0x3dcd6262	0.10028531
176	0xbd000718	-0.031256765
177	0xbdb82f9c	-0.08993456
178	0x3df07c6c	0.117424816
179	0x3df976f8	0.121808946
180	0x3d1b8edc	0.03797804
181	0x3dfa0fea	0.122100666
182	0x3de8d006	0.11367802
183	0x3dad8e38	0.08474392
184	0x3dfc5906	0.123216674
185	0x3dbd8f36	0.09255831
186	0x3d82cf42	0.063871875
187	0x3b5f11c0	0.003403768
188	0xbd21caec	-0.039500162
189	0xbd1c4be0	-0.038158298
190	0x3d5cb618	0.053884596
191	0x3dff893e	0.12477349
192	0xbde15a10	-0.11003506
193	0x3d0c30b4	0.034226134
194	0xbdf06368	-0.1173771
195	0x3dc6930e	0.09696017
196	0xbc869f18	-0.016433284
197	0x3dc5ea60	0.09663844
198	0x3d7d95c4	0.061910406
199	0xbd49d4b4	-0.049275115
200	0x3dc693ae	0.096961364
201	0xbda9dea8	-0.082944214
202	0x3db39fba	0.087707
203	0xbbc38520	-0.0059667975
204	0x3cc18bf8	0.023626313
205	0x3c66cbf0	0.014086708
206	0x3dbf14b6	0.09330122
207	0x3d1f2100	0.03884983
208	0x3c8431b0	0.016136974
209	0xbd910778	-0.07081503
210	0x3dd4139c	0.10355303
211	0x3cf4f7f8	0.029903397
212	0xbdc8ce96	-0.09805028
213	0xbc1f3050	-0.009716108
214	0x3de4b112	0.11166586
215	0x3ded4274	0.115849406
216	0x3dfcdb62	0.123465315
217	0xbd91e192	-0.07123102
218	0xbc26a4d0	-0.01017113
219	0xbd33e3c4	-0.043918386
220	0x3dd9297e	0.10603617
221	0x3b6f6b00	0.0036532283
222	0x3d92b298	0.0716297
223	0x3dc4d040	0.09610033
224	0xbc1f1350	-0.009709194
225	0x3d363bb0	0.044490516
226	0x3dc57b28	0.09642631
227	0xbcd8e7a0	-0.026477635
228	0xbdb8c940	-0.090227604
229	0xbd51b408	-0.05119708
230	0xbd84176c	-0.0644978
231	0xbca51e68	-0.0201561
232	0x3da1d2bc	0.079015225
233	0x3ddf9b3a	0.10918279
234	0xbddad232	-0.10684623
235	0xbd97708e	-0.07394515
236	0xbd10df44	-0.035369173
237	0xbd27dee4	-0.04098405
238	0xbc842970	-0.01613304
239	0x3dd4be34	0.10387841
240	0x3c04f540	0.008115113
241	0xbde171ca	-0.11008032
242	0x3d7e4728	0.06207958
243	0xbdef6d7e	-0.11690806
244	0x3d1710f8	0.036881417
245	0x3c1ccbe0	0.009570092
246	0x3df9c31c	0.12195417
247	0x3d8d8472	0.069100276
248	0x3d4d511c	0.05012618
249	0x3da10e28	0.07864028
250	0xbcf6f5c8	-0.030146495
251	0x3d2af4b0	0.04173726
252	0x3d01b9a0	0.031671166
253	0x3d86ae46	0.06576209
254	0xbd521ea8	-0.051298767
255	0x3dc74248	0.09729439
